models/Alappuzha_model.pth (torch, 6156 bytes, 9 tensors)

lstm.weight_ih_l0 f4 [32, 1]
000000 75 13 09 40 16 78 b6 3f 6c 19 d5 3f ea 48 03 40
       2.1418126 1.4255397 1.6648383 2.0513253
000010 aa e3 23 40 51 d7 cd 3e 9a 3e f9 3e e5 87 1e 40
       2.5607705 0.40203336 0.48680574 2.4770443
000020 44 74 06 40 0c 84 d3 3f b2 39 0f 40 f8 52 33 40
       2.1008463 1.6524673 2.2378964 2.801939
000030 6d 1c 30 40 79 45 6a 3f 2d c9 79 3f 8d 5c 1b 40
       2.751735 0.91512257 0.97572595 2.4275239
000040 84 e7 62 40 1c fc 1e 40 78 dc 26 c0 76 f4 57 c0
       3.5453806 2.4841375 -2.6072063 -3.3742957
000050 d4 17 42 40 8d b2 2f 40 06 82 f0 bf 57 16 50 40
       3.0327044 2.7452729 -1.878968 3.2513635
000060 8f 78 ff 3f 4a 3a 2d 3f 83 4e 5c 40 f0 88 4d 40
       1.9958667 0.6766707 3.442292 3.211483
000070 6d 01 80 40 e6 30 a1 3f a2 8a d3 3f 6d f0 16 40
       4.000174 1.2593048 1.6526682 2.3584244

lstm.weight_hh_l0 f4 [32, 8]
000000 bc 58 2e 3e 30 05 81 3e 26 77 d7 3d d7 ad 88 bd
       0.17026037 0.2519927 0.10520773 -0.06673782
000010 85 73 fc 3e b2 e5 e2 3e 36 9f 46 bd 07 7f ab 3e
       0.49306884 0.4431587 -0.04849168 0.33495352
000020 4d 80 c6 3e c8 4a b7 3e 9a 78 78 be a5 2f cb be
       0.3876976 0.3579924 -0.24264756 -0.39684787
000030 5e a1 ef 3e 93 de a7 3e e7 88 ad be c7 c4 fc bc
       0.468028 0.32786998 -0.3389351 -0.03085555
000040 ed 4a 9a 3e 42 d7 da 3e 48 ed e6 be 41 7f fd be
       0.3013529 0.42742354 -0.45102906 -0.4951115
000050 0a a9 e3 bd e8 ba 1f 3f 45 46 88 bd a3 b0 1d bd
       -0.11116226 0.6239457 -0.06654028 -0.038498532
000060 2a 25 89 3e 35 ce f3 3d 99 cc ee 3d da d9 9b bd
       0.26786166 0.11904565 0.11660118 -0.07609911
000070 eb 7f d4 3e ec d3 a8 bd d4 90 99 3e 9d 9a b7 3d
       0.41503844 -0.08243546 0.29993308 0.08965037
000080 ca 4d 54 bd d8 8b 1e 3f ef 99 2d be da c5 24 bf
       -0.051831998 0.61932135 -0.16953252 -0.643644
000090 04 60 4c 3e 4e 55 7e 3e 82 1f 67 be 30 c4 1e 3f
       0.19958502 0.24837229 -0.22570613 0.6201811
0000a0 4b 98 db bd 1b 82 b5 3c 49 f4 93 3e aa c3 14 3e
       -0.10722407 0.022156766 0.28897312 0.14527765
0000b0 e7 07 f4 bd 9e 04 70 3d 7e d4 2a 3e ae 4a 15 3d
       -0.1191557 0.058598153 0.16682622 0.036448173
0000c0 48 3e 2b 3e e8 e0 0c 3e fd f2 77 3d b3 77 8f be
       0.16722977 0.1375767 0.060534466 -0.2802101
0000d0 16 a3 20 be 1f f5 51 3e 4d de 4e 3e e1 b9 25 be
       -0.15687212 0.20503663 0.20201989 -0.16184188
0000e0 f0 b1 74 be a2 f8 c4 3d b6 96 99 bc 69 d1 7e bc
       -0.23896003 0.096177354 -0.018748622 -0.015552857
0000f0 0c 53 68 3d 2d b9 e6 3d 4f 1c 3b 3e 79 54 11 3e
       0.056719825 0.11265788 0.18272518 0.1419238
000100 6a 83 03 bf c0 cb 8c 3d 5c a1 b1 3d be 2c b2 3d
       -0.51372397 0.068748 0.08673355 0.0869994
000110 b1 fb 99 be 85 e4 a4 3c 26 8e 83 3e c6 bd a2 bd
       -0.30074838 0.020128498 0.25694388 -0.07946353
000120 c8 8d 66 3e dc 1b af 3e 69 e9 f5 bc a2 9e 48 bd
       0.22515023 0.34200943 -0.030018525 -0.04897941
000130 33 3d 4d 3e fd 8c 24 3e ff cb f7 3d 9a c2 a5 be
       0.20042877 0.16069408 0.12099456 -0.32375032
000140 19 61 d8 bd 87 61 dd be 2c a7 01 3f 5f 66 e9 bc
       -0.10565395 -0.4323847 0.5064571 -0.028491197
000150 1c 46 30 bf 8f ee ec be 93 ca 5a 3e 4a 99 49 be
       -0.6885698 -0.46275756 0.21366338 -0.19687381
000160 d6 fb 0d 3e f1 1e ad 3e f1 75 45 3c 90 ce 33 3e
       0.13865599 0.3381267 0.012052045 0.17559266
000170 c1 39 b9 be b3 e7 ba be 02 b4 af bc 73 3c 81 be
       -0.36176875 -0.36504897 -0.02144814 -0.25241432
000180 a6 27 8f be 08 af 9e 3e b1 ff 4f 3e 96 95 05 3e
       -0.27959937 0.30992913 0.20312382 0.13045344
000190 93 92 f3 3e ea 57 5b 3e 4d bb 8e 3c 10 e3 9c bc
       0.47572765 0.21420255 0.017423296 -0.01915124
0001a0 53 54 ce 3d e1 11 36 be 6d f6 fc 3d 24 7a 00 3c
       0.10074677 -0.17780258 0.123516895 0.007841621
0001b0 24 1f 92 3d 75 35 d7 be 80 85 7b 3e cf 90 96 be
       0.07134846 -0.42032972 0.24562645 -0.29407355
0001c0 b9 93 93 bd ee 99 56 3e 6a 09 b9 3e 63 7a 3c 3e
       -0.0720591 0.20957157 0.36139995 0.18406062
0001d0 85 e0 c6 be c4 64 04 be c0 33 b0 3d b8 93 89 3e
       -0.3884317 -0.12929064 0.086036205 0.26870513
0001e0 5d 36 77 bc cb 6d 06 3d 44 60 dd 3e d9 37 59 be
       -0.015088645 0.03281955 0.43237507 -0.2121271
0001f0 18 81 07 bf d9 ae 69 be 5e 1b 61 be c3 50 22 be
       -0.52931356 -0.22820605 -0.21983096 -0.1585112
000200 1b c1 33 3e 4c e5 18 bc ec 29 10 be f6 c6 02 3d
       0.17554133 -0.009332012 -0.14078492 0.031928025
000210 cd 7d 8f be 3c 12 28 be 0a 9c c9 bd 67 1c da bd
       -0.28025666 -0.16413206 -0.09844215 -0.106499486
000220 11 a1 07 be 77 c3 b9 3e 2f 25 97 be 17 ce 6f be
       -0.13245036 0.3628194 -0.29520556 -0.23418461
000230 4b d8 23 be 04 b9 12 3e ec 1b 8b be 67 67 5a bd
       -0.16000478 0.1432839 -0.2716974 -0.05332127
000240 9a 75 ac 3e 62 a6 97 be 5a 15 f6 be 11 fb b7 be
       0.33683473 -0.29619128 -0.48063165 -0.35933736
000250 04 18 e1 3e 5f 17 8c be db 3b 1c 3e 65 8a 3f be
       0.43963635 -0.2736158 0.15257208 -0.18705137
000260 5f 00 a9 bd 3d 2d c0 bc 97 4b 83 be 0c 21 5b 3e
       -0.08252024 -0.023459071 -0.25643608 0.21399325
000270 4d 7f db be 6e e9 00 bd c5 5c 90 3d 33 8b 83 be
       -0.4287056 -0.031472616 0.070489444 -0.25692138
000280 01 92 07 be 18 53 54 3e d0 61 5d 3c 38 78 9c be
       -0.1323929 0.20734823 0.01351209 -0.3056047
000290 b4 03 01 3c ca da b0 be f2 96 2d bd 85 a3 14 3e
       0.007874418 -0.34541923 -0.04238028 0.14515503
0002a0 33 c1 b6 3e 0a 7d 48 3d f2 8a b1 be 67 ed 8d 3e
       0.35694274 0.04894737 -0.3467632 0.27720186
0002b0 a2 30 e9 bd b4 fa 7d 3e 7d dc ae be 95 f1 c5 3e
       -0.11386229 0.24802667 -0.34152594 0.38660875
0002c0 17 12 af be 62 ef a4 be b6 e4 ec bd b0 a5 70 bc
       -0.3419349 -0.32213885 -0.11567061 -0.0146879405
0002d0 ea fc b1 be 15 65 82 be aa 1d fb 3d fa 96 f9 3d
       -0.3476327 -0.25467744 0.12261517 0.121869996
0002e0 c7 f5 5f 3e 46 24 fd bd 96 c9 af bd ce 6b 8f 3d
       0.218711 -0.12360434 -0.08583371 0.07002984
0002f0 ab 24 f3 bc 44 17 4c 3e b9 a2 2a bd 88 c8 db be
       -0.02968057 0.1993075 -0.04165909 -0.4292643
000300 b4 2f 31 be c9 78 76 bd 5f 74 48 3e 18 3b 47 3e
       -0.17303354 -0.060173783 0.19575642 0.19456136
000310 2e 22 98 be fa ea 8e 3e 21 72 2e 3d ad 3d b2 3e
       -0.29713577 0.27913648 0.04258931 0.3481268
000320 6a c6 40 3e 42 73 8a 3d 9c 49 94 3e db 90 6a be
       0.18825689 0.06760265 0.2896241 -0.2290682
000330 bb 26 0c 3e b3 0c a2 be 10 5b 07 be f1 31 fa bc
       0.1368665 -0.31650314 -0.13218331 -0.030541392
000340 44 2f d6 3e 66 83 e0 bd 40 9a 63 be a2 82 c0 be
       0.41832936 -0.10962562 -0.2222681 -0.37599665
000350 af 01 fc 3b dd f8 83 bd 8b d7 4d 3d f8 d0 f2 3e
       0.0076906304 -0.06443951 0.050254386 0.47425056
000360 27 16 a0 3a c9 c4 90 3e 67 6d ce bd 9d e8 1e be
       0.0012213633 0.28275135 -0.100794606 -0.15518422
000370 f1 d3 89 be 1b 80 f5 3d 0d 82 de 3d f0 97 1b be
       -0.2691951 0.11987325 0.10864649 -0.15194678
000380 fa 4f 24 bd 8c 8d c8 3e 7b 46 a3 bd 09 d7 b8 bd
       -0.040115334 0.39170492 -0.079724275 -0.0902539
000390 c3 d1 db 3e 16 01 b0 3d 20 86 d1 be 16 36 cb 3d
       0.42933473 0.08593957 -0.40922642 0.099224254
0003a0 e0 93 68 be 96 89 a5 bd 58 59 f6 3e 4c b3 c8 bc
       -0.2271266 -0.08082883 0.4811504 -0.024499558
0003b0 1f 8e 90 be f9 50 47 be f2 1b 36 be 6d a4 e3 bc
       -0.2823343 -0.19464482 -0.17784098 -0.027788365
0003c0 8e cd f5 be 51 24 a2 be 0a 64 2d 3e ca f7 c0 3e
       -0.48008388 -0.31668332 0.16932693 0.37689048
0003d0 87 71 1d be 21 18 53 3e dc 21 a1 bd 89 1a 69 be
       -0.15375338 0.20614673 -0.07867786 -0.22764029
0003e0 40 84 4e bd d7 e7 2a 3e bc 02 f1 3d 62 dd 8a 3e
       -0.050419092 0.16690002 0.117681 0.27122027
0003f0 2d 52 90 be 57 2e b3 be 7d 1a e5 bb 36 89 8c 3e
       -0.28187695 -0.34996292 -0.006991683 0.27448434

lstm.bias_ih_l0 f4 [32]
000000 f2 9c f5 3e 3a 4c 96 3e 4e 3e f7 3d 7d 42 72 3e
       0.47971302 0.2935503 0.120724306 0.23658176
000010 a1 53 b6 3e ae fe 95 bd b6 87 9e 3d fb 6a 98 3e
       0.3561068 -0.07323967 0.077407286 0.2976912
000020 20 30 a7 be f9 d2 e8 bc 79 e0 ae 3d 01 6f e2 3d
       -0.32653904 -0.028420912 0.085389085 0.110563286
000030 57 69 29 be 70 18 2c 3e a4 8b 75 3e d0 de b4 be
       -0.1654409 0.16806197 0.2397905 -0.35326242
000040 bb 8c 25 3e 82 13 1a 3e 1e 88 bb 3c 53 23 77 be
       0.16166966 0.15046504 0.022892054 -0.24134569
000050 06 5f 38 3e 37 34 0f 3e bf 53 b3 be a3 c0 4c 3e
       0.18004999 0.13984762 -0.3502483 0.1999536
000060 af ef 91 3d 9f 4b 92 bd f5 b8 0f 3f b2 4a 8f 3e
       0.07125794 -0.0714333 0.561416 0.27986676
000070 a4 31 0a 3f ef 8c 3b be e3 67 8b be 24 17 54 3d
       0.53981996 -0.1831548 -0.27227697 0.05177988

lstm.bias_hh_l0 f4 [32]
000000 20 55 b8 3e 67 83 bc 3e 89 92 11 3f 92 20 5d bb
       0.36002445 0.36819002 0.5686422 -0.0033741337
000010 e9 85 ea 3e 8e 91 2d be 75 68 47 be 7f a8 f1 3d
       0.4580529 -0.16950056 -0.19473441 0.11799716
000020 33 74 25 be 1a 41 53 be 2a fc 4b 3e 92 75 18 bd
       -0.16157608 -0.20630303 0.19920412 -0.0372215
000030 fe bb 69 bd 54 bd 60 3b 37 37 d4 bd 83 03 da be
       -0.05706405 0.0034292536 -0.10362094 -0.42580804
000040 dd 14 1d 3e 8f 09 93 3e 1b bf 11 be 60 36 a1 bc
       0.1533999 0.2871823 -0.14233057 -0.019679248
000050 1a 8a a6 be c9 87 cc 3e 78 4a d1 be d0 3d ec 3d
       -0.32527238 0.39947346 -0.40877128 0.11535227
000060 8c 11 99 3e cd 19 79 3d cd e7 1f bc c6 8f 6d be
       0.298962 0.06081562 -0.009759855 -0.23199376
000070 35 a4 33 3d fc a2 73 be e6 3d d8 bd 58 da 23 3e
       0.043857772 -0.23792642 -0.10558681 0.1600126

lstm.weight_ih_l1 f4 [32, 8]
000000 8d 89 81 bd 28 bb b9 bd db 36 7f 3e 76 14 71 3e
       -0.06325064 -0.090689 0.2492327 0.23542961
000010 3c 3c 81 be 45 95 c0 be 8b a5 db 3e 24 17 d1 be
       -0.25241268 -0.37613884 0.42899737 -0.40837967
000020 91 23 69 bf 2c 67 07 bd a5 af 21 3f d0 83 7b 3d
       -0.91069895 -0.033057377 0.6315864 0.061405003
000030 29 cc 5a 3d 1d 37 ae be 76 19 d4 3e 4d c9 3e bd
       0.05341736 -0.34026423 0.41425675 -0.046578694
000040 f8 32 96 3e 0f 7c ad 3c e9 a2 7e bd d6 50 f5 be
       0.2933576 0.02117732 -0.062167082 -0.47913235
000050 90 7a 3f 3e c8 92 fa 3e ee 9a d6 3d ee 0a e4 3e
       0.18699098 0.4894011 0.10478769 0.4453959
000060 88 92 30 3f af b4 e6 bb ed cc da be 96 4a bb be
       0.6897359 -0.007040582 -0.4273447 -0.36580342
000070 9c 2e 45 3f 54 e8 aa 3e a9 06 95 bd 29 3d 6c 3e
       0.77024245 0.33380377 -0.07276661 0.23070206
000080 a3 a5 8c 3e da d1 a4 3e 56 9d a4 be 34 0e a2 be
       0.2747012 0.32191354 -0.32151288 -0.3165146
000090 38 e8 f5 3e d9 f1 24 bd 3e 76 38 3e c7 01 fa 3d
       0.4802873 -0.040269706 0.18013856 0.1220737
0000a0 73 e2 90 3e 71 9b e8 3d e3 b2 87 be 1d 52 78 be
       0.28297767 0.11357773 -0.26503667 -0.24250074
0000b0 c6 93 31 3f e5 32 7b be 49 73 ab 3e 99 46 8f bd
       0.6936611 -0.24531133 0.33486393 -0.06995887
0000c0 3b e4 2d bf 54 bd 01 3e 92 3b 2b 3f df 1b bb 3e
       -0.6792638 0.12669879 0.6688777 0.365447
0000d0 8c d9 0b bf 68 a2 fb be cc 8d a8 3e 14 d3 c5 be
       -0.54628825 -0.49147344 0.32920682 -0.38637602
0000e0 38 d6 a1 3e 6e 4f bd 3d de 7d 2e 3e 95 fb 2c be
       0.31608748 0.09243666 0.17040202 -0.16892846
0000f0 5c 25 44 be 93 42 f0 3d e1 c2 c3 be 69 45 bc bd
       -0.19154876 0.11731448 -0.38234618 -0.091929264
000100 57 0f f5 3c 52 72 f5 3d 2f da 42 3e 66 a0 9d 3d
       0.029914541 0.119846955 0.19028543 0.07696609
000110 57 6e 76 3c df f3 49 bd e5 40 83 3e 73 e4 a4 be
       0.0150409555 -0.04930484 0.25635448 -0.32205543
000120 71 83 74 bf 8b 5f 03 3e 10 11 f7 3e 20 34 ff bd
       -0.95513064 0.12829416 0.48255205 -0.12461114
000130 94 0b ce 3e a5 1a 2c be ae 86 9c 3e 84 55 f5 bc
       0.40243208 -0.16807039 0.30571502 -0.029948004
000140 eb c2 84 3d 9e 17 d3 be bd 8b 9c 3e 07 dc ca 3b
       0.0648249 -0.41228956 0.30575362 0.00619078
000150 32 8f f7 3d 26 d4 94 3d 1e 26 96 3d 8c 66 31 be
       0.12087859 0.072670266 0.07331489 -0.17324275
000160 60 f0 eb be 11 d3 3e be ac 10 1a 3f 70 ee 2a bd
       -0.4608183 -0.18635203 0.6018169 -0.041731298
000170 a1 e9 02 be e3 b1 7d 3e f1 3a db 3e 41 1b 0b bf
       -0.12784435 0.2477489 0.42818406 -0.5433846
000180 9d 80 b2 bd 1d e5 42 be 10 ed 0e be d9 72 fe bd
       -0.08715937 -0.19032712 -0.1395762 -0.12424249
000190 b7 4e 97 be a7 9e bd 3e 57 39 e9 bd ea a2 d4 3e
       -0.29552242 0.37035105 -0.1138789 0.41530544
0001a0 0e da b9 be ba a1 2c 3e 91 63 0d 3f 38 7b c3 bd
       -0.36299175 0.16858569 0.5523005 -0.095449865
0001b0 a5 f8 3b be 2a 62 d8 be 76 d9 31 be ab 35 ab 3d
       -0.18356569 -0.42262393 -0.17368111 0.08359846
0001c0 61 17 09 bf 8d 6c 25 bf 98 28 5c 3e 6f 07 10 3e
       -0.535513 -0.6461876 0.2149986 0.14065336
0001d0 c5 6f 2b be e3 6f 57 bf f4 72 04 3f 31 9a 62 be
       -0.16741855 -0.841551 0.51737905 -0.22129132
0001e0 20 39 63 3e d3 a0 87 3d 7f 47 0e be 80 4e d5 bd
       0.2218976 0.06622472 -0.13894461 -0.10415363
0001f0 3b 1e 01 be d1 b3 32 3c 17 dd 16 be 2f d6 de bd
       -0.12609188 0.010907129 -0.14732777 -0.10880696
000200 aa 27 53 3e 10 8a 69 be 62 2a 82 bd 7d 0d 93 3e
       0.206206 -0.22806573 -0.0635574 0.28721228
000210 95 52 be be 38 b5 4d bd 53 b3 e7 bd 28 48 48 be
       -0.3717238 -0.05022165 -0.113135 -0.19558775
000220 37 24 2a 3e 12 03 3a 3e f8 17 0a bf ac f4 86 3e
       0.16615377 0.18165234 -0.53942823 0.26358545
000230 f8 03 06 bf 73 b5 26 be 96 d2 f3 3d 88 47 b2 3e
       -0.52349806 -0.16280155 0.119054005 0.348202
000240 38 54 39 bf 2c 88 01 3c 9c ba d8 3e 7b 34 01 3f
       -0.7239413 0.007906001 0.42329872 0.50470704
000250 2d ac f4 be 16 c7 2a 3d d4 1d 6f 3e 7e 67 b4 be
       -0.4778761 0.04169377 0.23351222 -0.35235208
000260 17 c8 a7 3d 11 ad 0d 3e 45 18 3a 3e 43 78 9b 3e
       0.08192461 0.13835551 0.1817332 0.3036519
000270 45 6b 9e be b6 a8 98 3e b7 92 b2 be c2 34 ad be
       -0.30941215 0.29816216 -0.3487756 -0.33829314
000280 d2 e5 14 be a3 28 93 be 6e 1f ce 3e f7 8d f9 3e
       -0.14540794 -0.2874194 0.40258354 0.48741123
000290 a5 69 98 be e3 3c fe be f6 79 93 bd e3 23 88 bd
       -0.297681 -0.49655828 -0.072009966 -0.0664747
0002a0 f4 3d 9a 3e d8 47 bb be 0a f0 0c 3f 4c 0a ab 3e
       0.3012539 -0.3657825 0.5505377 0.33406293
0002b0 42 e6 1e be ec d5 83 be 8f a5 9d 3e 6c bd c7 bd
       -0.15517524 -0.25749147 0.30790374 -0.09752926
0002c0 b1 0a 8c be 78 d9 4a bd ef 82 2f 3e d0 88 a7 bb
       -0.27351907 -0.0495238 0.17139791 -0.005112745
0002d0 f5 f9 00 bf 42 be e4 be 43 f3 ad 3d 64 0c 54 3d
       -0.50381404 -0.44676405 0.08493664 0.05176963
0002e0 59 03 01 3f c9 45 f2 3d a5 f3 81 be ea 17 53 be
       0.50395733 0.11829717 -0.253812 -0.20614591
0002f0 e8 02 ae 3e 8e ac ae bd 8e c6 a7 be da 20 ae 3e
       0.33986592 -0.08529006 -0.32768673 0.3400944
000300 d2 78 90 bd 68 ac c3 bd 08 da e7 3e 45 f3 10 bd
       -0.07054295 -0.09554368 0.45283532 -0.03538825
000310 8d 5a ba be 1c b5 94 be e9 2a 26 bd 0a 3a 9c bd
       -0.3639721 -0.29044425 -0.040568266 -0.076282576
000320 63 56 15 c0 62 8c f8 bd a3 47 05 40 fa f1 37 3f
       -2.3333976 -0.12136151 2.0824974 0.718536
000330 78 2c d8 bf 7e f1 94 bf da 27 55 3f 6d eb b5 bf
       -1.6888571 -1.1636198 0.83263934 -1.4212471
000340 09 d6 69 3c 70 80 49 bc b8 4e af be cd 1f 84 be
       0.014272221 -0.012298688 -0.34239745 -0.25805512
000350 4b 85 63 bc e4 56 37 3c e4 3e 44 bd b2 af 81 3e
       -0.01388676 0.01119015 -0.04791154 0.25329357
000360 5f 61 a6 3e 1f 82 79 be 80 5a 9a be 60 3b fc be
       0.32496163 -0.24366044 -0.3014717 -0.4926405
000370 dd 49 2d 3f 9c 59 b5 3d 1d 11 99 be 24 70 fa 3b
       0.6769083 0.08854982 -0.2989587 0.0076427627
000380 14 67 17 3f 66 9a 04 3e 18 00 f7 3d 0c 19 43 be
       0.5914166 0.12949523 0.12060565 -0.19052523
000390 48 63 ca 3e f2 d4 1b bc 71 dc 6b bd 58 d5 80 3e
       0.3952887 -0.009511219 -0.057583276 0.25162768
0003a0 9e f0 83 3e fe 9d 01 be 9c a9 0a bf bf 28 d4 bd
       0.25769514 -0.12657925 -0.54165053 -0.10359334
0003b0 e3 6a 38 3f a4 18 cd 3e ce e6 66 3e 8f fd fc 3e
       0.72038096 0.40057862 0.22548983 0.494122
0003c0 06 7e f5 be 75 cf 10 be 3d 5d 6b 3f 8a 39 a2 3e
       -0.4794771 -0.14141639 0.91939145 0.31684524
0003d0 1e b8 1b bf e8 25 84 be 8b 21 36 3e 0c f9 8a be
       -0.60827816 -0.2581017 0.17786233 -0.27143133
0003e0 8f 7f 7d 3d 73 7c 30 3e d2 61 8d 3e ec f8 a9 be
       0.061889227 0.17234974 0.27613693 -0.33197725
0003f0 68 d3 4e be d5 e0 9f bd 34 5c 8f 3e 62 88 a8 3d
       -0.20197833 -0.07806555 0.28000033 0.08229138

lstm.weight_hh_l1 f4 [32, 8]
000000 32 d5 46 3e 20 bf 73 3e 54 55 e5 3e e0 b4 b3 be
       0.19417265 0.23803377 0.44791663 -0.35098934
000010 62 67 af 3e 30 db 8b be 0d 08 98 3e f0 58 bc be
       0.34258562 -0.27315664 0.29693642 -0.36786604
000020 50 1f 8d be 70 39 12 3e ba ee 6c be 5a fc 96 bf
       -0.27562952 0.14279723 -0.23137942 -1.1795762
000030 03 02 0f be df 59 30 3d d1 b3 a5 be b8 64 c8 3e
       -0.13965611 0.043054458 -0.32363752 0.39139342
000040 37 82 f3 3d 7d 1f 95 be d6 95 c4 3b 68 b4 df bc
       0.11890071 -0.29125586 0.005999307 -0.027307704
000050 17 fb a6 be 3c 4f cb bd 51 f3 25 3e 02 c9 85 be
       -0.3261344 -0.09927222 0.16206099 -0.2612992
000060 36 c4 38 3e e7 cc a6 3e fe 1a 97 be ba ca 26 bf
       0.18043599 0.32578203 -0.2951278 -0.65153086
000070 12 b0 08 3d 86 28 91 be a7 65 f5 3c 8a 57 b5 be
       0.03337104 -0.2835123 0.029955698 -0.3541835
000080 c9 3d f0 3d c9 fe eb bd b8 ba 08 be d9 27 c2 be
       0.117305346 -0.11523206 -0.13352478 -0.37921026
000090 e2 5a 5c be 4d 04 1b 3e 21 20 9f bd 74 17 a1 3e
       -0.21519044 0.1513836 -0.077698 0.31463206
0000a0 5b 18 1f bd 42 28 c9 3e ad 2f 44 3e 18 18 bc bf
       -0.038841587 0.39288527 0.19158812 -1.4694853
0000b0 c8 f1 b5 3e 3a 57 a9 be d1 ed a1 3d 8b 7b 82 3d
       0.35536027 -0.3307436 0.07906688 0.0637122
0000c0 a4 5f 87 be 01 20 e4 3e a1 d2 8c 3c d7 64 26 bf
       -0.26440156 0.44555667 0.01719028 -0.6499762
0000d0 35 74 c7 3d 34 58 77 be 62 f0 67 bf 0c 92 93 3d
       0.097389616 -0.2415474 -0.9060117 0.072055906
0000e0 e9 78 40 be 1a 55 d2 3d e2 24 a5 3e 97 c6 fc be
       -0.18796124 0.10270138 0.32254702 -0.49370262
0000f0 91 7d a2 3d 3f fc ee bd 83 4e 03 3f e7 26 3c 3e
       0.07934106 -0.11669206 0.51291674 0.18374215
000100 8e 35 99 bd cb 8f 0d 3e fa 90 b1 3e 36 7f c8 bd
       -0.07480918 0.13824384 0.3468092 -0.097898886
000110 e2 82 cc 3e c5 2a ee be 6e b4 8c 3c d9 c1 8a be
       0.39943606 -0.46517006 0.01717588 -0.2710102
000120 7b f2 b9 be 9b c2 5f 3d 52 f7 03 bf d7 3d 54 bf
       -0.3631781 0.05462895 -0.51549256 -0.8290686
000130 56 07 d3 be 7d 58 1d 3f c5 d9 39 bf 4b 4f d3 3e
       -0.41216534 0.6146315 -0.72597915 0.41271433
000140 8a fb 61 3d d9 ca 76 3e 4c b1 d5 3e db 6e 97 3d
       0.055171527 0.24100818 0.4173683 0.07394191
000150 d8 42 c0 3d b2 1d f8 be 32 2b 91 3e b2 94 94 be
       0.093877494 -0.48460156 0.28353268 -0.29019696
000160 5a 6b ef bd 2b 12 7b 3e 74 f4 1d be 82 c2 e5 bf
       -0.116903976 0.2451865 -0.15425283 -1.7949984
000170 71 7b a5 be 51 08 0c bf 42 9f 16 be 46 67 2c 3e
       -0.3232074 -0.5470019 -0.1470919 0.1683627
000180 01 f4 22 be 1c e3 27 be b9 63 39 be 08 1d 7e be
       -0.15913393 -0.16395229 -0.18104447 -0.24815762
000190 b0 d4 85 be 83 42 ef bc 22 28 c4 3e 15 87 05 be
       -0.2613883 -0.02920652 0.3831187 -0.13039811
0001a0 a5 dd 8f 3e 2e 52 79 3e bb 0a 17 3e 96 6f 99 bf
       0.2809879 0.24347755 0.14750187 -1.1987178
0001b0 84 e2 d9 3e 8b e0 2a 3d 3b 3b bf 3e d6 62 cf be
       0.4255563 0.041718047 0.37349877 -0.40505093
0001c0 24 e0 02 3f 33 29 50 3f ae 4d d7 3e d4 b0 2b bf
       0.5112326 0.81312865 0.42051452 -0.67066693
0001d0 08 5f 72 3e 4e 72 6d be aa e8 d6 be 86 f9 5f be
       0.23669064 -0.23188135 -0.41974384 -0.2187253
0001e0 01 cb eb 3e 6d 56 8b be b6 af 21 be d0 20 d2 be
       0.46053317 -0.27214375 -0.15789685 -0.4104066
0001f0 3a 14 ab bd 78 26 dd be 8b 94 6b 3e 22 4e 79 be
       -0.08353467 -0.43193412 0.23005883 -0.24346212
000200 5a 75 77 be be 6b c5 3e 01 31 25 be 64 06 41 3f
       -0.2416586 0.38558763 -0.16131975 0.75400376
000210 13 e7 ed 3c 77 e2 ef 3c 76 9c c8 be 62 46 bb 3d
       0.029040849 0.029282792 -0.3918187 0.09144284
000220 a3 49 0b 3f 56 13 d9 bc f4 46 1c 3f 4a 99 4a 3f
       0.54409236 -0.026498478 0.61045766 0.7914015
000230 d5 da 09 3f 0d e0 10 bf d4 07 60 3f d0 87 17 bf
       0.53849536 -0.56591874 0.87511945 -0.5919161
000240 2a 62 29 3e 62 1f a8 3d ad 25 8c 3d c7 21 8a 3e
       0.16541353 0.08209111 0.068431236 0.26978895
000250 6f 8c 78 bd f8 44 68 be b0 29 35 be 9b 80 16 be
       -0.060680803 -0.2268256 -0.17691684 -0.14697497
000260 d6 0a 06 bc 80 89 f2 be be ab c8 3e 99 df 1e 3e
       -0.008181294 -0.4737053 0.3919353 0.15514983
000270 06 3d 48 bd 93 fc 94 be 78 00 06 3f 84 3d de bc
       -0.04888632 -0.2909895 0.52344465 -0.027128942
000280 75 f9 b1 3e bd b0 bc 3c 5e 68 14 be fb d8 0f 3f
       0.34760633 0.023033494 -0.14492938 0.5619046
000290 66 91 27 be e7 86 7f 3d 84 be 9a be 39 da c1 3d
       -0.16364059 0.062384512 -0.30223477 0.09465451
0002a0 c3 5a 4b 3e cd 08 ab 3e f8 75 61 3e 9f 9e 85 bf
       0.19858842 0.33405152 0.22017658 -1.0439032
0002b0 45 fe fd bd 9d 93 db be aa 47 24 3e e6 f7 87 bb
       -0.12402014 -0.42886057 0.16042963 -0.004149425
0002c0 a5 67 77 3e d2 ad a2 bd 24 5c 92 bd 07 ea 1d bd
       0.24160631 -0.0794331 -0.07146481 -0.038553264
0002d0 bf 15 8c be 63 7c da bd b1 94 dd be c2 85 73 3d
       -0.2736034 -0.10668256 -0.43277505 0.059453733
0002e0 56 42 5a 3e 9d 76 b4 be 28 05 8e be a1 2a f0 be
       0.21314368 -0.35246745 -0.2773831 -0.46907523
0002f0 c4 6c b8 bb 76 62 c0 3e c2 41 86 3c da cc cc 3e
       -0.0056282002 0.3757512 0.016388778 0.4000004
000300 f0 c7 b0 3d 9e a4 24 be 98 84 9c 3e ba 28 07 be
       0.08631885 -0.16078421 0.3056991 -0.1319913
000310 7c 96 ae 3e 81 95 d6 be 5e a5 55 be f6 6e 00 bf
       0.34099185 -0.41910937 -0.20863864 -0.5016931
000320 3e 72 65 be a1 8d cd bd 5f f4 bf be 55 7d a9 be
       -0.22406861 -0.10036779 -0.37491128 -0.33103433
000330 49 83 62 3d b7 46 2d 3e ab b1 b9 be 49 0f 03 3f
       0.055300985 0.16921507 -0.36268362 0.511952
000340 3f 72 48 bd f5 97 39 bd 84 66 75 3e cf e1 1e bf
       -0.04893708 -0.045310933 0.23964888 -0.62063307
000350 94 a3 9b be 80 88 70 3e 0c e3 ad 3c 44 73 c2 bd
       -0.30398238 0.2348957 0.021226428 -0.094946414
000360 af 8f 24 be 5d 92 74 3e 46 99 f1 be d7 03 10 bf
       -0.16070436 0.23883958 -0.4718725 -0.5625586
000370 34 63 91 be 5b 6b ac 3b 6f db 4b bc a6 9e 9a 3d
       -0.28395998 0.005261821 -0.012442454 0.07549791
000380 46 72 9c bd 0a d0 35 3e 90 eb d7 3e 4c a4 53 be
       -0.076389834 0.17755142 0.42171907 -0.20668143
000390 68 cf 26 3e 20 11 a6 3d 34 ec 07 3f 6b 9c 30 3e
       0.16290057 0.08108735 0.5309479 0.17247169
0003a0 53 9e ef 3d 4d e7 f8 3d 0c 60 e1 3b a6 e4 ab bf
       0.1170012 0.12153492 0.0068779048 -1.3429153
0003b0 85 d2 03 3f 12 2b 4c be 01 15 d3 3d 24 79 3b be
       0.514931 -0.19938305 0.103067406 -0.1830793
0003c0 90 70 bd bc 16 b2 55 3e 2a a8 5f be a0 ce 22 bf
       -0.023124963 0.20868716 -0.21841493 -0.63596535
0003d0 34 47 86 be a9 59 86 be 29 1a f6 be 0d 9c 8e bd
       -0.262262 -0.2624028 -0.48066834 -0.06963358
0003e0 fd 5f 47 3e d6 e3 35 be f0 2c 1f 3c 35 27 39 3d
       0.1947021 -0.17762694 0.009715304 0.045203406
0003f0 29 1a 82 3e 72 34 bd be ff 9e 85 3d fa c7 04 3b
       0.25410584 -0.36954075 0.06524467 0.0020260797

lstm.bias_ih_l1 f4 [32]
000000 00 f4 b5 3a 7a 0b 36 3e 01 04 a1 3e e8 d3 e4 be
       0.0013881922 0.17777815 0.31448367 -0.44692922
000010 58 eb d2 3e 2c 48 f6 bd cd 17 1d 3e f3 e6 b0 3d
       0.41195178 -0.120254844 0.1534111 0.086378
000020 16 4e 74 be c4 8a c9 bd a8 19 ba be 94 a5 b9 be
       -0.23857912 -0.098409206 -0.363477 -0.3625914
000030 88 c1 53 3d dc f4 e8 3d 54 94 51 be c4 dd 59 be
       0.051698238 0.11374828 -0.20466739 -0.21276003
000040 85 57 05 be 1f ff 41 3d da b9 2e be 76 a5 1e be
       -0.13021667 0.047362443 -0.17063084 -0.15492806
000050 d4 b0 85 bd f9 30 88 3e a4 78 9a 3d 46 43 5e 3d
       -0.06527868 0.26599863 0.075425416 0.054263376
000060 55 6c 0f 3e 13 39 d9 bd 2c ef b5 bd 37 0c 2e 3e
       0.14006169 -0.10606589 -0.08883509 0.16996847
000070 2e 37 93 be dc bc 60 be 07 b4 f0 be c6 d7 1e 3e
       -0.28753036 -0.21947044 -0.4701235 0.15511999

lstm.bias_hh_l1 f4 [32]
000000 29 3d 07 be 3a 6a 9e 3e a3 d5 af bd 60 2e b7 be
       -0.13206924 0.3094042 -0.0858567 -0.3577757
000010 4c f3 bc 3d 4b 55 80 bd 32 26 9d 3d c6 cf 58 3d
       0.09226093 -0.06266268 0.07673301 0.052932523
000020 da b0 37 3e c1 19 b9 3d 59 02 c9 be 4e d0 4d bd
       0.17938557 0.09038115 -0.39259604 -0.050247483
000030 8f da d0 3e 96 02 07 3e 70 5d 26 bf 14 3b be be
       0.40791747 0.1318458 -0.64986324 -0.37154448
000040 84 46 26 3e f2 35 64 be 94 94 14 bc 19 7b 43 3e
       0.16237837 -0.22286204 -0.009068627 0.19089927
000050 20 f6 fe be 21 52 8a 3e 5d 05 89 bc d9 3f a5 3e
       -0.49797153 0.27015784 -0.01672619 0.32275274
000060 ff 26 f6 3d a1 f5 20 3e 33 77 78 be a1 ad c5 3c
       0.12019157 0.157187 -0.24264221 0.024130644
000070 25 0a 5f 3c 84 a0 cf bd db ef 06 bf 70 db 47 3e
       0.0136132585 -0.10138038 -0.5270974 0.19517303

fc.weight f4 [1, 8]
000000 a4 f2 b3 bc ed f1 18 3e c0 eb c3 be b7 d4 af 3e
       -0.021966286 0.14936037 -0.382658 0.34341976
000010 79 4e 84 be 4c 3e 52 3d 39 49 1d be c6 31 99 3e
       -0.2584112 0.051328942 -0.15359963 0.29920787
