models/Chennai_model.pth (torch, 6142 bytes, 9 tensors)

lstm.weight_ih_l0 f4 [32, 1]
00000000: 0c3d 53c0 ce79 76bf cf6c 02c0 2804 e9bf
00000010: d557 47c0 3261 ffbf 92ed 843e 659f 6fc0
00000020: 4b74 fdbf 5995 75bf c45a 3fc0 3857 6dc0
00000030: 3fc7 1cc0 4263 08c0 5e4b bbbe 4398 15c0
00000040: 4560 e53f 0de3 11bf 5648 0c40 9082 1fc0
00000050: a68b c03f aa14 c3bf cf0e 913f c79d f13f
00000060: 23cb 52c0 4440 84bf 8943 09c0 09de 27c0
00000070: a29d 41c0 9169 26c0 b6d0 803f 417e 4cc0
-3.300601 -0.9627961 -2.0378911 -1.8204393 -3.1147358 -1.9951537 0.25962502 -3.7441037
-1.9801115 -0.9593101 -2.989915 -3.7084484 -2.449661 -2.1310582 -0.36580938 -2.3374183
1.7920004 -0.56987077 2.191915 -2.492344 1.5042617 -1.5240681 1.1332644 1.8876275
-3.2936485 -1.0332112 -2.144747 -2.622927 -3.0252461 -2.6001933 1.0063694 -3.195206

lstm.weight_hh_l0 f4 [32, 8]
00000000: 4bfa 9abe a72b 9abd 81c7 04bf ed96 a83e
00000010: 763d bebd 0cf0 963e 4527 8ebe 98d9 20bd
00000020: 39b7 f03e 2989 223e 42b1 073e d17d 333e
00000030: 4b56 7a3e 36d5 3a3d 9018 273e 60fa 123e
00000040: b9a6 a9be a5e1 f43e 9381 1cbf e286 293f
00000050: cb06 2ebf c1ca d93e dc3a 0e3f eef3 583d
00000060: 360b 8dbe ebf7 a93e 4f6c 49bf 8d50 6b3f
00000070: e47b 43bf 00a1 cf3e 2b29 2abf 0516 68be
00000080: 259c b5be 1321 09ba d95c eebd 5dbc 963d
00000090: 5d5c 6f3c 7e54 2bbe 9e03 34be 5c1a 653d
000000a0: b75c 5cbe 9876 933e d305 1cbe 605e 053e
000000b0: e8b9 153e 074d ae3d 1442 69bf f18c 7cbe
000000c0: b51a 11bf 3902 ac3d 830e 62be a6f2 ca3d
000000d0: e8f7 0bbf 8034 923e 0c27 53bf 0784 56bd
000000e0: bd0f 9cbe a061 a83e ded9 cebe d986 10bd
000000f0: d55e 173e cea7 d03e 70b5 0abe 07b5 c3be
00000100: c13e ab3d e9c7 4bbe 94e2 253d fe8b 03be
00000110: 4f66 77be 51b1 21be a4ed 2c3e 8a73 683e
00000120: 26c1 193f 7cbd fbbd 3610 5ebd 0b01 fabe
00000130: 1a66 843e 4c69 51be f21c d5bd e82a 483e
00000140: 397b 713e 46e2 53be 793a 943e be10 9ebe
00000150: a639 e43c 73ae 7cbd 92a7 b9be 2647 1d3e
00000160: 2db9 0cbe d1ec 62bd 9dd8 09bb bb21 6cbc
00000170: 56bc 973d 10dd 943e d80f 7bbe 316c 8ebe
00000180: 5158 6e3e 7ede 85be d444 47be eb2c cabb
00000190: f838 713d 9014 8bbe 7696 9e3e 45a0 653e
000001a0: eb7c a53d bd42 533e 03dd 57be 2452 e2bc
000001b0: 86e2 41be 5d00 4b3e a1ca 84be 9f7f 16be
000001c0: afdb f03e 5e09 183d 3246 db3d 3c91 1fbe
000001d0: 3bbf f1bd fd2b aa3e 1dfd 50bf 9cf5 583e
000001e0: ce04 c3be 1a11 a9be e1e6 ac3c 3028 223d
000001f0: ae1f bc3d 7e6f 08be f907 453e afa5 e4be
00000200: 6750 8dbe 2bb4 9fbe f7ff d5bd 3911 0cbd
00000210: 2fa0 483e 2fb4 a73d 2464 17be 2ecf 783c
00000220: 4cee 0c3f 886d a0bc b4e7 f0bd ea79 5ebe
00000230: 0404 a23e c2e8 09bf 0a64 a13e 7131 bd3e
00000240: 82fb 00be 9d2a ab3e e360 02be 368b 223f
00000250: 57a4 d9be 8ad3 983d 359e 3fbf 511e 08bf
00000260: 666c b3ba 8254 193e ca5b e53e 069f 1d3e
00000270: e3f8 923e df6f 0abe f1b3 df3d 9737 54be
00000280: 676f 57bd 46c2 3fbe f5ae f0bd 3b45 59be
00000290: 6ffa aebe 7301 87be be43 cc3c f0f2 253e
000002a0: 87bb 8d3e f977 9c3e 4f7f 7f3e f1ff 1abe
000002b0: 56ef ddbd e518 51be 3979 babd d805 7bbd
000002c0: be21 043d cb7b e93d 8d2c 54be 9dcf 253d
000002d0: 29af ba3e 6f20 713c 3098 12be d453 a8bd
000002e0: dafb c7bd 22d1 c13e 2cc4 873e 8f5c bdbe
000002f0: e6a6 8a3e 36fe 2a3e ceac 96be b4a7 133e
00000300: d3e0 bbbd 261c 293d dea5 a83b c27d af3e
00000310: 07b7 52be b013 a33d 57c3 b2be ddab 4f3d
00000320: 621e 6fbc e38a bdbe 0367 843e 9122 debe
00000330: 20e9 293e 9c1a acbd 28ad 46bb 74eb ab3e
00000340: f625 f5be c906 c13e f534 54bf 8346 df3e
00000350: 7310 1bbf dc7a 323e c266 363f 23ed e2be
00000360: 7df7 23bf 1b18 053d fcf9 21bf bd94 333f
00000370: c64b 5cbe edca 433f 730b 89be 846d 58be
00000380: 61c1 a2be 51cd b83c 5534 2cbe 5fe0 4c3e
00000390: 28e3 ecbe 1f00 a43d 0e3f 14bf 9acd 2bbe
000003a0: 198d 583e 22f5 c03e 9167 19be c619 70bd
000003b0: 0714 f7be ac48 d43c ec1f febe 0d31 c0be
000003c0: 4a46 0ebf 2778 16be b7fc 32be b3b7 0c3f
000003d0: 2e63 343c c653 063f 9cc7 54bf 2385 dbbe
000003e0: e7b9 fd3d 4e74 dbbd c563 da3c adda fe3e
000003f0: 735d 90be a634 5d3e 1627 48be be99 e43d
-0.30269083 -0.07527857 -0.5186692 0.32927647 -0.092890665 0.29480016 -0.27764335 -0.039270014
0.47014788 0.15872635 0.13251212 0.17528464 0.2444698 0.04561349 0.16317964 0.14353323
-0.33135012 0.47828403 -0.61135215 0.6622144 -0.67979115 0.425375 0.5555856 0.052967004
-0.27547616 0.3319696 -0.7868089 0.91919786 -0.7636092 0.4055252 -0.6646907 -0.2266465
-0.3547069 -0.00052310637 -0.11638803 0.07360146 0.0146094235 -0.1673145 -0.17579505 0.05593334
-0.21519743 0.28801417 -0.15236597 0.13024282 0.14621699 0.085107855 -0.9111645 -0.2466314
-0.56681377 0.083988614 -0.22075848 0.09909563 -0.5467515 0.2855568 -0.82481456 -0.052372005
-0.30480757 0.32886982 -0.40400594 -0.03528485 0.1478227 0.40753025 -0.13545775 -0.3822405
0.08361579 -0.19900478 0.040499285 -0.12846372 -0.24160121 -0.15790297 0.16887528 0.22700325
0.60060346 -0.12292001 -0.05421468 -0.4882892 0.25859147 -0.20450324 -0.104059115 0.19547617
0.23582162 -0.20691785 0.2895086 -0.30872148 0.02785952 -0.061689805 -0.36260659 0.15359172
-0.13742514 -0.055401627 -0.0021033653 -0.014412339 0.07408969 0.29074907 -0.24517763 -0.27816918
0.23275878 -0.2614631 -0.1945985 -0.0061699054 0.05889222 -0.27164125 0.30974168 0.22424419
0.08080467 0.20630927 -0.21080403 -0.027627058 -0.18934068 0.19824357 -0.25935844 -0.14697121
0.47042605 0.03711831 0.10706748 -0.15582746 -0.118040524 0.33236685 -0.8163622 0.21187443
-0.38089603 -0.3302086 0.021106185 0.039589107 0.0918573 -0.13323781 0.19241323 -0.44657657
-0.27600405 -0.31192145 -0.10449212 -0.034196112 0.19592355 0.08188664 -0.14784294 0.015186114
0.5505111 -0.019583479 -0.11762944 -0.21726194 0.3164369 -0.53870785 0.31521636 0.36951783
-0.12595943 0.3343095 -0.12732272 0.6349367 -0.42508194 0.07462223 -0.7485078 -0.5317126
-0.0013688921 0.14973643 0.44796592 0.15392694 0.2870551 -0.13519238 0.10922993 -0.20724331
-0.052596476 -0.18726453 -0.117521204 -0.21217816 -0.3417544 -0.26368293 0.024934646 0.16205955
0.27682135 0.30560282 0.24950908 -0.15136696 -0.10836665 -0.20419653 -0.09105153 -0.06128487
0.03225874 0.11400565 -0.2072012 0.0404812 0.36461762 0.014717205 -0.14315867 -0.08219114
-0.09764834 0.37854868 0.26516855 -0.3698468 0.27080458 0.16698536 -0.29428715 0.14419442
-0.09173741 0.04128661 0.005146726 0.34275633 -0.20577632 0.079627395 -0.34914657 0.05070101
-0.014594646 -0.37020025 0.25859842 -0.43385747 0.16592836 -0.08403513 -0.0030315612 0.33578074
-0.47880524 0.3770049 -0.82893306 0.43608484 -0.60571975 0.1742968 0.71250546 -0.44321546
-0.6404951 0.032493692 -0.6327207 0.7014883 -0.2151328 0.76481515 -0.26766548 -0.21135527
-0.3178816 0.02255884 -0.16816838 0.20007466 -0.46267056 0.080078356 -0.57908714 -0.1677765
0.21147574 0.37687021 -0.14980914 -0.05861833 -0.48257467 0.025913559 -0.4963373 -0.37537423
-0.55576 -0.14694272 -0.17479216 0.549678 0.011009974 0.5247158 -0.8311708 -0.42875013
0.12388974 -0.10715543 0.026658902 0.4977621 -0.28196296 0.21602115 -0.1954616 0.111621365

lstm.bias_ih_l0 f4 [32]
00000000: d8ee 2cbd d204 b0be 4737 153e 38ed 773e
00000010: e107 033e 6b35 5a3d ce09 2cbd 2bc8 98be
00000020: 82f3 2f3e 745c 6bbe c967 8fbe 7119 b8be
00000030: 4c02 bdbe 7ae2 1a3e f90b 2fbf b991 aebe
00000040: 7745 4dbe f264 d8bc 3aa8 88be e786 3c3e
00000050: 6bea 303e a547 933e a01f f63c b7b9 673e
00000060: 1225 05be 5687 dc3d f55a 133e daea 0f3f
00000070: d451 a83e e5a8 223d a2b3 a43e d067 66bd
-0.042219967 -0.34378678 0.14571868 0.24211586 0.12795974 0.0532736 -0.042001538 -0.29840216
0.17182735 -0.22984487 -0.2800887 -0.3595691 -0.36915815 0.15125456 -0.68377644 -0.34095553
-0.2004603 -0.026415322 -0.26690847 0.18410836 0.17276923 0.28765598 0.030044377 0.22629438
-0.13002422 0.10768001 0.14390166 0.5621773 0.3287493 0.03971185 0.321683 -0.056251347

lstm.bias_hh_l0 f4 [32]
00000000: c636 a53d 767d e9ba af1c 873e 3d1d 5f3d
00000010: b2ac f2bd c05d 9f3e ea66 6ebd 37e1 44bc
00000020: f27c 323e 485e d9be cf7a 523e aea0 ae3d
00000030: fb10 7abe 85dd 94be 632b 29bf 7f09 433e
00000040: 03d4 d43d e119 073e 8844 87be 740f 623d
00000050: 3bbf 9cbe 0bf6 1cbe 4dd3 b7bd 9cd2 a3be
00000060: 2410 74be d738 4fbe 4162 603e b851 0fbb
00000070: 5149 673e 52f8 09be e043 fc3d cdae 29be
0.08067088 -0.001781388 0.2638907 0.054471243 -0.11849345 0.31126213 -0.058203615 -0.012016586
0.17430475 -0.42454743 0.2055466 0.08526741 -0.2442054 -0.29075256 -0.6608183 0.19046591
0.103920005 0.13193466 -0.26419473 0.05519052 -0.30614647 -0.15328233 -0.08975849 -0.3199662
-0.23834282 -0.20236526 0.21912481 -0.0021868777 0.22586562 -0.13473633 0.12317634 -0.16570587

lstm.weight_ih_l1 f4 [32, 8]
00000000: 0134 cb3e 923b bdbe d042 413f 74c2 6ebf
00000010: 7eec ea3e 21fa 68bf 93ff 6e3e 1b55 073f
00000020: 9e41 0b40 ffe6 c8be 5a1c ab3f 49d2 a7bf
00000030: efd1 0140 47d6 d6bf ce7d 983e 8784 de3f
00000040: 2ad5 5a3e cd2b 53be 04f2 943e 3646 10bf
00000050: 1e8d 0c3f fa98 16bf 275f 043f 4ef5 ec3e
00000060: 513f af3e 7b66 013e 9503 a03e 6e73 76bd
00000070: 9509 cbbd 45cf 4fbe 78c6 22bf 92eb 3cbe
00000080: dbf0 a83e 07b7 2ebe 3bfb f03e 91f0 d8be
00000090: 0590 053f f469 18bf 1174 3d39 f4ea 4d3f
000000a0: d75d edbd f3ae 863e 8222 1ebe ce6d 2f3e
000000b0: 450f a0be 6fe4 58bd dd0e 5b3e 865b 63be
000000c0: 457c c9be 4dcc 05be 7796 34be 5ace a33c
000000d0: 8304 b4be 686d 0cbd 06cc dc3c 5044 39be
000000e0: 8375 7dbf 8ba8 d3bd e2d8 b4be d0a6 c63e
000000f0: db15 5cbf e797 bb3e 93ba fe3d 9dba 66bf
00000100: 880e b53e f5b4 a6be 2400 d9bd e233 0cbf
00000110: 58f8 da3e a85f efbe a56f 1b3f ae41 d63e
00000120: 295f 703f 4765 54be e6e0 a73e d0dc 18bf
00000130: 967b 443f 3463 c4be 9cd0 02be 011a 293f
00000140: c910 98be 9c9f 163e 8b96 fcbe 3740 bd3e
00000150: 0774 56bf 1790 363f 9d13 35bf e242 1cbf
00000160: a7eb 923d b3f3 543e 1115 a7bc ebd5 f0bd
00000170: 6ab4 973e 200b a1bd c674 b2bd cf09 fc3e
00000180: 482b 6b3e 5ab3 763e 993d 74bd 9df2 923c
00000190: 7e04 95bb 34e6 233e b00f 30bd f810 8e3e
000001a0: 5318 bdbe ef21 9cbe 1d72 cc3d 5115 6b3d
000001b0: ec39 c7be 83b0 d63d 54c4 edbe e73b 723d
000001c0: 8251 55be 0867 af3d b432 263e 3198 6f3e
000001d0: 87e6 b5be 527a 403d 93d9 903e 5fc9 173e
000001e0: 3c8a 1abe 68c5 ecbe f8f2 d1be 0574 723f
000001f0: c2da 1bbf 90f4 1a3f 4845 89bf 6907 5fbe
00000200: d4c5 8b3e b0b9 843e 2742 a63e 0bb6 81be
00000210: 3ba4 d13d 8ebf 863e 877e 4b3e 8725 b2be
00000220: df7d febe 729e 743c 5c1a 43be 3b83 a9bc
00000230: 92b1 09be 5245 963e 5868 3ebe b4f9 a9be
00000240: 9de6 983d 7756 433e 3cf1 00bf 112e 583e
00000250: 3e02 3ebd 300d d53e ad78 e63c 3362 89bd
00000260: 70cb 683e 5a97 9abe 1521 2bbe 0e40 aabe
00000270: 8764 933e 0fac f23d c99d 7abe 696e 44be
00000280: 048f b6be b736 b0be deac 94bc 679d c2be
00000290: 45b5 87bd b1f1 b73e 23de 193e 15b1 ee3d
000002a0: 3a3b 623e fc9f 883e 21ba 7b3e a7ab bfbe
000002b0: 4bad 763d 9b36 97be c2ef 633e 2640 ae3e
000002c0: 800e b6be 900f 5ebe 7796 d8be c7f7 ffbc
000002d0: b798 ddbe bf65 8fbe 5269 523e 8c1f 10be
000002e0: 0729 f9bd c0d2 bf3e f351 16bf f9cc 3c3f
000002f0: 1fcc 13be ed89 af3e 88c5 30bf 517c f3be
00000300: 228f bc3e befd 6ebe e12a a23e 2359 afbe
00000310: 5830 073f 7296 88be 8e23 863e 8e91 193f
00000320: 63ae aa3f 4811 4e3e a654 763f bb1e 1dbf
00000330: a2b6 a33f 932d 56bf 84b3 8f3e 7bce ab3f
00000340: 714b ae3e edc8 babe 1682 433e d996 4dbe
00000350: fa94 f6bd f020 09be 88da 683e 15ff 9e3e
00000360: 0056 a4bd b1fa 4fbe a7d3 133f e2c6 193e
00000370: 1089 5a3c b247 8bbb 6c1a 01bf 4d19 553e
00000380: a09e 31be 81a1 f2bd a207 133f 39ba 87be
00000390: d0b9 8f3e 6846 b3be 15f0 a3bd b15c b73e
000003a0: 84d6 f0be 557a 913c 29d0 473c eba4 f13e
000003b0: e03a 0cbf c6d9 013f 7fe7 abbe 55b0 febe
000003c0: a7b6 66be 4559 9a3e 9a96 f5be 5b94 183f
000003d0: a241 e7be 4f56 7bbd 5885 87be d307 b23c
000003e0: c183 98bf 9888 ab3e 4b06 96be 9394 703e
000003f0: 925a 1bbf b1be e03e 3c95 873e 352c 2dbf
0.39688113 -0.3695951 0.7549257 -0.9326546 0.45883554 -0.91006666 0.23339681 0.52864236
2.17588 -0.39238736 1.3368027 -1.3111049 2.0284383 -1.6784142 0.2978348 1.7384194
0.21370378 -0.20622177 0.29090893 -0.56357133 0.5490283 -0.58827174 0.5170769 0.46280903
0.34227994 0.1263675 0.31252733 -0.060168676 -0.09913937 -0.20293911 -0.6358409 -0.18449238
0.32996258 -0.17062007 0.47066674 -0.42371038 0.5217288 -0.5953667 0.00018067683 0.80436635
-0.11590164 0.2630535 -0.15442851 0.17131731 -0.3126165 -0.052952226 0.21392389 -0.22202882
-0.39352623 -0.13066216 -0.17635523 0.019995857 -0.35159692 -0.034284025 0.026952755 -0.18092465
-0.99007434 -0.103348814 -0.35321718 0.38799143 -0.8597085 0.3663933 0.1243793 -0.901285
0.3536265 -0.32559934 -0.1059573 -0.54766667 0.42767596 -0.46752667 0.6071723 0.41846985
0.938952 -0.20741759 0.3278877 -0.59711933 0.7675108 -0.38356936 -0.1277489 0.66055304
-0.29700306 0.14709324 -0.49333605 0.36963055 -0.83770794 0.71313614 -0.7073305 -0.61039555
0.07173853 0.20796089 -0.020395787 -0.117595516 0.29629833 -0.0786345 -0.08713679 0.49226233
0.22965729 0.24091855 -0.059629057 0.017937953 -0.0045476547 0.16005784 -0.04298371 0.2774732
-0.3693262 -0.3049464 0.09982703 0.057393376 -0.38911378 0.10482886 -0.4643885 0.05913916
-0.20831874 0.085645735 0.16230279 0.233979 -0.3552744 0.046991654 0.28290996 0.1482291
-0.15091795 -0.4624436 -0.41005683 0.9470828 -0.6088067 0.6052942 -1.0724268 -0.2178017
0.27299368 0.25922918 0.32472345 -0.253342 0.102364026 0.2631802 0.19872485 -0.34794256
-0.49705407 0.014930354 -0.19053024 -0.020692458 -0.13446644 0.29349762 -0.18594491 -0.3319832
0.07465861 0.19075952 -0.50368094 0.21111323 -0.046388857 0.41611624 0.028133715 -0.06708183
0.22733855 -0.30193597 -0.16711839 -0.33251995 0.28787634 0.11849224 -0.24474253 -0.19182743
-0.35655987 -0.34416744 -0.018148836 -0.38010713 -0.06626371 0.35926583 0.15026145 0.116548695
0.22092906 0.26684558 0.24582721 -0.37435648 0.06022386 -0.29533848 0.22259429 0.34033316
-0.35557938 -0.21685624 -0.42302296 -0.03124608 -0.43280575 -0.28007314 0.20547989 -0.14074534
-0.121660285 0.37465477 -0.58718795 0.73750263 -0.14433335 0.34284917 -0.6905141 -0.47555783
0.36827952 -0.23338982 0.3167334 -0.34247693 0.5280814 -0.2667728 0.26199 0.59987724
1.3334469 0.2012378 0.96222913 -0.61375016 1.279011 -0.8366329 0.28066647 1.3422388
0.34041932 -0.3648142 0.19092593 -0.20077075 -0.12040134 -0.13391471 0.22739613 0.31053987
-0.08024216 -0.20310475 0.5774483 0.15017274 0.013338342 -0.00425049 -0.5043094 0.20810433
-0.17345667 -0.11847211 0.5743352 -0.26509264 0.2807145 -0.35014653 -0.080047764 0.35812905
-0.47038662 0.017758528 0.012195625 0.47196135 -0.54777336 0.5072292 -0.33575055 -0.49743906
-0.22530614 0.30146232 -0.47966462 0.5960137 -0.4516726 -0.061361607 -0.2646892 0.021732247
-1.1915208 0.3350265 -0.29301676 0.23494177 -0.60685074 0.43895486 0.26481044 -0.6764558

lstm.weight_hh_l1 f4 [32, 8]
00000000: 7b33 8c3e 9c62 94bd 3e01 5dbf c846 ab3d
00000010: 5feb e83e 8f80 253b 340c c13d 92fc 95bf
00000020: 9210 9d3e f207 58be f0bd 89bf ea9f e43e
00000030: d9ce b93d 8377 a03e 486f 943d f6e1 dcbf
00000040: 7ddf 91be 4a37 133e 152f fb3e 7785 453e
00000050: 1745 2fbf 5207 06bf 6c12 593e ff24 4c3f
00000060: 992d 063e 9fe1 8a3e 5eed 033e 6c01 f0bd
00000070: c108 96bd dbb5 1d3f ca60 34bf 1984 2dbe
00000080: dc41 aebe 32dd 8f3e f708 0c3e 0075 883e
00000090: 086b 3f3d 9a11 093f 4027 92be aefb fbbe
000000a0: 0ee3 1ebe 0d4b 66be bf13 b4be f236 a1bd
000000b0: 0b14 f5bd 0002 7cbe 376f 02be 5653 003e
000000c0: 0b31 213e bd0d 23bf 98b2 c2be 4913 093e
000000d0: 9083 bc3d f45f 5bbe d815 5cbe 7d56 123e
000000e0: 3ded a03e b0c3 3a3e 88ad 2b3f 41f7 4f3e
000000f0: 8404 4cbf 6732 32be cd77 183f f535 bb3f
00000100: 452e cb3e a211 85bf 92f5 1ebf 9039 9e3c
00000110: 12a4 b4be 20e3 e43e 106a aabd 89db 7fbf
00000120: e7b8 573f e677 86bf 9902 4c3d ad72 073e
00000130: fca0 d4bd 5da1 db3e 167a 0b3e 40b6 b4bf
00000140: d525 18bf fc5c 16be 2161 823f 1fa7 35be
00000150: 3435 01bf f080 9b3e 33e5 cdbe 8be6 2f3f
00000160: 213c d6be 02e6 0a3e 5658 b1bd fbd9 bc3d
00000170: 6347 4fbe 3b80 ca3d 6fce 08bf 0210 783d
00000180: a217 6ebe c410 fd3d ac99 323c 672f b1be
00000190: de93 1f3e b39f d8bc d285 dabe 72f2 d0bd
000001a0: dcad 9fbe ddfb fe3d 2e80 cdbe c3c7 9fbe
000001b0: 7472 84be b828 61bd 204a 81be e931 a9be
000001c0: 2d05 7f3e 989a acbe 641e e3be a8d2 5b3e
000001d0: 626f f23d 7567 83be 923c c23d d754 f2be
000001e0: a594 2dbf e26a c73e adc8 123f f52b 97be
000001f0: 63a3 17be cfa9 c23e efdd 53bf 2e45 7e3e
00000200: 11cf 98be 783f 3dbe 501c 15bf afc2 13be
00000210: 3efd e23a cd4b 9b3e 1a77 b3be ba9f 5d3d
00000220: c4d7 973d ba63 573c 1006 f73e d17b 323e
00000230: d8f5 05bf 21d4 28bf ecf1 7bbc 9eef 093f
00000240: 74c4 b03d 980a 623d 396d a6be 3c98 aebd
00000250: bfac f9bc 7ae8 8b3e ab2c 2d3e a57f 1abf
00000260: 261d 0fbf 940b 89bc 5d80 84bd 9d15 c5be
00000270: 2c4f e13e af43 03be 951f 15be f717 3abe
00000280: 219a f3be c62d f2bd 879f 523e e27b 24be
00000290: 0977 1cbf 8290 e4bd 84e2 1f3e c691 963e
000002a0: 3855 37be 280d 583d 4ccc d23e 1689 2dbd
000002b0: 3ac2 8abb 1698 c0be 4036 45be 6044 f13e
000002c0: 9096 eabd b15b cebe a5ff 33be fc09 9cbd
000002d0: 3b2f 243e 6141 f4bd ea6f 193e ef67 003c
000002e0: 63ca 86be 3b8c c03d 3f25 15be b432 3e3e
000002f0: a342 c13e 594f c73e c30c 82bd 43b8 bfbe
00000300: c07b 0f3e 1bbd 21bf 3185 a5bf e0b8 49bc
00000310: 4c9b b3bd cbc6 c03e 912a 61be 1329 b5bf
00000320: 9575 683f b8be 92be 3fc6 4cbf c66b 1c3f
00000330: 522f 993e c1d8 893e 0018 a03d 944c 0ac0
00000340: 461f 07be fc60 5a3e 4a3a 403f 7bd2 d8bd
00000350: bcc9 d5bd bc44 dfbe 4a3d 733e 1516 5d3f
00000360: f9ec 49be 8bfa 923e e5e7 d93e 1ea3 9ebe
00000370: 105c 0f3e 51e6 f53e 73a1 02be 956f 24be
00000380: 5b2a 59bd d8bd 8b3d 9fa7 793e 3645 54be
00000390: 0774 6e3e e938 fb3e 0452 03be c590 5e3c
000003a0: 9402 9b3d f47d 9d3c ee79 c5be 6728 3cbe
000003b0: c884 823e e434 6b3d 66dd a63e d9d7 fdbe
000003c0: e01e c4bd 6498 c7be ce93 55be 9fd4 53bd
000003d0: 2833 86be e7f2 bb3d 7996 acbe 0f44 c2be
000003e0: 8b96 9d3c 8a78 953e cd21 783f cfe9 8a3e
000003f0: 4b47 7abf 0613 dbbe 1c08 2f3f f5ce c93f
0.27383026 -0.07245371 -0.8633002 0.0836311 0.45492074 0.002525363 0.09426156 -1.1717703
0.30676705 -0.21096781 -1.0761089 0.44653255 0.09072656 0.3134118 0.07247788 -1.7256458
-0.2849082 0.1437656 0.49059358 0.19289194 -0.684648 -0.5235492 0.21198434 0.7974395
0.13103332 0.2712526 0.12883517 -0.11719021 -0.073258884 0.61605614 -0.7046019 -0.16944923
-0.34034622 0.28098446 0.13675295 0.26651764 0.046732932 0.5354248 -0.2854557 -0.49215454
-0.15516302 -0.22489567 -0.35171315 -0.07871808 -0.119667135 -0.24610138 -0.12737738 0.1253179
0.15741365 -0.6369284 -0.3802688 0.13386263 0.09204781 -0.21423322 -0.21492708 0.14290805
0.31430998 0.18238711 0.6706166 0.20309164 -0.7969439 -0.1740204 0.595578 1.4625841
0.39683738 -1.0396006 -0.6209346 0.019314557 -0.35281426 0.44704533 -0.08321011 -0.9994436
0.84266514 -1.050534 0.049807165 0.13227339 -0.10382268 0.42896548 0.13620791 -1.4118118
-0.5943273 -0.14683908 1.0185891 -0.17739533 -0.50471807 0.3037181 -0.40213928 0.68711156
-0.4184275 0.13564304 -0.08659427 0.09221264 -0.20242076 0.09887739 -0.5343999 0.06056214
-0.23251203 0.123567134 0.010900896 -0.34606478 0.1558375 -0.026443338 -0.42680222 -0.10202493
-0.31187332 0.12450383 -0.40136856 -0.31207094 -0.2586857 -0.054970473 -0.25251865 -0.3304589
0.24904318 -0.33711696 -0.44359124 0.21467078 0.11837651 -0.2566487 0.09484209 -0.47330353
-0.6780494 0.38948733 0.57337457 -0.29525724 -0.14808421 0.3802018 -0.8276052 0.24831077
-0.2984548 -0.18481243 -0.58246326 -0.14429735 0.0017317904 0.3033127 -0.35051805 0.054107405
0.07414201 0.013146335 0.48246813 0.17430045 -0.5232825 -0.65948683 -0.015377503 0.5388125
0.086312205 0.055185884 -0.32505205 -0.0852513 -0.03047788 0.27325803 0.1691157 -0.6035102
-0.5590385 -0.016729154 -0.06469796 -0.38493052 0.44005716 -0.12818788 -0.14562829 -0.18173204
-0.4757853 -0.11825137 0.20568667 -0.16062883 -0.61119133 -0.11160375 0.15613753 0.2940809
-0.17903602 0.05274692 0.4117149 -0.042367063 -0.0042345794 -0.37616032 -0.19258976 0.47122478
-0.11454499 -0.4030433 -0.1757799 -0.07619092 0.16033642 -0.119265325 0.14984098 0.00783728
-0.26326284 0.09401747 -0.1456499 0.18574029 0.37746152 0.38927725 -0.0635009 -0.37445268
0.1401205 -0.6317918 -1.2931272 -0.012312144 -0.08769855 0.37651667 -0.21988894 -1.415316
0.90804416 -0.28661132 -0.7999 0.6110195 0.29918915 0.26923183 0.07817078 -2.160924
-0.13195524 0.21326059 0.7508894 -0.10587021 -0.104388684 -0.43607128 0.23753849 0.8636182
-0.19719304 0.28706774 0.42559734 -0.30983824 0.13999963 0.4802728 -0.127569 -0.1605819
-0.05301891 0.06823319 0.24380349 -0.20729527 0.23286448 0.49066857 -0.12824255 0.01358432
0.07568851 0.019225098 -0.38569587 -0.18374787 0.2549193 0.057423487 0.3259079 -0.4957874
-0.095762014 -0.38983452 -0.20857164 -0.051716443 -0.26210904 0.09177189 -0.33708552 -0.3794255
0.019236824 0.29193527 0.96926576 0.27131507 -0.97765034 -0.4278795 0.6837175 1.5766283

lstm.bias_ih_l1 f4 [32]
00000000: 9139 a5be 088f 18be 2c6c 9abe 09db f7be
00000010: 9466 e0be bc0b 793e fc0a 5f3d 1b5b 313e
00000020: d44d cbbd 63dc 66be 69e0 e8bd ef5f c6bd
00000030: 39bb 543c ca4b 4ebd 7afe d23e 47ad 6dbf
00000040: 8b9c 733e e5e1 21be c1f6 fa3d b798 0a3e
00000050: 6ede c5bd 2401 5bbe 4de4 ed3e f834 393e
00000060: d6e5 373e e6fb 7dbe d7d7 813e b876 3cbf
00000070: 8ae0 713c 1001 6e3e 05b4 26bc 295b a43e
-0.32270482 -0.14898312 -0.30160654 -0.48409298 -0.4382826 0.24320883 0.054453835 0.1731991
-0.09926954 -0.22545008 -0.11370928 -0.09686267 0.0129840905 -0.050365247 0.41209775 -0.92842525
0.23790185 -0.15808828 0.12254096 0.13534819 -0.09661566 -0.21387154 0.46463242 0.18086612
0.17958769 -0.24803123 0.25359985 -0.7361865 0.014763007 0.23242593 -0.010174756 0.321008

lstm.bias_hh_l1 f4 [32]
00000000: d2a1 e1bd 3e6d b9be 81dd 87bc 4002 21bf
00000010: ee9b db3d d14a fcbc cee0 06be 2ac2 263f
00000020: 9dfc 55be 469d 1ebe 0e82 87be 4663 95be
00000030: f6b0 abbe 442e bcbd d62e f7bd 2da3 3ebf
00000040: 8ded 643d 6273 d5bd 4a21 44be 955e c7bd
00000050: 76e5 3dbc 303d aebd 4533 be3e a443 41be
00000060: 74ab 0ebe ede0 cebe 010e 893e f649 33bf
00000070: adf9 09bf 454a bd3e 8912 8f3e 0a40 1b3f
-0.11017193 -0.36216158 -0.016585113 -0.6289406 0.107231006 -0.030797394 -0.13171694 0.6514002
-0.20897146 -0.15489683 -0.2646641 -0.29177302 -0.33533448 -0.09188512 -0.1206948 -0.74467736
0.05589061 -0.10422398 -0.19153324 -0.09734837 -0.011590352 -0.08507764 0.3714849 -0.18873459
-0.13932592 -0.4040598 0.26768497 -0.7003473 -0.538966 0.36970726 0.2794383 0.6064459

fc.weight f4 [1, 8]
00000000: 617a d6bd 5db2 523e 7b10 3cbe 98a3 4e3b
00000010: ad8a 6e3c d742 c13e fef4 9abe 63e5 4abe
-0.10472561 0.20575853 -0.18365662 0.0031530615 0.01455943 0.37746307 -0.3026504 -0.19814067
