models/Daman_model.pth (torch, 6128 bytes, 9 tensors)

lstm.weight_ih_l0 f4 [32, 1]
0	0x3e920ccf	0.28525397
1	0x3f1e9ea4	0.61960816
2	0xbec8511b	-0.3912438
3	0xbfe96910	-1.8235188
4	0xbf2a4bb2	-0.6652175
5	0x3e865200	0.26234436
6	0xbe7ed96c	-0.24887627
7	0xc050cf19	-3.2626402
8	0xbe60bbd5	-0.21946652
9	0x3f85a02a	1.0439503
10	0xbeba0765	-0.36333767
11	0xc02ef1a5	-2.7334988
12	0xbd860549	-0.06543977
13	0x3eebf1fc	0.46083057
14	0x3f1ef31f	0.62089723
15	0xc08fb616	-4.4909773
16	0xc01e6b1b	-2.4752872
17	0xc000fab4	-2.0153017
18	0xbf0d0b1e	-0.5509509
19	0x403abfde	2.9179606
20	0x3f1e4f47	0.6183972
21	0xbf1dae97	-0.6159453
22	0xc00122cb	-2.0177486
23	0x403c2d28	2.940256
24	0x3f260ae5	0.64860374
25	0x3f847fa5	1.0351454
26	0xbfa98b8d	-1.3245713
27	0xc02ade17	-2.6698053
28	0xbf86ddfb	-1.0536493
29	0xbc5af149	-0.013363191
30	0x3eb40139	0.35157183
31	0xc067ea71	-3.6236842

lstm.weight_hh_l0 f4 [32, 8]
0	0x3f188064	0.5957091
1	0xbf392d5d	-0.72334844
2	0x3f2d09f8	0.67593336
3	0xc0264626	-2.5980315
4	0xbf5c5e19	-0.8608108
5	0xbf32890b	-0.6974036
6	0xbec0e79c	-0.37676704
7	0xbfca45e0	-1.5802574
8	0x3ea3f6e4	0.320243
9	0xbf0ace98	-0.5422149
10	0x3e8b5e81	0.27220538
11	0xbf90a03e	-1.1298902
12	0xbe6df478	-0.23237789
13	0xbea65363	-0.32485494
14	0xbf207751	-0.6268206
15	0xbfa515fb	-1.2897333
16	0xbe045bf9	-0.1292571
17	0xbde8fc52	-0.11376251
18	0xbebef5ec	-0.37296999
19	0x3d88442f	0.0665363
20	0x3c8de1dc	0.017319612
21	0xbded0463	-0.11573102
22	0xbdad5b11	-0.08464635
23	0xbdc6c5cc	-0.097056955
24	0x3dac6ea9	0.08419544
25	0xbe140309	-0.14454283
26	0x3f3021ab	0.68801373
27	0xbf995121	-1.1977884
28	0xbf29b295	-0.6628812
29	0xbe81fa08	-0.2538607
30	0xbf37d07b	-0.7180249
31	0xbf5eab06	-0.8697971
32	0xbe843058	-0.25818133
33	0x3e2f60fc	0.1712684
34	0x3dbd49d8	0.092426
35	0x3ed54cdf	0.4166021
36	0x3e4ff429	0.20307983
37	0xbed74801	-0.42047122
38	0x3c55c051	0.01304634
39	0x3f0320a8	0.51221704
40	0x3d93debe	0.07220219
41	0x3ece9802	0.40350348
42	0x3d70a087	0.05874684
43	0xbe7c1062	-0.24615625
44	0x3eb6de63	0.35716543
45	0xbe3c7abf	-0.18406199
46	0x3da34cba	0.07973619
47	0xbd243457	-0.040088978
48	0xbdd1a36c	-0.102362484
49	0x3e30fab2	0.17283133
50	0x3e0e5e42	0.13903144
51	0x3d27ea03	0.040994655
52	0xbe90b194	-0.2826048
53	0xbc8225bb	-0.015887132
54	0x3eb2c364	0.34914696
55	0x3dc96fd6	0.09835784
56	0x3e296a9c	0.16544574
57	0xbeef3193	-0.4671751
58	0x3e96cae9	0.29451683
59	0xbf48c6e5	-0.7842849
60	0xbf49f624	-0.78891206
61	0xbf1b5581	-0.60677344
62	0xbf18c568	-0.5967622
63	0xbf83839e	-1.0274541
64	0x3e8bb9a6	0.27290076
65	0x3dd82368	0.10553628
66	0x3e68d027	0.22735654
67	0xbe4fe555	-0.20302327
68	0x3ee55bb9	0.4479654
69	0x3efaee8c	0.49010122
70	0x3ee2ba07	0.44282553
71	0xbeebf8a3	-0.46088132
72	0x3f63ae48	0.8893781
73	0x3ea6b7b0	0.32562017
74	0x3e81edb3	0.25376663
75	0xbf0aa1ba	-0.54153025
76	0xbe4c0324	-0.19923073
77	0xbc8fc25a	-0.017548729
78	0x3f2469e6	0.6422409
79	0xbf54d04b	-0.8313033
80	0x3eec2f01	0.4612961
81	0x3f0717eb	0.5277087
82	0xbe287302	-0.16450122
83	0x3d8f1388	0.06986147
84	0xbcf0de19	-0.02940278
85	0x3ec859df	0.39131066
86	0xbdbcca9c	-0.09218332
87	0xbd076c1a	-0.033062078
88	0x3f037001	0.5134278
89	0x3ee47945	0.4462377
90	0xbdc9ccb6	-0.09853499
91	0x3e8f5d8d	0.2800106
92	0x3ca7f911	0.020504506
93	0x3d981932	0.074266806
94	0x3d9550db	0.072908126
95	0xbdb87709	-0.09007079
96	0xbec366d1	-0.3816438
97	0xbe2d73ec	-0.16938752
98	0xbe75a8a4	-0.23990113
99	0x3bacd591	0.0052744825
100	0x3ebd5d24	0.36985123
101	0x3da7cd50	0.08193457
102	0xbec713d9	-0.3888233
103	0x3ee4dff5	0.44702116
104	0x3f052145	0.5200389
105	0x3f264768	0.6495271
106	0xbeb62272	-0.35573155
107	0xbd322e96	-0.04350146
108	0xbe68b0a8	-0.22723639
109	0xbc8bfccc	-0.017088316
110	0xbe025cc1	-0.12730695
111	0x3eb29908	0.3488238
112	0x3f281b03	0.65666217
113	0x3da59172	0.08084382
114	0xbde771bb	-0.11300989
115	0xbeb2a26e	-0.3488955
116	0x3eb8c592	0.36088234
117	0x3ea9bf9f	0.33154008
118	0x3ef6a4fe	0.48172754
119	0x3e86ec57	0.26352188
120	0x3f82fe12	1.0233786
121	0xbd87a37d	-0.0662298
122	0x3eed8463	0.46390066
123	0xbe818dbf	-0.25303456
124	0x3e65e3ab	0.2245013
125	0x3e4b9d8a	0.19884315
126	0x3ea6dd8b	0.325909
127	0xbec0995c	-0.37617004
128	0xbe80f306	-0.25185412
129	0xbe3299cf	-0.17441486
130	0x3e44c884	0.19217116
131	0xbcdc0047	-0.026855601
132	0xbe409b83	-0.18809323
133	0xbed72cda	-0.42026407
134	0x3e59b5de	0.21260783
135	0x3e90eceb	0.28305754
136	0xbf55dacc	-0.8353698
137	0xbe4b5840	-0.19857883
138	0x3b7cc560	0.0038569793
139	0x3f63ed99	0.8903442
140	0x3e55f84e	0.20895502
141	0xbd7915fb	-0.060811978
142	0x3e030527	0.12794934
143	0x3e9eb427	0.3099682
144	0xbe4d4f76	-0.20049843
145	0x3e0ae324	0.1356321
146	0xbee33410	-0.44375658
147	0xbcb77260	-0.022393405
148	0xbd8502da	-0.064946845
149	0x3c9451e3	0.018105453
150	0xbdcb6af7	-0.09932511
151	0x3eb42304	0.35182965
152	0xbec46404	-0.38357556
153	0xbf1a1671	-0.6019049
154	0x3db36731	0.087599166
155	0x3e3f8a08	0.18704998
156	0xbe00fea1	-0.12597133
157	0x3d099bf5	0.033595998
158	0x3b8554b9	0.0040689376
159	0xbe14890d	-0.14505406
160	0x3f2613cb	0.6487395
161	0x3e8111a7	0.2520878
162	0x3eabcd4d	0.3355507
163	0x3e4cb03b	0.19989102
164	0xbe5003ea	-0.20313993
165	0x3d43974c	0.04775171
166	0xbe54f822	-0.2079778
167	0xbed801c3	-0.42188844
168	0xbe00c161	-0.12573768
169	0xbf283e61	-0.6572018
170	0x3db47414	0.08811203
171	0xbd163e71	-0.036680643
172	0x3d2d2481	0.04227114
173	0x3cd39f50	0.025832802
174	0xbeb32e01	-0.34996036
175	0x3b525596	0.003209447
176	0xbe359ee7	-0.17736398
177	0xbeee23c6	-0.46511668
178	0xbd742253	-0.059603047
179	0x3e5ed789	0.21761908
180	0x3b255d7e	0.0025232728
181	0x3e1995a7	0.14998494
182	0x3db99e45	0.09063391
183	0xbc9836ad	-0.018580759
184	0x3bf6fb6e	0.007537297
185	0xbb00bca0	-0.001964368
186	0x3e8dd0a0	0.2769823
187	0x3e32c628	0.17458403
188	0xbe9f763a	-0.31144887
189	0xbe332c10	-0.17497277
190	0xbecbf281	-0.39833453
191	0xbe32498c	-0.17410868
192	0x3ebc69fa	0.36799604
193	0xbf3d7927	-0.7401299
194	0x3e2febbf	0.17179774
195	0xc0207512	-2.5071454
196	0xbf352d8e	-0.70772636
197	0xbf3fca52	-0.7491809
198	0xbf05a818	-0.52209616
199	0xc00b8469	-2.1799567
200	0x3f45a2c8	0.7720151
201	0xbe966364	-0.29372704
202	0xbcf3cca7	-0.029760672
203	0xbfa23064	-1.2671018
204	0xbef4afb7	-0.4779031
205	0xbe785142	-0.24249747
206	0xbeb1e541	-0.3474522
207	0xbfc5af7e	-1.5444181
208	0xbe9b02c3	-0.30275545
209	0x3dec75e8	0.11545926
210	0xbf120369	-0.57036453
211	0x3e95420c	0.29151952
212	0xbd2f99d4	-0.04287131
213	0x3e9f80b4	0.3115288
214	0xbdebd5ad	-0.11515365
215	0x3e884a70	0.2661929
216	0xbe42ad0a	-0.19011322
217	0xbe7d1e7b	-0.24718659
218	0x3f403fdd	0.7509745
219	0xbf1a289b	-0.6021821
220	0xbed485f4	-0.41508448
221	0xbf1aa322	-0.6040517
222	0xbe6c1fff	-0.2305908
223	0xbf67225c	-0.90286803
224	0xbef96896	-0.48712605
225	0xbeeea657	-0.46611282
226	0xbe11d194	-0.14240104
227	0xbd0163fd	-0.031589497
228	0x3d0b9ab4	0.034083083
229	0xbea25c94	-0.31711257
230	0x3db0c587	0.08631425
231	0x3f25ba70	0.64737606
232	0x3f4f7c88	0.81049395
233	0x3ef060bb	0.469488
234	0xbeb4c737	-0.3530824
235	0xbed7b34b	-0.42128977
236	0x3ec5231f	0.38503358
237	0x3efe43ee	0.496612
238	0x3f059d2a	0.5219294
239	0xbedad622	-0.42741495
240	0x3ef3f9a5	0.476514
241	0x3ec794b5	0.38980642
242	0x3dffc956	0.12489574
243	0xbef17d81	-0.47166064
244	0xbec23933	-0.37934265
245	0xbe4cca15	-0.19998963
246	0xbc8c23cb	-0.017106911
247	0x3d31f674	0.043447927
248	0xbcba7fb4	-0.022765972
249	0xbf27fa87	-0.6561665
250	0x3ebe6b49	0.37191227
251	0xbf88f3f0	-1.0699444
252	0xbf2daed2	-0.6784488
253	0xbf09e013	-0.53857535
254	0x3d2f5150	0.042802155
255	0xbfa70769	-1.3049136

lstm.bias_ih_l0 f4 [32]
0	0x3f6a5806	0.91540563
1	0x3f1570d5	0.58375293
2	0xbeed51cc	-0.4635147
3	0x3e60927a	0.21930876
4	0xbea6a9c5	-0.325514
5	0xbe2c30ee	-0.1681554
6	0x3e418a3f	0.18900393
7	0x3e2cb5ef	0.16866277
8	0x3de9b877	0.11412137
9	0xbe23179d	-0.15926977
10	0xbd12cb0e	-0.03583818
11	0xbe6cb867	-0.23117219
12	0x3e811f83	0.25219354
13	0xbeae2a57	-0.34016678
14	0xbe881d3b	-0.265848
15	0xbe5ecf94	-0.21758872
16	0xbe75631c	-0.23963588
17	0xbe8ada63	-0.2711974
18	0x3dd1597b	0.10222145
19	0x3dd572cd	0.10422287
20	0xbe8e11cf	-0.27747962
21	0xbe3dac6f	-0.1852281
22	0x3d463871	0.04839367
23	0xbe756160	-0.23962927
24	0x3ef79699	0.48357084
25	0x3f44683b	0.76721543
26	0xbe886489	-0.26639202
27	0x3eabff19	0.33593062
28	0xbec92b91	-0.3929105
29	0x3bf38e27	0.0074327174
30	0x3e329e62	0.17443231
31	0x3f0b4685	0.5440448

lstm.bias_hh_l0 f4 [32]
0	0x3f870038	1.0546942
1	0x3ebcbdb5	0.36863485
2	0xbe86dde8	-0.26341176
3	0x3f3df82e	0.7420682
4	0x3d2129db	0.039346557
5	0x3d5aded3	0.053435158
6	0x3d2e0deb	0.042493742
7	0x3eb7052f	0.35746142
8	0xbe5fbff3	-0.21850567
9	0xbcdbce3b	-0.026831737
10	0xbebb57bc	-0.36590374
11	0x3e445c00	0.1917572
12	0x3cf2c7d9	0.02963631
13	0xbdd7d839	-0.10539288
14	0x3e67d677	0.22640406
15	0xbe26bacd	-0.16282196
16	0x3e55dbc8	0.20884621
17	0x3e905bbc	0.28194988
18	0xbd856ec2	-0.06515266
19	0xbe705535	-0.23470004
20	0xbe52b611	-0.20577265
21	0x3ccacb2d	0.024755085
22	0xbe91b3d7	-0.2845752
23	0xbd65c090	-0.056091845
24	0x3f0ffd90	0.5624628
25	0x3eb13a89	0.3461497
26	0xbf0e5e18	-0.55612326
27	0x3dd54004	0.10412601
28	0x3e629a58	0.2212919
29	0xbe079ba1	-0.13242961
30	0xbda8f27b	-0.082493745
31	0x3e21d1cb	0.15802686

lstm.weight_ih_l1 f4 [32, 8]
0	0x3ec4a5af	0.38407657
1	0x3ec5131f	0.3849115
2	0xbce29755	-0.027660051
3	0xbf758128	-0.959002
4	0x3dcca682	0.09992696
5	0xbe6c9bfb	-0.23106377
6	0x3d942403	0.07233431
7	0xbf4fdeb1	-0.81199175
8	0xbf02f190	-0.51149845
9	0xbd1608fe	-0.03662967
10	0xbe0a889d	-0.13528676
11	0xbe0489ca	-0.12943187
12	0x3ebbd306	0.36684436
13	0xbe8ebb17	-0.27877113
14	0xbe4fe264	-0.20301205
15	0xbebddec9	-0.37084034
16	0x3ea78a5c	0.32722747
17	0x3ee70b72	0.4512592
18	0xbd6ca9b8	-0.057779044
19	0x3d9afa3f	0.07567262
20	0xbe560292	-0.20899418
21	0x3bbcdd02	0.005763651
22	0xbe3160e5	-0.17322119
23	0xbf0010c7	-0.500256
24	0xbe269fe0	-0.16271925
25	0x3c3d1779	0.011541241
26	0x3e4f1448	0.2022258
27	0x3e57873f	0.21047686
28	0xbe2f19ca	-0.17099681
29	0x3e37158e	0.17879316
30	0x3d81aec9	0.06332166
31	0x3d14b376	0.03630396
32	0x3f2ef7de	0.68346965
33	0x3e07f912	0.13278607
34	0x3daadc8e	0.08342849
35	0xbf83eade	-1.0306051
36	0xbf147717	-0.57994217
37	0x3c84600b	0.016159078
38	0x3e35ec70	0.17765975
39	0xbf5fe359	-0.8745628
40	0x3f1fa971	0.6236792
41	0x3f10a61b	0.56503457
42	0xbd663fd3	-0.05621321
43	0xbeea35c9	-0.4574416
44	0xbe33abd0	-0.1754601
45	0x3d979ca9	0.074029274
46	0xbe14e23c	-0.14539427
47	0xbf210ca7	-0.6290993
48	0x3e69a1b8	0.22815597
49	0x3e92c1f1	0.2866359
50	0xbe0b3b73	-0.13596897
51	0xbd0de940	-0.034646273
52	0xbe6c369b	-0.23067705
53	0x3dfe7012	0.124237195
54	0xbd3a1447	-0.045429494
55	0xbe1b987f	-0.15194891
56	0xbf892adf	-1.0716208
57	0xbf31e0c9	-0.6948362
58	0xba82436b	-0.0009938305
59	0x3f51eea7	0.8200478
60	0x3e20a2d1	0.1568711
61	0xbe662349	-0.22474398
62	0xbe25f7fc	-0.1620788
63	0x3f9e0bc2	1.2347338
64	0x3dd25a2b	0.102711044
65	0xbe3c7530	-0.18404078
66	0x3d581346	0.052752756
67	0xbe62c13f	-0.2214403
68	0x3eb731c4	0.35780156
69	0x3c6a281e	0.014291791
70	0xbd625e07	-0.055265453
71	0xbd70fdbd	-0.058835734
72	0x3f8e5ace	1.1121461
73	0x3f531ebd	0.8246878
74	0xbf02dd3e	-0.5111884
75	0xbf13f226	-0.57791364
76	0x3fa03d3a	1.2518685
77	0x3e79b26f	0.24384473
78	0x3f7f3b1b	0.9969956
79	0xbf2b1a94	-0.6683743
80	0x3ec9ad43	0.3939
81	0x3ccca276	0.024979811
82	0xbe72ba70	-0.23703933
83	0xbee3d896	-0.4450118
84	0xbe8fbc4a	-0.2807334
85	0x3ec0e61f	0.37675568
86	0x3ea81b2e	0.32833236
87	0xbf5ec001	-0.87011725
88	0xbe3fd305	-0.18732841
89	0x3f430a55	0.7618764
90	0xbe91c213	-0.2846838
91	0x3e2c23f2	0.16810587
92	0x3d4f770e	0.05065065
93	0x3e67fc27	0.22654782
94	0xbdb8efd6	-0.0903012
95	0xbe6617c9	-0.22470011
96	0x3f13a0cf	0.5766725
97	0x3e8495f7	0.25895664
98	0xbe3ce647	-0.18447219
99	0xbf2cc1c1	-0.67483145
100	0x3e554c9a	0.20830002
101	0x3d68bd42	0.056821115
102	0x3f116d7a	0.5680767
103	0xbf98dd92	-1.1942618
104	0x3ede74dd	0.43448535
105	0x3f1ac1ef	0.6045217
106	0xbdbfb1d3	-0.09360089
107	0xbf2e5b94	-0.6810849
108	0xbd1195d7	-0.03554329
109	0x3ef427cc	0.47686613
110	0x3ec52bcb	0.38509974
111	0xbf1f3f3e	-0.62205875
112	0x3eb3cb9a	0.35116273
113	0x3f3d6787	0.73986095
114	0xbe6f492f	-0.23367761
115	0x3ed8ae59	0.42320517
116	0x3e5e8e31	0.21733929
117	0x3f6f2bb5	0.93426067
118	0x3eb78568	0.35843968
119	0x3f30b51b	0.69026345
120	0xbe5affc6	-0.21386632
121	0x3f3e96f0	0.7444906
122	0x3eefdcf3	0.46848258
123	0x3ec54d46	0.38535517
124	0xbe39e22e	-0.18152687
125	0xbe408893	-0.18802099
126	0xbe09a211	-0.1344073
127	0x3f3ad368	0.7297883
128	0x3dbb38c4	0.091416866
129	0x3eaddc50	0.33957148
130	0xbe472b4d	-0.19450112
131	0xbdfa1498	-0.12210959
132	0x3d518040	0.0511477
133	0xbda14e84	-0.07876304
134	0x3e88f430	0.267488
135	0xbefe56a6	-0.49675483
136	0x3dd6d8de	0.10490583
137	0x3e548510	0.20753884
138	0x3d32d6a6	0.043661736
139	0x3df02c89	0.117272444
140	0xbe598d01	-0.21245195
141	0xbdebb8ac	-0.11509833
142	0x3e75993b	0.23984234
143	0x3ede5259	0.434222
144	0xbeb8ee8d	-0.361195
145	0xbe5d0998	-0.21585691
146	0xbeafb13e	-0.34314913
147	0x3cf936e2	0.030421678
148	0x3e8d31f6	0.2757718
149	0x3c873d39	0.016508685
150	0x3d1656bb	0.036703806
151	0x3e852d27	0.2601101
152	0xbdf6b9b7	-0.12047141
153	0xbe9027ab	-0.28155264
154	0xbe321bbc	-0.17393392
155	0x3d3f0da6	0.046643876
156	0xbe1198d8	-0.14218462
157	0x3c808a40	0.015690923
158	0xbd5688b4	-0.052376464
159	0xbee0ba11	-0.43891957
160	0x3e471835	0.19442828
161	0xbd22d82f	-0.03975695
162	0x3e087179	0.13324536
163	0xbe6b23a0	-0.22962809
164	0xbda313f4	-0.0796279
165	0x3e6bf40f	0.2304232
166	0x3e720c5d	0.23637529
167	0xbf79a003	-0.97509784
168	0xbeafef76	-0.34362382
169	0xbed021e3	-0.40650854
170	0xbe44830e	-0.19190618
171	0xbd0bc031	-0.034118835
172	0xbdba52cd	-0.09097824
173	0xbdd58ee2	-0.10427643
174	0xbebf3c12	-0.37350518
175	0x3ea08a29	0.31355408
176	0xbf185ee3	-0.59519786
177	0x3dd89b94	0.10576549
178	0x3e954caa	0.29160053
179	0xbe83e980	-0.25764084
180	0xbe864b49	-0.26229313
181	0xbc9c6015	-0.019088784
182	0x3c6b07b7	0.014345101
183	0x3de86d36	0.11348955
184	0x3efa446d	0.4888033
185	0x3e106d48	0.14104187
186	0xbe866175	-0.2624623
187	0xbe4e7027	-0.2015997
188	0xbd10152e	-0.03517645
189	0x3eba6785	0.36407104
190	0x3d6197d5	0.05507644
191	0xbef6d96c	-0.48212755
192	0xbebf45bd	-0.37357894
193	0xbe28a45f	-0.16468953
194	0x3e9a3d02	0.3012467
195	0xbef33b7e	-0.47506326
196	0xbc924b2f	-0.017858116
197	0xbe314163	-0.173101
198	0xbf1865b7	-0.59530205
199	0x3ea75ce6	0.32688063
200	0xbe602e19	-0.21892585
201	0x3d4d9ca7	0.050198223
202	0xbe105457	-0.14094673
203	0xbf635d9b	-0.88814706
204	0x3f1c0120	0.60939217
205	0xbed0aecd	-0.40758362
206	0xbe2bace1	-0.16765167
207	0xbf5fe31a	-0.87455904
208	0x3f63617a	0.8882061
209	0x3f8c2518	1.094882
210	0x3dd995a0	0.10624242
211	0xbf47d0fd	-0.78053266
212	0x39031442	0.0001250068
213	0x3f0fcb4d	0.5616959
214	0x3f396a6b	0.72428006
215	0xbfcec774	-1.6154618
216	0x3ebb73c7	0.3661177
217	0xbd973911	-0.073839314
218	0x3e89f655	0.2694575
219	0xbe7fa5e5	-0.24965627
220	0xbe150cd0	-0.14555669
221	0x3e28962c	0.16463536
222	0xbd31355c	-0.043263778
223	0xbf45cc1c	-0.7726457
224	0x3feaf224	1.8355145
225	0x3f6acd0a	0.91719115
226	0x3d997f1e	0.07494949
227	0xbf86c3cb	-1.0528501
228	0x3d4619a2	0.04836429
229	0x3e44c33f	0.19215105
230	0x3f8f3379	1.1187583
231	0xc018b1a8	-2.3858433
232	0x3fa9028c	1.3203902
233	0x3f74e51e	0.95662105
234	0x3dc40c75	0.095726885
235	0xbea12d59	-0.3147991
236	0xbe058759	-0.13039912
237	0x3f0eb5db	0.5574624
238	0xbc5d00ef	-0.013488992
239	0xbf7c652a	-0.98591864
240	0x3df01caa	0.11724217
241	0x3ddf2ae5	0.10896853
242	0xbe002b8b	-0.1251661
243	0xbe49df1d	-0.19714017
244	0x3df5f081	0.12008763
245	0x3e521e35	0.20519336
246	0x3eb8946e	0.36050743
247	0xbe9851c0	-0.2974987
248	0xbf1e44e2	-0.61823857
249	0xbe1e5312	-0.15461376
250	0x3ea5ca5c	0.3238095
251	0x3f3a18fd	0.7269438
252	0x3e58d0b1	0.2117336
253	0xbec56161	-0.38550857
254	0xbe0e4b27	-0.13895856
255	0x3fce683a	1.6125557

lstm.weight_hh_l1 f4 [32, 8]
0	0x3eeebe1d	0.4662942
1	0xbf4c35fe	-0.79769886
2	0xbe084b9e	-0.13310096
3	0x3e9cc8c0	0.3062191
4	0x3f017ef3	0.50584334
5	0xbe8e4d30	-0.27793264
6	0xbe59601b	-0.21228068
7	0x3c9e6be6	0.01933856
8	0x3e9fd628	0.31218076
9	0xbe9f5779	-0.31121424
10	0x3e41c353	0.18922167
11	0xbf1d4344	-0.61430764
12	0x3ee72757	0.451472
13	0x3e456843	0.19278054
14	0xbd8e256c	-0.069407314
15	0x3f5a871c	0.8536241
16	0xbf3ccb85	-0.73748046
17	0x3e0ce197	0.1375793
18	0xbe0a24c8	-0.13490593
19	0x3dddb913	0.10826316
20	0x3dee3f6c	0.116331905
21	0x3e825aa0	0.25459766
22	0xbe1b703b	-0.15179531
23	0x3c2ce00f	0.010551467
24	0xbea8a11b	-0.32935414
25	0x3c1df724	0.009641442
26	0x3e9483cb	0.290068
27	0xbeb82c37	-0.35971233
28	0xbef6f519	-0.4823387
29	0x3edccbc8	0.43124223
30	0x3f1a8771	0.6036292
31	0xbe8ebeb9	-0.27879885
32	0xbd486c95	-0.048931677
33	0x3cac6ac8	0.021047011
34	0xbdf3b974	-0.11900607
35	0xbe7ea215	-0.24866517
36	0x3d223ce9	0.03960887
37	0x3ebcfb7b	0.36910614
38	0xbd9c0b05	-0.07619289
39	0xbdb842da	-0.08997126
40	0xba8c959c	-0.0010725739
41	0xbf0ea5c3	-0.5572168
42	0x3ea4a876	0.32159775
43	0x3e65d5be	0.22444817
44	0x3e9befac	0.30456293
45	0x3f1042ea	0.563521
46	0x3d6906d8	0.056891292
47	0xbe57763a	-0.21041194
48	0x3cace561	0.02110547
49	0xbe1014c4	-0.14070421
50	0x3d41a803	0.04727937
51	0x3e2e71ef	0.1703565
52	0x3e8025e9	0.25028923
53	0x3e8c7511	0.27433065
54	0xbe9a0e48	-0.3008902
55	0x3d3c084d	0.045906354
56	0x3e0f9bb0	0.14024234
57	0x3f12e0be	0.5737418
58	0x3dc9d811	0.098556645
59	0x3e51e3ef	0.20497106
60	0xbe5de5db	-0.21669714
61	0xbdb14fd9	-0.08657808
62	0x3f43b7ec	0.7645252
63	0xbebc38a6	-0.3676197
64	0x3ecce5ae	0.40018982
65	0xbf08c5e7	-0.53426975
66	0xbeb3d7ed	-0.35125676
67	0x3dc1cd41	0.09462977
68	0xbe3e8016	-0.18603548
69	0xbec22292	-0.37917
70	0xbe85cce9	-0.26132897
71	0x3eda3df2	0.42625386
72	0x3f051e39	0.5199924
73	0xbe2da96b	-0.16959159
74	0x3f1a5e1f	0.6029987
75	0xbf122434	-0.5708649
76	0xbf8143fe	-1.0098875
77	0xbe3126b5	-0.17299922
78	0xbe5785e6	-0.21047172
79	0xbe5c2790	-0.21499467
80	0xbee42282	-0.44557577
81	0x3c54cf28	0.012988843
82	0x3e4da87d	0.20083804
83	0xbdffce98	-0.124905765
84	0xbe990de5	-0.29893413
85	0x3e2ab93a	0.16672221
86	0x3e778569	0.24171986
87	0x3da856e1	0.08219696
88	0x3ca3727d	0.019952053
89	0xbe0c82c1	-0.13721754
90	0x3f10f669	0.5662599
91	0x3e8f078a	0.2793544
92	0xbf10dad0	-0.5658388
93	0x3e5448ec	0.20730942
94	0xbeefa895	-0.46808305
95	0xbeac215f	-0.3361921
96	0xbd82d92f	-0.06389081
97	0x3e5cb1f7	0.21552263
98	0x3d9de493	0.07709613
99	0xbef5b4f8	-0.4798963
100	0xbdefcf5e	-0.11709474
101	0x3f05de83	0.5229265
102	0x3e4146fb	0.18874733
103	0x3ebd5f2f	0.36986682
104	0xbe4569ce	-0.19278643
105	0xbdbf7bf1	-0.09349812
106	0x3e18c3c4	0.14918429
107	0xbe2bcca9	-0.1677729
108	0xbf24a1f9	-0.6430965
109	0x3ec4c89b	0.384343
110	0xbf3b7da6	-0.732386
111	0xbd95b6be	-0.07310246
112	0xbed01f00	-0.4064865
113	0x3deed194	0.116610676
114	0x3f343bcb	0.70403737
115	0x3d225eae	0.039641075
116	0xbfa77d2c	-1.3085074
117	0x3ef26621	0.47343543
118	0x3edd8321	0.43264106
119	0xbf383c87	-0.7196736
120	0xbec9cadf	-0.3941259
121	0x3f2ad5a3	0.66732234
122	0x3ea4fdc2	0.32224852
123	0x3f4804e0	0.7813244
124	0xbf327502	-0.6970979
125	0x3db92907	0.090410285
126	0xbe40b4fe	-0.18819043
127	0xbf73d30a	-0.95243895
128	0xbdf202c7	-0.11816936
129	0x3e006e29	0.12542023
130	0x3e9abc8c	0.30221975
131	0xbea00ffe	-0.312622
132	0x3d42e186	0.047578357
133	0x3ecaf7b3	0.39642105
134	0xbe15d68b	-0.14632623
135	0x3e4c0207	0.19922648
136	0x3dece41d	0.11566947
137	0xbfb992df	-1.4497947
138	0xbede4c49	-0.43417576
139	0x3f266f2d	0.6501339
140	0x3e995d5d	0.29954043
141	0x3c87ab9f	0.016561328
142	0xbecf9884	-0.40546048
143	0x3cff69d9	0.031178402
144	0x3f40590d	0.7513588
145	0xbe3dbd98	-0.18529356
146	0x3e0f1d76	0.13976082
147	0xbdef8fcd	-0.1169735
148	0x3e4aacde	0.19792506
149	0xbe777509	-0.24165739
150	0xbe3f87e4	-0.18704182
151	0xbdba87b7	-0.09107917
152	0xbea1c88e	-0.31598324
153	0x3d8a67c3	0.06758072
154	0x3ec4c452	0.3843103
155	0xbe395b57	-0.1810125
156	0xbec661e7	-0.3874657
157	0x3e665d6b	0.22496574
158	0x3e61f58f	0.2206633
159	0xbe286f66	-0.16448745
160	0x3de77865	0.1130226
161	0xbe867324	-0.2625972
162	0xbe5be311	-0.21473338
163	0xbe3e00db	-0.18555014
164	0xbe471388	-0.19441044
165	0x3f06a868	0.5260072
166	0xbdc16f6f	-0.094450824
167	0x3e98c88c	0.29840505
168	0x3e5a00d8	0.21289384
169	0xbe9ad9ac	-0.30244195
170	0xbeca5f09	-0.3952563
171	0xbe37546c	-0.17903298
172	0x3eb11758	0.34588122
173	0xbe364b5e	-0.17802188
174	0xbe8e3f6c	-0.27782762
175	0xbddb3dd1	-0.1070515
176	0xbca16177	-0.019699795
177	0xbf8c89fe	-1.0979612
178	0xbee3bbfe	-0.44479364
179	0xbdabfe1a	-0.083980754
180	0x3ef2df08	0.47435784
181	0xbf051de6	-0.51998746
182	0xbf7c17e4	-0.98473954
183	0xbe85fe8f	-0.26170775
184	0x3ed724ca	0.42020255
185	0x3d588657	0.05286249
186	0x3e8f8a18	0.28035045
187	0x3e8dbe7a	0.27684385
188	0x3ea9c53e	0.33158296
189	0xbeed92bf	-0.4640102
190	0xbe0bb0f6	-0.13641724
191	0x3e387ffc	0.18017572
192	0xbe0684ae	-0.13136551
193	0xbf8905a5	-1.0704848
194	0xbf121fe5	-0.5707992
195	0x3f4f9851	0.8109179
196	0x3ed40c5d	0.41415682
197	0xbedaef96	-0.42760915
198	0xbf00d629	-0.5032678
199	0x3f011aaa	0.5043131
200	0x3f2f1686	0.68393743
201	0x3e0668ab	0.13125865
202	0xbe5a1669	-0.21297611
203	0xbecee11b	-0.40406117
204	0x3e4eee44	0.20208079
205	0x3e6b19bd	0.22959037
206	0xbd1d7055	-0.038437206
207	0x3f7dbd59	0.99117047
208	0xbe40e494	-0.18837196
209	0x3f04e5af	0.5191297
210	0x3d5af304	0.053454414
211	0x3d4b76fb	0.049674015
212	0xbdbb94ca	-0.09159239
213	0x3f19cd90	0.6007929
214	0x3f05eb62	0.5231229
215	0x3e5cddc2	0.21568969
216	0x3d3592a0	0.044329286
217	0x3ed5ef83	0.41784295
218	0x3e7329bc	0.23746389
219	0x3dc14819	0.0943758
220	0x3e3d3a88	0.18479359
221	0x3eb858e7	0.36005327
222	0xbd198f5e	-0.03749024
223	0xbe3e198d	-0.18564434
224	0xbd98eee8	-0.07467443
225	0x3ea16a0b	0.31526217
226	0x3edee3f2	0.43533283
227	0xbef7977e	-0.48357767
228	0xbf0ad6a5	-0.5423377
229	0x3e5b7283	0.21430402
230	0x3e58984e	0.2115185
231	0x3d9b0e61	0.07571102
232	0x3e98abb8	0.2981851
233	0xbf57b241	-0.8425637
234	0xbe7c33f0	-0.24629188
235	0x3d0a0385	0.033694763
236	0xbd1d29af	-0.03836983
237	0xbab1d1ea	-0.0013566588
238	0xbf000726	-0.5001091
239	0x3d78e4cd	0.060765076
240	0x3e5b28c9	0.21402277
241	0xbe352fd7	-0.1769403
242	0xbe995379	-0.29946497
243	0x3d0ccbe0	0.034374118
244	0x3eb40303	0.35158548
245	0xbe3a9742	-0.18221763
246	0xbe51cfdf	-0.20489453
247	0x3dec978e	0.11552344
248	0x3ea21ed8	0.31664157
249	0x3f81da0c	1.0144668
250	0xbe34f503	-0.1767159
251	0x3e1b7e93	0.15185003
252	0xbe8d10bf	-0.2755184
253	0xbf1503b1	-0.5820876
254	0xbcd41265	-0.025887677
255	0xbe355a43	-0.17710213

lstm.bias_ih_l1 f4 [32]
0	0xbd1dbfd2	-0.038513012
1	0x3d07bc34	0.03313847
2	0xbe64bfe8	-0.22338831
3	0x3e4d680a	0.20059219
4	0x3b278e23	0.0025566898
5	0x3ebba3bc	0.36648357
6	0x399f3d94	0.00030372723
7	0xbee37377	-0.4442403
8	0x3cfa1af5	0.030530432
9	0xbf84132b	-1.031835
10	0x3e75acf5	0.23991759
11	0x3e4e0d83	0.20122342
12	0x3e8b995c	0.2726544
13	0xbf1a4fd8	-0.6027808
14	0xbf21c7af	-0.6319532
15	0x3ea070ea	0.31336147
16	0x3ebcf89d	0.36908427
17	0xbe3b3fcf	-0.1828606
18	0x3d0d14be	0.03444361
19	0x3e84f37e	0.2596702
20	0x3ec10255	0.37697092
21	0xbe856863	-0.26056203
22	0xbe75cb48	-0.24003327
23	0x3e5bf188	0.21478856
24	0x3ebd3813	0.36956844
25	0xbdff9082	-0.124787346
26	0x3e0dd2e3	0.13849978
27	0xbc649ec3	-0.013953867
28	0xbeb06217	-0.34449837
29	0xbe57b074	-0.21063405
30	0xbdec110c	-0.11526689
31	0xbe1c31ac	-0.15253323

lstm.bias_hh_l1 f4 [32]
0	0x3ea578a8	0.32318616
1	0x3e74ae79	0.23894681
2	0xbdbdc22f	-0.09265553
3	0xbd3acd26	-0.0456058
4	0xbe18a232	-0.14905623
5	0x3d817658	0.063214004
6	0x3e1cda82	0.15317729
7	0xbeb812c5	-0.3595182
8	0xbd46517e	-0.04841756
9	0xbf9193d5	-1.137324
10	0x3dfd1dc3	0.12359192
11	0xbeb9ab9a	-0.36263734
12	0x3eb4cde7	0.3531334
13	0xbe032ead	-0.12810774
14	0xbf36d69b	-0.7142121
15	0x3e8791b8	0.26478362
16	0xbe8de27e	-0.27711862
17	0x3dc56c45	0.096397914
18	0xbea87edd	-0.3290929
19	0xbe36b2f5	-0.17841704
20	0x3e9035fa	0.2816618
21	0xbdb69cff	-0.089166634
22	0xbd7d2d93	-0.06181104
23	0xbe327701	-0.17428209
24	0xbe3487fc	-0.17629999
25	0x3e62a599	0.22133483
26	0xbe5721e4	-0.21009022
27	0x3e64827a	0.22315398
28	0x3e8183a1	0.25295737
29	0x3d7d9d40	0.061917543
30	0xbd62218b	-0.05520777
31	0xbecde084	-0.40210354

fc.weight f4 [1, 8]
0	0xbe49be90	-0.197016
1	0x3d88bb86	0.06676392
2	0x3eae02b6	0.33986443
3	0xbea03669	-0.31291512
4	0xbe81d8f2	-0.2536083
5	0x3ea01a42	0.31270033
6	0x3dab521a	0.08365269
7	0x3e2f743b	0.17134182
