models/Kakinada_model.pth (torch, 6149 bytes, 9 tensors)

lstm.weight_ih_l0 f4 [32, 1]
0	0xc0661022	-3.5947347
1	0xc078f378	-3.8898602
2	0xc04ce818	-3.2016659
3	0x3f96a787	1.1769875
4	0xc014fb90	-2.3278542
5	0xbfb6afd9	-1.4272414
6	0xc047c568	-3.1214237
7	0xbee2837c	-0.4424094
8	0xc04bce34	-3.1844606
9	0xc078764d	-3.8822205
10	0xbfcaa6d2	-1.583216
11	0x3fbba3a9	1.465932
12	0xc036100a	-2.844729
13	0xbf69bb62	-0.9130155
14	0xbffda451	-1.981577
15	0xbef87d5c	-0.48533142
16	0xbfe76f05	-1.8080755
17	0xc0175f88	-2.3652058
18	0x3fec1905	1.8445135
19	0x3f9a2cf3	1.2044967
20	0x3fd35732	1.6510985
21	0x3facf769	1.3513004
22	0x400868cd	2.1313965
23	0xbfcc33af	-1.5953273
24	0xc03b804d	-2.9297059
25	0xc0589153	-3.38387
26	0xc0166dac	-2.3504438
27	0x3fb7b3d4	1.4351754
28	0xc021cf08	-2.5282612
29	0xbfb42ef2	-1.4076827
30	0xc0336bb0	-2.8034477
31	0xbe81d35a	-0.2535656

lstm.weight_hh_l0 f4 [32, 8]
0	0x3eed41b2	0.46339184
1	0x3f4ea620	0.80722237
2	0xbec58f2f	-0.38585803
3	0x3e0b7f82	0.13622859
4	0xbea4be70	-0.32176542
5	0xbedcec6d	-0.4314913
6	0x3e0497c3	0.12948518
7	0xbd9a5ed4	-0.07537618
8	0x3eb7afa7	0.358762
9	0x3f487a66	0.78311765
10	0xbee95101	-0.45569614
11	0x3edc283d	0.4299945
12	0xbdc607b8	-0.09669441
13	0xbf09b1df	-0.53787035
14	0xbe9982f6	-0.29982728
15	0x3e2322ff	0.15931319
16	0x3ee02bf2	0.43783528
17	0x3eb14b29	0.34627655
18	0xbe5fe3e3	-0.21864276
19	0x3e64ea83	0.22355084
20	0x3ccca591	0.024981292
21	0x3e98151e	0.2970361
22	0xbe271dc5	-0.1631995
23	0xbe603486	-0.21895036
24	0x3f0c1093	0.5471279
25	0x3ec296e8	0.38005757
26	0xbe91a65e	-0.2844724
27	0xbe873651	-0.26408628
28	0xbdaa559a	-0.083171085
29	0x3f300345	0.6875499
30	0xbeb64f97	-0.35607597
31	0x3db9f367	0.090796284
32	0xbcbc149c	-0.022959046
33	0x3e63da2b	0.22251193
34	0xbe114c6b	-0.14189307
35	0x3d8d8854	0.06910768
36	0x3d449f19	0.04800329
37	0x3eb39095	0.35071245
38	0xbe8a553d	-0.27018157
39	0x3ca86838	0.020557508
40	0x3ebe9391	0.3722196
41	0x3ec8e9c9	0.39240864
42	0x3d71cd6e	0.059033804
43	0x3ed23895	0.41058794
44	0x3e017f9f	0.1264634
45	0x3f601c5d	0.8754328
46	0xbdd60f11	-0.104520924
47	0xbfa45900	-1.2839661
48	0x3eb2ba89	0.3490794
49	0x3f07a466	0.5298523
50	0xbddd7a7d	-0.108143784
51	0xbdd3edaf	-0.10348069
52	0xbe0b3385	-0.13593872
53	0x3e593159	0.21210231
54	0xbe448cbd	-0.19194312
55	0xbf18cc28	-0.5968652
56	0x3eb8aa7b	0.36067566
57	0x3ecfb4b0	0.4056754
58	0xbecb4fc2	-0.39709288
59	0x3f7e1183	0.9924547
60	0x3dca687a	0.098832086
61	0x3f4cfeef	0.800765
62	0xbf05a0cc	-0.5219848
63	0xbfc52f05	-1.5404974
64	0x3eb2aa1f	0.34895417
65	0x3f10c8ec	0.5655658
66	0xbe007da8	-0.12547934
67	0x3e207669	0.1567017
68	0x3e5fbbb0	0.21848941
69	0xbed2ce75	-0.4117314
70	0xbe8bfb67	-0.27340242
71	0x3faeed90	1.3666248
72	0x3e899b2d	0.26876202
73	0x3edb9b8d	0.42892113
74	0xbed3fdee	-0.4140467
75	0x3e30544f	0.17219661
76	0xbd0f1aff	-0.034937855
77	0xbf1181d9	-0.56838757
78	0xbf02cbc3	-0.51092166
79	0x3faa1142	1.3286517
80	0x3eee45d1	0.4653764
81	0x3f0e7ad2	0.5565616
82	0x3e90ced5	0.282828
83	0xbdae23f1	-0.08502949
84	0xbe04cb19	-0.129681
85	0x3e5b4c9a	0.2141594
86	0xbe0bcb0f	-0.1365168
87	0x3ef39b65	0.47579494
88	0xbddc402d	-0.10754428
89	0x3ee8672b	0.4539121
90	0xbcd49c2e	-0.025953379
91	0xbec55367	-0.38540193
92	0xbe207523	-0.15669684
93	0x3dfc5b4c	0.12322101
94	0x3e440b5c	0.19144958
95	0x3e6c10d9	0.23053302
96	0xbe23f8f4	-0.16012937
97	0xbe3ef562	-0.18648294
98	0xbd9f130d	-0.077673055
99	0xbeb3cb28	-0.35115933
100	0x3d9cc752	0.07655205
101	0x3e2439bd	0.1603765
102	0xbd7e3125	-0.062058587
103	0x3f1ee37e	0.62065876
104	0x3e10e9a9	0.14151634
105	0x3f025c69	0.50922257
106	0x3e5a5a6d	0.21323557
107	0xbed4823f	-0.4150562
108	0x3f02a822	0.510378
109	0xbf046f72	-0.5173255
110	0x3ef3955b	0.47574887
111	0x3f9914cd	1.1959473
112	0xbe096b93	-0.13419943
113	0x3f0b38a7	0.5438332
114	0xbe3b28dd	-0.18277307
115	0xbe00af9d	-0.12566991
116	0x3d9d4b8f	0.07680427
117	0x3ccc03b8	0.024904117
118	0x3c7e1613	0.015508193
119	0x3e87b864	0.26507866
120	0x3e2af9e8	0.16696894
121	0x3ebcc5a0	0.36869526
122	0xbde99e49	-0.114071436
123	0xbf6670df	-0.9001598
124	0x3eabeffe	0.33581537
125	0xbf56c30d	-0.83891374
126	0x3e5e890c	0.21731967
127	0x3f9dbd32	1.2323363
128	0xbcbe804b	-0.023254534
129	0x3e8254d0	0.25455332
130	0xbe0bdabe	-0.13657662
131	0x3e332cb3	0.1749752
132	0xbd0a0a90	-0.03370148
133	0x3e10ba27	0.14133511
134	0xbea6e6e4	-0.3259803
135	0xbda2ad20	-0.07943177
136	0x3ec261b6	0.37965173
137	0x3e909d58	0.28245044
138	0xbe115195	-0.14191277
139	0x3e5e5ec8	0.21715844
140	0xbe9c3169	-0.30506447
141	0x3e6b2760	0.22964239
142	0xbd6a3574	-0.057179883
143	0xbee0d235	-0.43910375
144	0xbe736abf	-0.23771189
145	0x3e648af7	0.22318636
146	0xbe55ee63	-0.20891719
147	0xbe18ef1d	-0.14934964
148	0xbe2cda0c	-0.16880053
149	0x3be74f7c	0.007059036
150	0xbe028410	-0.1274569
151	0xbdbd21c7	-0.09234958
152	0xbd030638	-0.031988353
153	0x3ecf4337	0.40480968
154	0xbea5f94c	-0.3241676
155	0xbea0cb6a	-0.31405193
156	0xbe80e9b5	-0.25178304
157	0x3e9d6804	0.3074342
158	0x3dd6389b	0.104600154
159	0x3eab8983	0.3350335
160	0x3e68a99d	0.22720952
161	0xbd1bdd09	-0.038052592
162	0x3dc0e61a	0.094188884
163	0x3f011921	0.5042897
164	0x3d9340ef	0.071901195
165	0xbebc1884	-0.36737454
166	0x3e505b7a	0.20347396
167	0x3e86d69f	0.26335618
168	0x3ed31766	0.4122879
169	0x3e8eed9d	0.2791566
170	0xbdce3fc8	-0.10070759
171	0x3d42ef79	0.04759166
172	0x3d26a390	0.04068333
173	0xbe8450fc	-0.25843036
174	0xbe9b3060	-0.30310345
175	0x3f0f8a56	0.5607046
176	0xbda9bfe9	-0.08288557
177	0x3e6d1087	0.23150836
178	0xbea5ba56	-0.32368726
179	0x3e6cfa2e	0.23142311
180	0x3df54425	0.11975888
181	0xbbc98608	-0.006150011
182	0x3e3cee37	0.18450247
183	0x3e4c5096	0.19952616
184	0xbf15e9f4	-0.5856011
185	0xbebcb839	-0.368593
186	0x3eceb3e6	0.40371627
187	0xbe06933f	-0.13142107
188	0x3edc402d	0.43017712
189	0xbd9ba555	-0.07599894
190	0x3dde2e4b	0.108486734
191	0xbea6d772	-0.32586247
192	0x3f39ef89	0.72631127
193	0x3e7ebf0a	0.24877563
194	0xbe12741a	-0.14302102
195	0x3d953099	0.0728466
196	0xbec6be16	-0.388169
197	0xbf5c6ce8	-0.8610368
198	0x3d3d529a	0.046221353
199	0x3f3d8431	0.74029833
200	0x3f3d6dea	0.7399584
201	0x3f4f2c0c	0.80926585
202	0xbe2d3609	-0.16915144
203	0x3babc3f6	0.005241866
204	0xbc296847	-0.010339803
205	0xbf671a0e	-0.9027413
206	0xbec571b8	-0.38563323
207	0x3f848afc	1.0354915
208	0x3f13bd5b	0.5771081
209	0x3f013bf3	0.504821
210	0xbe680636	-0.2265862
211	0xbe6b8f01	-0.2300377
212	0xbe9768fa	-0.29572278
213	0xbed6e7af	-0.41973636
214	0xbee6084d	-0.44928208
215	0x3e04c2b1	0.12964894
216	0x3f17e79a	0.5933777
217	0x3e9c64bd	0.30545607
218	0xbec74335	-0.38918462
219	0x3e2269b1	0.1586063
220	0xbd197024	-0.03746046
221	0x3e687026	0.22699031
222	0x3e00f3a6	0.12592945
223	0x3c97c7e4	0.018527932
224	0xbe40c13d	-0.18823715
225	0x3e047654	0.12935764
226	0x3ebfa5fd	0.37431327
227	0xbeb4a110	-0.3527913
228	0x3ed885ea	0.42289668
229	0xbeccbf54	-0.39989722
230	0xbdd5b171	-0.10434235
231	0x3df2fa20	0.11864114
232	0xbe2ecf27	-0.1707121
233	0x3f0e7543	0.5564768
234	0xbd08cf09	-0.03340057
235	0x3eb34e6a	0.35020763
236	0xbea22c7f	-0.31674573
237	0x3f6bcc50	0.9210863
238	0xbe8303d2	-0.25588852
239	0xbf0ce82f	-0.55041784
240	0xbd3e0f9e	-0.046401612
241	0x3ef81301	0.48452
242	0xbe3c06e5	-0.18362005
243	0x3e67278f	0.22573684
244	0xbcc47f4d	-0.023986483
245	0x3e96ff0f	0.2949147
246	0x3e53300d	0.20623799
247	0x3e714248	0.2356044
248	0x3e124ca6	0.14287052
249	0x3e8e8851	0.27838376
250	0xbe8b1301	-0.27162936
251	0x3f8d602a	1.1044972
252	0xbe4ed05c	-0.2019667
253	0x3ea5f4f7	0.32413456
254	0xbed1e4f3	-0.40994987
255	0xbf38a984	-0.7213366

lstm.bias_ih_l0 f4 [32]
0	0x3b812b37	0.003941919
1	0xbdec899d	-0.11549685
2	0x3e2d31a1	0.16913463
3	0xbe9881c7	-0.29786512
4	0x3c4a9187	0.012363798
5	0x3d09a04f	0.033600148
6	0xbdee93ed	-0.11649308
7	0x3f2674b0	0.650218
8	0x3e182908	0.14859402
9	0x3e0a5f1c	0.13512844
10	0x3da553c0	0.08072615
11	0xbe75f584	-0.24019438
12	0xbeae258d	-0.34013024
13	0xbf330ea8	-0.6994424
14	0xbdcd6334	-0.10028687
15	0xbec45517	-0.38346168
16	0x3e441ead	0.19152327
17	0x3c0251ce	0.007954074
18	0x3bb85d0c	0.0056263264
19	0x3e24ba51	0.16086699
20	0xbe601f0b	-0.21886842
21	0xbdec4418	-0.11536425
22	0xbe04ed4e	-0.1298115
23	0xbdaf9f30	-0.085752845
24	0x3d978710	0.07398808
25	0x3eaa8f5c	0.333125
26	0x3d45bdd3	0.048276734
27	0xbd2deacc	-0.042460248
28	0xbe651491	-0.22371127
29	0xbc8f93db	-0.017526558
30	0x3cbf3ec7	0.023345364
31	0x3f21a456	0.6314138

lstm.bias_hh_l0 f4 [32]
0	0x3e6d8353	0.23194627
1	0x3ed1acef	0.4095225
2	0x3eac3dbe	0.33640856
3	0x3d6b5c0d	0.057460833
4	0x3c5447ef	0.012956603
5	0x3d8cd747	0.068769984
6	0xbe8485d2	-0.25883347
7	0x3ea982ad	0.3310751
8	0xbdf8fffc	-0.121582
9	0xbe57b3c7	-0.21064673
10	0xbe9b4168	-0.30323339
11	0xbed2bb02	-0.411583
12	0xbec55977	-0.3854482
13	0xbe926952	-0.28595978
14	0xbc4bcc1f	-0.012438803
15	0xbf02448e	-0.50885856
16	0xbe49a876	-0.19693169
17	0xbd060f3e	-0.03272938
18	0xbe70cba5	-0.23515184
19	0xbd2f900b	-0.04286198
20	0xbe218300	-0.15772629
21	0x3ba428b2	0.005009734
22	0xbe78d89b	-0.24301378
23	0x3e842a10	0.2581334
24	0x3c14dce1	0.009085865
25	0xbd0c5649	-0.034261975
26	0xbe485445	-0.19563396
27	0xbe85ebbd	-0.26156417
28	0x3e0a5932	0.13510588
29	0x3e962c03	0.29330453
30	0xbe95078a	-0.29107314
31	0x3f15406d	0.5830143

lstm.weight_ih_l1 f4 [32, 8]
0	0xbf179a3a	-0.59219706
1	0xbf328a51	-0.69742304
2	0x3e8c6e6e	0.27428
3	0xbf109c3f	-0.5648841
4	0x3e93ff1a	0.28905565
5	0x3c2c6e92	0.010524409
6	0x3ee89010	0.4542241
7	0x3dc56e6b	0.09640201
8	0x3ec98709	0.39360836
9	0x3ee4ecfa	0.4471205
10	0x3cdd3935	0.027004818
11	0xbe4d9d77	-0.200796
12	0x3e94e972	0.29084355
13	0xbe9ed97d	-0.31025305
14	0x3e8eb554	0.27872717
15	0x3f353beb	0.7079455
16	0xbda1bed2	-0.07897724
17	0xbd743391	-0.05961949
18	0x3f17c0b0	0.5927839
19	0x3ca05103	0.01956988
20	0x3f2a0175	0.66408473
21	0xbe0d1a51	-0.1377957
22	0x3f22c9fd	0.6358946
23	0x3ca33159	0.019920992
24	0x3f0eb4ff	0.5574493
25	0x3f10c81b	0.56555337
26	0xbf4340ff	-0.7627105
27	0xbed9e665	-0.4255859
28	0x3c4de0bd	0.012565789
29	0xbf536d22	-0.825884
30	0xbe7535bc	-0.2394628
31	0x3faa1e12	1.3290427
32	0x3f0018d2	0.5003787
33	0x3eb1c047	0.34717008
34	0xbf27146a	-0.65265524
35	0xbed797f5	-0.42108122
36	0xbe8cea25	-0.27522388
37	0xbee1da53	-0.4411188
38	0xbda5ff41	-0.081053264
39	0x3e0c117d	0.13678546
40	0xbe6d45cd	-0.23171158
41	0xbd735801	-0.0594101
42	0x3e19e756	0.15029654
43	0xbef45688	-0.47722268
44	0xbe4765e9	-0.1947247
45	0x3d5cc093	0.05389459
46	0x3e53f23c	0.20697874
47	0x3e7af02c	0.24505681
48	0xbe1bdd57	-0.15221153
49	0x3ec3f610	0.38273668
50	0xbeb94e7e	-0.36192697
51	0xbe4c3562	-0.19942239
52	0xbcf25ef4	-0.029586293
53	0xbd9441a5	-0.07239083
54	0xbdc403ca	-0.09571035
55	0xbe0e799f	-0.13913582
56	0x3fab5924	1.3386579
57	0x3fa60731	1.2970945
58	0xbf9e053c	-1.2345347
59	0x3ec15fe7	0.3776848
60	0xbf356162	-0.7085172
61	0xbf613137	-0.8796572
62	0xbf01a2c2	-0.50638974
63	0x3e9b9add	0.3039159
64	0x3c8c625b	0.017136743
65	0xbf27a8f5	-0.6549218
66	0xbd51f3d2	-0.051257916
67	0xbcb9f9bf	-0.022702096
68	0x3de27ea8	0.11059314
69	0xbcf55853	-0.029949343
70	0x3ee43792	0.44573647
71	0x3c62baea	0.013838509
72	0xbdb05ed1	-0.08611835
73	0xbe3fc1a0	-0.18726206
74	0xbe7167c0	-0.23574734
75	0xbecb1732	-0.39666134
76	0x3bac4850	0.0052576438
77	0xbc3f8dec	-0.011691552
78	0xbe9ff92d	-0.31244794
79	0xbe5ec26e	-0.21753857
80	0x3d7760b1	0.060394946
81	0xbeda14c1	-0.4259396
82	0x3f0753ae	0.5286206
83	0xbeea79e5	-0.45796123
84	0x3e33663f	0.17519473
85	0xbe53be2e	-0.20678017
86	0x3d8805f1	0.06641758
87	0xbb338d10	-0.0027397312
88	0x3e4a237f	0.19740103
89	0x3e93f7d0	0.28900003
90	0x3e855481	0.26041034
91	0x3d95703f	0.072968
92	0x3f0c571f	0.54820436
93	0x3f2e4662	0.68076146
94	0x3d7ab4bf	0.06120753
95	0xbebbabd2	-0.36654526
96	0xbe822822	-0.25421244
97	0xbe0e2999	-0.13883056
98	0x3ed4e3c7	0.4158003
99	0x3db9e13d	0.09076164
100	0x3e5ef83a	0.21774378
101	0x3f1100cf	0.5664186
102	0x3e280b59	0.16410579
103	0xbf165e08	-0.5873723
104	0xbe1df892	-0.15426853
105	0x3da5e97a	0.08101173
106	0x3e75f571	0.2401941
107	0xbe2d64af	-0.16932939
108	0xbe47070a	-0.19436279
109	0xbbe53287	-0.0069945487
110	0x3ea42a5e	0.32063574
111	0x3e8da0d8	0.27661777
112	0x3eb7117e	0.35755533
113	0x3ef7bdc6	0.48386973
114	0xbe540237	-0.2070397
115	0x3d9000ef	0.07031428
116	0x3e49058e	0.19631025
117	0xbe89a353	-0.2688242
118	0x3ddee879	0.108841844
119	0x3edd55cc	0.4322952
120	0x3e31e628	0.17372954
121	0x3e274aa0	0.16337061
122	0x3e80b37f	0.25136945
123	0x3e433431	0.19062878
124	0x3ee33c2e	0.4438185
125	0x3ea303fd	0.3183898
126	0x3f0a6fae	0.5407666
127	0xbf6f7973	-0.9354469
128	0x3eb8945f	0.36050698
129	0xbd9de806	-0.077102706
130	0xbecbbbdc	-0.39791763
131	0x3e01b8e6	0.1266819
132	0x3cbb1077	0.022835
133	0x3df389fb	0.11891552
134	0xbb73662a	-0.0037139752
135	0xbe976406	-0.295685
136	0x3d96f13f	0.07370233
137	0x3ec6f7b2	0.38860852
138	0xbe412681	-0.18862344
139	0xbeb4d7c9	-0.3532088
140	0xbc31b06b	-0.010845284
141	0x3d8735ad	0.06602035
142	0x3c9c72df	0.019097744
143	0x3e298c50	0.16557431
144	0xbe814998	-0.2525146
145	0x3d59711b	0.05308638
146	0xbe2d359a	-0.16914979
147	0x3e929cd0	0.28635263
148	0x3d1944d1	0.037419144
149	0x3e9c58ab	0.30536398
150	0xbe582b38	-0.21110237
151	0x3d90b028	0.07064849
152	0xbd164e23	-0.03669561
153	0x3f0df82b	0.554568
154	0xbe8ba198	-0.27271724
155	0xbe70e774	-0.23525792
156	0xbebc158f	-0.36735198
157	0xbe1e24fb	-0.15443794
158	0xbee6040e	-0.44924968
159	0x3dd16f08	0.10226256
160	0x3ecc2834	0.39874423
161	0x3e2f71fc	0.17133325
162	0xbe5eae1a	-0.21746102
163	0x3e1026ee	0.1407735
164	0xbea39191	-0.31946996
165	0xbd6c0661	-0.05762327
166	0xbe8209e8	-0.25398183
167	0x3e48cb7a	0.1960887
168	0x3e846826	0.2586071
169	0x3ed62853	0.4182764
170	0x3eb76d6a	0.35825664
171	0xbdc0acf5	-0.09407989
172	0xbdc74c92	-0.097314015
173	0x3e64c94f	0.22342418
174	0xbe43f3ff	-0.19136046
175	0x3e2db60b	0.16963975
176	0x3e4df4be	0.20112893
177	0x3d66f859	0.056389187
178	0xbea7df52	-0.32787567
179	0x3dec4013	0.11535659
180	0x3d178ebf	0.037001368
181	0xbde6c545	-0.11268095
182	0x3e51e2b9	0.20496644
183	0x3e26958f	0.1626799
184	0x3f845681	1.0338899
185	0x3f4898b3	0.78358
186	0xbf439b5c	-0.76408935
187	0xbef5c9d8	-0.48005557
188	0xbdd9be15	-0.106319584
189	0xbf42d42e	-0.7610501
190	0xbf495d19	-0.7865768
191	0x3f19f17a	0.6013409
192	0xbe1ba8a2	-0.15201047
193	0xbeecb22c	-0.46229684
194	0x3e478a37	0.19486319
195	0xbcbdb683	-0.023158317
196	0x3e9c37e0	0.3051138
197	0xbd4db3d9	-0.050220344
198	0x3ebaa810	0.36456347
199	0xbde54858	-0.11195439
200	0x3b974ade	0.004617079
201	0x3e601097	0.21881329
202	0xbee26399	-0.44216612
203	0x3de5c705	0.112196006
204	0x3e787f6d	0.24267359
205	0xbe4c4b44	-0.19950587
206	0xbdb0c81c	-0.08631918
207	0x3f2807f9	0.65637165
208	0xbd346899	-0.044045065
209	0xbf027de3	-0.5097334
210	0x3e41757b	0.18892471
211	0xbc819245	-0.015816817
212	0x3ee33d86	0.44382876
213	0xbcfab227	-0.030602528
214	0x3eb71abd	0.35762587
215	0xbea341b1	-0.31886056
216	0x3f6b3a45	0.9188579
217	0x3f745562	0.95442784
218	0xbf23bac5	-0.6395686
219	0xbea6daf0	-0.3258891
220	0x3dc6c044	0.097046405
221	0xbe7dc296	-0.2478126
222	0xbf115a4e	-0.5677842
223	0x3fb69985	1.42656
224	0x3f0176ac	0.50571704
225	0x3f377a7d	0.7167128
226	0xbee64d24	-0.4498073
227	0xbd0ba78b	-0.03409533
228	0xbea187c7	-0.31548902
229	0x3d99d56a	0.075114086
230	0xbedd4249	-0.43214634
231	0x3ef747b1	0.48296884
232	0xbc3eb7da	-0.011640513
233	0xbdaf803e	-0.08569382
234	0xbdbcf5f9	-0.09226603
235	0xbed2872b	-0.4111875
236	0xbd5448c1	-0.051827196
237	0xbf0396c0	-0.514019
238	0xbce76c10	-0.02824977
239	0x3f475705	0.77867156
240	0x3e60b9ec	0.21945924
241	0x3e1a446f	0.15065168
242	0x3d780158	0.060548156
243	0x3e85a6f1	0.2610393
244	0xbe361b28	-0.17783797
245	0xbec5c310	-0.38625383
246	0xbe5139b4	-0.20432168
247	0x3f1b857c	0.60750556
248	0x3f3ab7ec	0.7293689
249	0x3f5e23c1	0.86773306
250	0xbf8277d0	-1.0192814
251	0x3f39db98	0.726007
252	0xbde46896	-0.11152761
253	0xbeeee7da	-0.46661264
254	0xbec68599	-0.38773802
255	0xbe314040	-0.17309666

lstm.weight_hh_l1 f4 [32, 8]
0	0xbe4cd89b	-0.20004503
1	0xbe80ea0c	-0.25178564
2	0xbc2300d7	-0.009948931
3	0xbb187c5f	-0.002326749
4	0x3ea48fa1	0.3214083
5	0xbf158546	-0.58406484
6	0xbdf6377c	-0.120223016
7	0xbdbbf85c	-0.0917823
8	0xbe8c13a7	-0.27358744
9	0x3b58c7e8	0.0033078138
10	0x3eb05fe7	0.34448168
11	0xbcd08c5b	-0.025457552
12	0xbe9ff574	-0.31241953
13	0xbe05e83a	-0.13076869
14	0xbea89c7b	-0.32931885
15	0xbe72377d	-0.2365398
16	0x3e90524f	0.28187796
17	0xbed6849f	-0.41898057
18	0x3e61e3fc	0.22059625
19	0x3e240702	0.16018298
20	0xbe435b56	-0.1907781
21	0x3dadd6e0	0.0848825
22	0xbed91254	-0.42396796
23	0x3e1d0708	0.15334713
24	0x3d57b9ec	0.052667543
25	0xbed376a7	-0.41301462
26	0xbe8f25cb	-0.2795852
27	0xbe971a7c	-0.29512393
28	0xbe8c3b7d	-0.27389136
29	0xbed204c2	-0.41019255
30	0xbdf7c46a	-0.1209801
31	0x3cbef0cc	0.02330818
32	0x3dc8efa0	0.0981133
33	0x3d645282	0.055742748
34	0xbe1ca602	-0.15297702
35	0x3df2e9ba	0.11860986
36	0x3c83e1fa	0.016098965
37	0x3a98f6a0	0.001167018
38	0x3e3422ea	0.17591444
39	0x3dc44f54	0.09585443
40	0x3e0c46f9	0.13698949
41	0x3e3ceddd	0.18450113
42	0x3e018d47	0.1265155
43	0xbd617fb1	-0.055053417
44	0x3db3a417	0.08771532
45	0x3e5ec4a3	0.21754698
46	0x3de71b4b	0.112845026
47	0xbf0dcf38	-0.55394316
48	0xbe1ab277	-0.15107141
49	0x3e2d0adb	0.16898672
50	0xbe98bd42	-0.29831892
51	0xbf07206a	-0.52783835
52	0xbe0569de	-0.13028666
53	0xbe8da44f	-0.2766442
54	0xbe5d24a4	-0.21596009
55	0xbf01fb76	-0.50774324
56	0x3e7addad	0.24498625
57	0x3f23e5c3	0.64022464
58	0x3ebe06eb	0.37114653
59	0x3f3688f7	0.7130274
60	0xbe2067a1	-0.15664531
61	0x3eb1d5ce	0.34733433
62	0xbc5d9587	-0.01352442
63	0xbe3c0348	-0.18360627
64	0xbce9acd1	-0.028524788
65	0xbe4e949a	-0.20173874
66	0x3d857d1d	0.06518004
67	0xbde68da3	-0.11257484
68	0xbe8aa8e0	-0.27081966
69	0xbee68c81	-0.4502907
70	0xbf080b96	-0.5314268
71	0xbe7f0628	-0.24904692
72	0xbe22d7bb	-0.15902607
73	0xbe506b7c	-0.20353502
74	0xbe0dab58	-0.13834894
75	0xbf0b2378	-0.54350996
76	0xbec111e2	-0.37708956
77	0xbe4be2ff	-0.19910811
78	0xbec625b0	-0.38700628
79	0xbf186af4	-0.595382
80	0xbe975afd	-0.29561606
81	0xbf077be3	-0.5292341
82	0x3d79121b	0.060808282
83	0x3cccd582	0.025004152
84	0x3de5dde2	0.112239614
85	0x3e2521fb	0.16126244
86	0xbf1c6e30	-0.6110563
87	0xbce490dc	-0.027901106
88	0xbd9f4d95	-0.077784695
89	0xbec5fd67	-0.38669893
90	0xbd994481	-0.07483769
91	0xbd87e0a8	-0.06634647
92	0x3e7c059b	0.24611513
93	0xbeb23ce2	-0.34812075
94	0xbeee8088	-0.46582437
95	0x3f0d7169	0.55251175
96	0xbe5aa324	-0.21351296
97	0xbed9d206	-0.42543048
98	0xbf06c454	-0.5264332
99	0x3d510617	0.0510312
100	0xbebe45cb	-0.37162623
101	0xbe0ca61a	-0.13735238
102	0xbe742a31	-0.2384422
103	0xbd3de45d	-0.046360362
104	0xbe0eb7b3	-0.13937263
105	0x3e04e60d	0.12978382
106	0xbeb23491	-0.3480573
107	0xbed3e4e7	-0.41385576
108	0xbc6fd705	-0.014638667
109	0xbe18470a	-0.14870849
110	0xbdd83779	-0.105574556
111	0x3c9485de	0.01813024
112	0xbd0823ad	-0.033237148
113	0xbe0b4561	-0.13600685
114	0xbe665f2e	-0.22497246
115	0xbdb7933b	-0.08963629
116	0xbea0ee1f	-0.31431672
117	0x3dba3f4a	0.09094103
118	0xbe2f95e3	-0.17147021
119	0xbf15a8a7	-0.5846047
120	0x3eaa5aee	0.332725
121	0xbea58805	-0.32330337
122	0xbf6372ec	-0.8884723
123	0x3f15f0c6	0.58570516
124	0x3ee41a39	0.44551256
125	0x3da56acc	0.080770105
126	0xbf0500e8	-0.5195451
127	0x3dbd8c11	0.09255231
128	0xbeafce8e	-0.34337276
129	0x3e7e57c2	0.24838164
130	0x3e02372b	0.12716357
131	0xbeaf4eea	-0.34239894
132	0xbdfbc7b4	-0.1229395
133	0x3e87f900	0.2655716
134	0x3e5a5816	0.21322665
135	0xbde61518	-0.11234492
136	0xbd9fe672	-0.07807626
137	0x3dc50e34	0.0962185
138	0xbca013b6	-0.019540649
139	0xbe0d71ca	-0.13812938
140	0xbdafec72	-0.0859002
141	0xbe18e2e7	-0.14930306
142	0x3e9d658f	0.30741546
143	0xbf0778f3	-0.5291893
144	0xbdbbcb38	-0.0916962
145	0x3e64738e	0.22309706
146	0xbe652482	-0.22377208
147	0x3e632e30	0.22185588
148	0x3d512d3c	0.05106853
149	0xbeb1452c	-0.34623086
150	0x3e55ba59	0.20871867
151	0xbc201d79	-0.009772652
152	0x3e5c8fbe	0.21539208
153	0xbe9b60af	-0.303472
154	0xbab6507d	-0.0013909485
155	0xbef03962	-0.4691878
156	0xbd40c417	-0.047062006
157	0xbd504bc0	-0.05085349
158	0x3e963d2d	0.29343548
159	0xbef85c6d	-0.48508015
160	0xbea80ce8	-0.32822347
161	0x3ee118fd	0.43964377
162	0x3ce4c574	0.027926184
163	0x3e607c2e	0.21922371
164	0xbe043eec	-0.12914628
165	0x3dccbd6f	0.09997069
166	0xbe873082	-0.26404196
167	0xbe46117b	-0.19342606
168	0x3e034028	0.12817442
169	0xbed29305	-0.41127792
170	0x3c8e1b61	0.01734704
171	0xbeb8261f	-0.35966584
172	0xbef1b5a7	-0.47208902
173	0x3d05f8f9	0.032708142
174	0xbda72255	-0.08160845
175	0xbeccee11	-0.4002538
176	0x3d83dc0c	0.06438455
177	0x3b89418a	0.004188721
178	0x3e22174c	0.158292
179	0xbdb8f80c	-0.09031686
180	0xbec2d544	-0.38053334
181	0x3eaacb9b	0.33358464
182	0xbda74cf3	-0.08168974
183	0xbec1d3c9	-0.37856892
184	0x3e2a2822	0.16616872
185	0x3ddc3c4f	0.107536905
186	0xbcdc4d9c	-0.026892476
187	0xbdfd21c6	-0.123599574
188	0xbf22a09e	-0.6352633
189	0xbe83884d	-0.25689927
190	0x3e557512	0.2084544
191	0xbf120455	-0.5703786
192	0x3d017900	0.031609535
193	0xbec60c45	-0.38681236
194	0xbeb4232a	-0.35183078
195	0x3d45e015	0.048309404
196	0xbc99d58d	-0.018778587
197	0xbef5046a	-0.4785493
198	0xbf22882a	-0.6348902
199	0xbe4fa6af	-0.20278428
200	0xbebfe486	-0.37479037
201	0x3d8e8ee6	0.069608495
202	0xbd839009	-0.06423957
203	0xbe61ab61	-0.22038032
204	0xbd3fb5ee	-0.04680436
205	0x3c39909f	0.011325984
206	0x3d4280ab	0.04748599
207	0x3dd4cc4e	0.103905305
208	0xbe78d2f6	-0.24299225
209	0xbf0066cf	-0.50156873
210	0xbec442a4	-0.38332093
211	0xbdb46b75	-0.08809558
212	0xbd0f767e	-0.035025112
213	0xbeb43fe1	-0.35204986
214	0xbe460fc7	-0.19341956
215	0xbe8841fe	-0.26612848
216	0x3b937320	0.004499808
217	0xbe061a82	-0.1309605
218	0xbed27cfb	-0.41110978
219	0xbdcba936	-0.09944384
220	0x3eb96ab5	0.36214224
221	0xbe6956f3	-0.22787075
222	0xbe91c0d9	-0.28467444
223	0x3d8498f8	0.06474489
224	0xbdddbe45	-0.10827307
225	0x3e1a627f	0.15076636
226	0xbf037d8c	-0.51363444
227	0x3e83d378	0.25747275
228	0x3eb9bda0	0.36277485
229	0x3de55da9	0.11199505
230	0xbee86763	-0.45391378
231	0x3eb9cb61	0.36287978
232	0xbedd16fc	-0.43181598
233	0x3e661821	0.22470142
234	0xbea04222	-0.31300455
235	0xbf1de099	-0.61670834
236	0xbda44653	-0.08021226
237	0xbe20c3f9	-0.15699758
238	0xbea38ad7	-0.31941864
239	0xbdf4ad1d	-0.11947081
240	0xbc4dcd25	-0.012561117
241	0xbbbdc96c	-0.0057918336
242	0xbe4a43a6	-0.19752368
243	0xbeb5e0b6	-0.35523003
244	0xbc9a9005	-0.018867502
245	0xbe745620	-0.23860979
246	0xbdf0b50d	-0.11753283
247	0xbec23be4	-0.37936318
248	0xbc63bb4f	-0.013899638
249	0x3ec150f0	0.37757063
250	0x3eacdc73	0.3376194
251	0x3f87e907	1.0617989
252	0xbd8c536a	-0.068518475
253	0x3f3a86af	0.7286176
254	0x3e6ad941	0.22934438
255	0x3e513afe	0.2043266

lstm.bias_ih_l1 f4 [32]
0	0xbf2d0a89	-0.675942
1	0xbcf8969a	-0.03034525
2	0xbf071d9a	-0.52779543
3	0x3e2dfa12	0.16989926
4	0xbe065501	-0.13118364
5	0xbeae3140	-0.3402195
6	0xbe6126df	-0.21987484
7	0x3e89f672	0.26945835
8	0xbf13b3ab	-0.57696027
9	0xbe87c4aa	-0.2651723
10	0xbf02ad0c	-0.510453
11	0xbe9c8a36	-0.30574197
12	0x3c38555b	0.011250819
13	0xbe902093	-0.28149852
14	0x3e84a216	0.25904912
15	0xbcf11441	-0.029428603
16	0xbe388728	-0.18020308
17	0x3e776cd3	0.24162607
18	0xbd822d4e	-0.063562974
19	0xbe9f34e5	-0.31095043
20	0xbd303cd7	-0.04302677
21	0x3e553e67	0.20824586
22	0x3ec0a8b2	0.37628704
23	0xbe5c6859	-0.2152418
24	0xbf557957	-0.83388275
25	0x3e623dae	0.22093841
26	0xbee9cc38	-0.4566362
27	0xbd8c017b	-0.0683622
28	0xbc57632e	-0.013146205
29	0x3deaa12b	0.114565216
30	0x3e9c6a85	0.30550018
31	0x3f137329	0.57597595

lstm.bias_hh_l1 f4 [32]
0	0xbf7ad2f0	-0.97978115
1	0xbe2fa1c8	-0.17151558
2	0xbf71d622	-0.94467366
3	0x3d28cc13	0.041210245
4	0x3e45c930	0.19315028
5	0xbe801098	-0.2501266
6	0x3ea23f96	0.31689137
7	0x3e85f8b7	0.26166317
8	0xbe7b3e57	-0.245355
9	0xbd891f5a	-0.06695433
10	0xbec458fb	-0.38349137
11	0xbeff4959	-0.49860647
12	0x3dcbd181	0.09952069
13	0xbe95b569	-0.29239967
14	0xbeb0f4a5	-0.3456165
15	0x3dac9c12	0.084282055
16	0x3d348155	0.044068653
17	0x3e2987bb	0.16555683
18	0xbd4c74a0	-0.04991591
19	0x3e7564a7	0.23964177
20	0xbd990a7f	-0.07472705
21	0x3cf175c0	0.029475093
22	0x3e3f0f17	0.186581
23	0x3d5cbb98	0.05388984
24	0xbf0a4bdf	-0.5402202
25	0x3e6fcf19	0.23418845
26	0xbf26b35e	-0.6511744
27	0xbdb5ed1f	-0.08883118
28	0xbedb4f1f	-0.42833802
29	0xbec1757f	-0.37784955
30	0xbeb5ff9d	-0.3554658
31	0x3e6b9c9d	0.23008962

fc.weight f4 [1, 8]
0	0x3b300cb7	0.0026863047
1	0xbe86c2cd	-0.26320496
2	0xbbbd40fe	-0.00577557
3	0xbe319128	-0.17340529
4	0xbdf30cf5	-0.11867706
5	0xbe004246	-0.12525281
6	0xbea71546	-0.32633418
7	0xbe804ba3	-0.25057706
