models/Kannur_model.pth (torch, 6135 bytes, 9 tensors)

lstm.weight_ih_l0 f4 [32, 1]
000000 26 1a 2c bf bb 33 23 c0 bd 8f 92 bf 6e b9 c6 bf
       -0.672274 -2.5500324 -1.1450115 -1.5525339
000010 ee b5 0e bf d8 86 a1 be a4 76 2d 3f 7b 3d 8a bd
       -0.5574635 -0.3154819 0.67759156 -0.06750008
000020 30 2a 40 3e 98 79 af bf 08 61 a7 be a8 3f e3 be
       0.18766093 -1.3708982 -0.32691216 -0.44384503
000030 3e fd d8 be d3 a2 2d 3f fe bd 67 3f 6e 13 ff be
       -0.42380708 0.67826575 0.9052428 -0.4981951
000040 44 a9 b9 bf e0 59 c2 bf e7 df b4 3f 3a 05 ef bf
       -1.4504781 -1.5183678 1.413083 -1.867347
000050 9f 90 b7 be eb 4a ca 3f e2 75 b8 3f 00 8c 49 bf
       -0.35852525 1.5804113 1.4410975 -0.7872925
000060 0d db 26 3f 7f aa 0c c0 63 8d 0b bf 0c d3 93 bf
       0.65177995 -2.1979063 -0.54512614 -1.1548781
000070 9a 49 7b bf d1 63 e0 3e 26 65 41 3f c5 1f 1d bf
       -0.9815918 0.43826154 0.75544965 -0.613766

lstm.weight_hh_l0 f4 [32, 8]
000000 ba 7d 16 be 04 ba bd 3e fa 8e 84 bf 8b ab 64 3d
       -0.14696398 0.3705598 -1.0356133 0.05582766
000010 87 d4 ec 3e 64 60 77 be 74 86 55 be ca 73 06 3f
       0.46255895 -0.24157864 -0.20852071 0.5252043
000020 a7 02 c9 3c 6a 62 46 3e 59 e2 01 be 09 30 e6 be
       0.024537398 0.1937348 -0.12684001 -0.44958523
000030 fa b0 a1 3e 8d 6a 48 3c 8d 15 e8 bb 0d f2 c3 3d
       0.31580335 0.012232435 -0.007082647 0.09567652
000040 3b 61 73 bf 63 75 b3 3e aa f2 16 bd cb 09 de 3f
       -0.95070237 0.35050496 -0.036852516 1.7346739
000050 47 a3 d7 3f aa 35 57 3f c1 80 90 3f 49 6b aa bf
       1.6846703 0.8406626 1.1289293 -1.3313991
000060 2f 10 68 bf 19 a0 71 3f 8f 73 73 3f de 20 e6 bd
       -0.90649694 0.94384915 0.95098203 -0.11236738
000070 40 88 60 bd 11 99 78 3f 1e 2e 9d 3f a2 4a ab 3c
       -0.054817438 0.9710856 1.2279699 0.020909611
000080 d9 01 ef bd ac f5 0b 3e 1c 50 6f 3e 12 74 55 be
       -0.11670274 0.13667935 0.23370403 -0.20845059
000090 f1 bc ff ba 02 af 24 bd 70 bc 33 3e 1c f0 0d 3e
       -0.0019511265 -0.040205963 0.17552352 0.13861126
0000a0 d2 fb d6 be f4 8b 7d 3b 05 cb 56 bf 0d ae dc 3d
       -0.41989 0.0038688155 -0.83903533 0.10775385
0000b0 6c cf 07 3e 77 1b 31 3e be 96 d0 3e 7f b5 a3 be
       0.13262719 0.17295633 0.40740007 -0.31974408
0000c0 e3 50 bc be 8b ee 6b be a6 75 11 bf ab 4a 67 be
       -0.36780462 -0.23040216 -0.5682014 -0.22587077
0000d0 e2 48 32 3e 2d 33 45 3d 4f 90 10 be ce 1f 49 be
       0.17410615 0.04814451 -0.1411755 -0.19641039
0000e0 df 1e 0a bf 1b f3 59 be a4 90 d3 be c7 f4 cc bd
       -0.53953356 -0.21284144 -0.4132129 -0.10007625
0000f0 bb 3e 19 3e 86 19 82 be 72 00 df bc 3e 46 c2 3d
       0.14965336 -0.25410098 -0.027221892 0.09486054
000100 31 12 03 3e 99 31 81 3e c2 ac 99 bf 68 6c df 3e
       0.12799908 0.25233153 -1.2005847 0.43637395
000110 a0 a5 6b be b5 eb eb bd d2 d4 3a be ba a7 97 3e
       -0.230124 -0.11519567 -0.18245247 0.29620153
000120 37 40 e9 3b 19 67 33 be a2 d3 1a bf 83 58 4c bd
       0.0071182507 -0.17519797 -0.60479176 -0.0498891
000130 57 4c 0a 3e ea 0c 66 3e ee e9 60 3e db 63 35 3e
       0.13505684 0.22465864 0.21964237 0.17713873
000140 2f f1 0e 3e 7f a4 3f 3f 23 4a 78 bf a5 80 ad bd
       0.13959192 0.74860376 -0.96988124 -0.084718026
000150 15 a8 74 3e 49 f0 4a 3c 00 0a b9 be 78 25 c5 3d
       0.23892243 0.01238639 -0.36140442 0.09626287
000160 a7 6d 50 bd 11 97 a6 3c d4 03 89 3e 03 70 a5 3d
       -0.050885823 0.020335706 0.26760733 0.08078005
000170 e5 0c 69 3e 3a 42 ee bc b7 5a 50 be f7 62 1b bf
       0.22758825 -0.029084314 -0.20347105 -0.60697883
000180 65 81 85 be fd e0 7e 3a 8a 5b 9e 3e 0f 82 27 be
       -0.26075283 0.0009722857 0.30929214 -0.16358207
000190 f6 7c 5f be 5c fd 6a bd 0e 61 64 be 10 06 26 3e
       -0.21825013 -0.05737053 -0.22302648 0.1621325
0001a0 f2 ff db 3e 4b 02 9e 3e 98 d6 79 bf 9c 10 a5 3e
       0.42968708 0.30861124 -0.9759307 0.32239234
0001b0 cc 01 28 3b 44 0b 65 3e a3 3a 15 3d e7 71 4f 3d
       0.0025635837 0.22367579 0.036432873 0.050645735
0001c0 24 a3 55 be 7b 76 be bd 40 6d e7 be b2 ba c1 bd
       -0.20863014 -0.09299942 -0.4520054 -0.094594374
0001d0 d7 bc 33 bd ad 5e c2 bc f3 b8 61 3e 9b 8d 77 3e
       -0.043881264 -0.023726786 0.22043209 0.24175112
0001e0 d2 38 dd be fa 5f db 3e 50 0b a7 bb a0 61 33 3e
       -0.43207413 0.42846662 -0.005097784 0.1751771
0001f0 93 eb 1f 3f ca b5 04 3e 43 76 03 3e 99 76 89 3e
       0.6246883 0.12959972 0.12838082 0.26848295
000200 cb bb de 3d d0 cb ab bd e7 48 9b bc 8b be 1a be
       0.108756624 -0.083884835 -0.018955661 -0.15111749
000210 16 38 0a be 71 9b 78 be 7b f5 45 be 8a 88 0b be
       -0.13497958 -0.24278046 -0.19331925 -0.13626304
000220 52 62 51 3e 06 9d c4 3d 5d 93 31 3e 3f 68 08 3e
       0.20447662 0.09600262 0.17341371 0.13321017
000230 af 18 1a 3e 06 aa 8e 3d 68 53 ae bd 02 27 12 be
       0.15048479 0.06966023 -0.08512002 -0.14272693
000240 b0 44 bc bd f0 f8 c1 be ad 88 b2 3d 08 1d 6c bd
       -0.091927886 -0.37885237 0.08717475 -0.057644874
000250 82 9b e3 3d 66 d0 fd 3d fc 6e ab bd c8 9c 90 be
       0.11113645 0.123932645 -0.08370778 -0.28244615
000260 0d 47 8c be 9b 09 98 be 98 9a 7f 3f 78 6b 21 3e
       -0.27397957 -0.29694828 0.99845266 0.15763652
000270 01 da ae 3e 7c a6 b3 3e cf d0 89 3e e2 e0 2f be
       0.341507 0.35087955 0.2691712 -0.1717563
000280 1d 7a e3 be fb 4a 19 bf ec 8e 9f 3f 5e cc 12 be
       -0.44429103 -0.59880036 1.2465491 -0.14335772
000290 35 d3 bc 3e ca 0c 12 bd 92 c4 91 3e b5 4c 54 bf
       0.36879888 -0.035656728 0.28470284 -0.82929546
0002a0 0d 10 91 3e d3 78 a3 be e8 99 0c be 82 05 40 3e
       0.28332558 -0.3192812 -0.13730586 0.18752101
0002b0 c6 04 65 3e aa e9 06 3e 4f f5 8b 3e e7 5b 77 be
       0.22365102 0.13175073 0.27335593 -0.24156152
0002c0 e6 ed 05 be 5d f0 18 be 93 72 f2 3e 4e 7f 1d 3d
       -0.13079032 -0.14935441 0.47353038 0.038451485
0002d0 e9 d6 4b be 37 98 b3 bd 92 92 79 3e 7e 26 08 bf
       -0.199062 -0.08769267 0.24372318 -0.53183734
0002e0 1b e5 0a bd cc ac 76 3e 03 ca 07 bf ea 83 3d 3e
       -0.0339099 0.24089354 -0.5304262 0.18507352
0002f0 0a 20 87 3e 2b 3d d2 be 64 87 de be 4c 02 f5 3e
       0.2639163 -0.41062292 -0.4346267 0.47853315
000300 06 7a 7d be 67 f7 77 bd 49 92 14 bf df 3b de bd
       -0.2475358 -0.060538676 -0.58035713 -0.10851263
000310 68 85 05 3f 21 5e d1 3e 07 ab 00 3e 8f 2c 7f 3e
       0.52156687 0.40892127 0.12565242 0.24919342
000320 02 04 dc 3e 3d 80 95 be 4d 2f f3 bd be 55 a3 be
       0.42971808 -0.291994 -0.11874256 -0.31901354
000330 c6 4f 45 3d 2a 57 8e be 3d d5 57 3d 62 eb 73 3e
       0.04817178 -0.27800876 0.052693594 0.2382026
000340 78 5f 42 3d 55 5f 73 3f aa e4 38 bf ee 6c 01 40
       0.047454327 0.9506734 -0.72223914 2.0222735
000350 46 2c b6 3f 29 e5 24 3d 7a 97 04 3f 06 1f 70 bf
       1.4232261 0.040257607 0.51793635 -0.9379734
000360 68 2d 8e bf c0 9e 4c 3f 3f 55 ae 3d f6 6a f6 3d
       -1.1107607 0.79929733 0.08512353 0.1203212
000370 26 5d 0f 3f da a0 35 3f be 8d 73 3f f6 3d 1a bf
       0.5600151 0.70948565 0.95138156 -0.60250795
000380 4a 17 ef bc 3c c1 4d 3e b6 01 fe be a8 33 08 bf
       -0.02918591 0.20093244 -0.4961068 -0.5320382
000390 0f b3 10 bf db bb c6 bc bc 70 55 be 84 c1 36 3f
       -0.5652322 -0.024259498 -0.20843786 0.7138903
0003a0 01 20 a2 3e a8 c8 87 3e b2 7b 0c bf f1 09 4a 3e
       0.31665042 0.26520276 -0.54876244 0.19730355
0003b0 ff 47 74 3e f5 2c 93 be b2 00 b4 be 26 29 9e bc
       0.2385559 -0.28745237 -0.3515678 -0.01930673
0003c0 fd 6c c7 bd 5a 8d 6f 3e 84 75 77 be 4c 7f 41 be
       -0.09737585 0.23393765 -0.24165922 -0.18896216
0003d0 86 bd 9c 3d 28 36 0e be 6f a5 0a be 8d 7c bc 3e
       0.07653336 -0.13887846 -0.1353967 0.36813775
0003e0 4d 2c df 3d ba 0c e7 3c 45 e0 1b bf 17 fb 2a 3d
       0.108971216 0.02820431 -0.60889083 0.041743364
0003f0 e2 d4 df be 6e 04 05 be ff b4 9b 3d e2 9a f2 3d
       -0.43717104 -0.12989971 0.07602882 0.11845948

lstm.bias_ih_l0 f4 [32]
000000 c5 a6 b0 3d 9a 80 9f be 2d b3 65 3f e2 c8 5b 3f
       0.08625559 -0.31152803 0.89726526 0.858534
000010 06 fe 0e be 1f cb 13 3d 3d a1 cf 3c c5 17 22 3e
       -0.1396409 0.036082383 0.02534544 0.1582938
000020 9b 79 19 be 58 37 8e be 19 d2 f9 3e 48 a4 b9 be
       -0.14987795 -0.277766 0.48793104 -0.3625815
000030 93 1e e4 3d 68 fb 3f be 03 8f 01 3b 39 10 14 be
       0.11138644 -0.18748248 0.001976908 -0.14459313
000040 6a 0f 05 3d bf c7 82 3b c6 c8 a5 3e 6e 6d 3f be
       0.032485403 0.0039910967 0.3237974 -0.18694088
000050 5c 80 ce 3d b0 7c 9f 3e e6 e0 e4 3c 56 11 1c 3d
       0.10083076 0.31149817 0.027939271 0.03810247
000060 7c b8 f5 3e 87 7e 8b 3e d1 8d 7f 3f a9 72 32 3f
       0.47992313 0.2724497 0.9982577 0.6970621
000070 8b b7 84 3e 86 af 99 3e 60 be f1 3d ba 78 67 3e
       0.25921282 0.30016726 0.11803889 0.22604647

lstm.bias_hh_l0 f4 [32]
000000 a4 20 fa 3e bd 24 5d be ba bb f0 3e 41 55 4d 3f
       0.48853028 -0.21596046 0.47018224 0.8020821
000010 99 f6 a1 3c 68 1b d2 3e 89 8b f2 3d e2 bb 77 be
       0.019770907 0.41036534 0.118430205 -0.24192765
000020 7f e2 be 3e 9d ac 84 3e be 7e 47 bd 99 d4 b7 be
       0.37282178 0.25912943 -0.048704855 -0.35904387
000030 85 04 9b 3e f6 63 66 be 48 e1 8d be ab 69 4f be
       0.30276886 -0.2249907 -0.27710938 -0.20255153
000040 7d 05 db 3b 56 f5 40 3e aa 11 98 be f6 f6 5a 3e
       0.006684004 0.18843588 -0.29700977 0.2138327
000050 ae 7a 3e bd 46 bd 77 be d1 78 a1 3d 30 10 41 3d
       -0.046503715 -0.24193296 0.07884372 0.04713458
000060 ab f8 ab bd e6 cd 94 bc c1 48 00 3f a6 f5 73 3f
       -0.08397039 -0.018164586 0.50111014 0.95296705
000070 60 0d ee 3d 69 dd 87 3e ed b9 33 3e 98 83 2c bd
       0.11623645 0.2653611 0.17551394 -0.042117685

lstm.weight_ih_l1 f4 [32, 8]
000000 66 a3 fe 3e a5 ad 94 bb 17 06 98 be 5c 35 0e 3e
       0.49734038 -0.0045373016 -0.29692146 0.13887542
000010 14 94 46 be ba d1 48 be 8a 80 58 3e ea 2a c8 be
       -0.19392425 -0.19611254 0.21142784 -0.3909524
000020 20 7c 6c 3e e2 dd 94 be 70 5b cc be 54 50 e2 bd
       0.23094225 -0.29075533 -0.3991351 -0.110504776
000030 ff 0d e3 be e4 69 83 be 06 e2 21 be f1 7c 4a 3d
       -0.44346616 -0.25666726 -0.15808877 0.04943556
000040 ef 34 a5 3d 30 69 49 bf c8 c5 ca be 18 38 61 be
       0.08066737 -0.7867613 -0.3960402 -0.21994054
000050 c5 45 30 bf 52 a4 98 be 85 c1 95 be 4a 3d bd 3e
       -0.6885646 -0.29812866 -0.29249206 0.36960822
000060 9b 51 b9 be 10 98 61 3f fc 2b 96 3e 92 0f 19 3f
       -0.36195073 0.88122654 0.29330432 0.59789383
000070 60 f0 b7 3e fe b1 19 3f d9 44 fd 3e 29 65 1c be
       0.3592558 0.6003722 0.4946659 -0.15272965
000080 60 13 48 be ea 06 15 bf f8 41 83 3e 21 b2 8e bf
       -0.19538641 -0.58213675 0.25636268 -1.1148111
000090 86 41 51 bf f2 03 5d be 70 da 08 3e 91 94 0c 3f
       -0.81740606 -0.21583536 0.13364577 0.54914194
0000a0 63 40 85 3e e9 78 a1 3f d1 ab 9f bf c2 68 17 40
       0.26025686 1.2615024 -1.2474309 2.365769
0000b0 04 be 8d 3f 9c 9e 93 3d c0 bc ae 3e e2 6c 10 bd
       1.1073613 0.07207987 0.3412838 -0.03526009
0000c0 fd 8e 3d be 4e d6 60 3f 00 9a 48 bf bb c0 c1 3f
       -0.18511577 0.87827003 -0.78359985 1.5136942
0000d0 5b 75 4f 3d f0 fc a2 3c b3 1c 39 be 34 55 6c 3f
       0.05064903 0.019896 -0.18077354 0.9231751
0000e0 e9 41 5b be d3 a0 08 3e 22 16 19 3f 45 64 75 3e
       -0.21411861 0.133426 0.59799397 0.23964031
0000f0 2e 7b 64 3e bb ce 3c 3c 34 8a 98 bd a7 84 f1 be
       0.22312614 0.011523898 -0.07448235 -0.47171518
000100 c8 07 77 3c 33 a3 a3 bd 6e 2a c2 be a1 d0 bd be
       0.015077539 -0.07990112 -0.37922996 -0.37073234
000110 98 25 17 3e ed c1 f1 bc 2c 40 13 3b d8 05 a1 be
       0.14760435 -0.029511416 0.002246867 -0.3144977
000120 6f 65 0f 3f 57 b6 0b bd cc 64 8d be fa 11 e8 be
       0.5601415 -0.03410944 -0.27615964 -0.45326215
000130 9c f3 93 be a2 c8 9d bd 14 b5 f0 be 76 5b 09 be
       -0.28896797 -0.07704283 -0.47013152 -0.13413796
000140 4a 1a 90 3e 4d 37 b5 be 4c 39 53 be 61 a8 15 3e
       0.28145057 -0.35393754 -0.20627326 0.14615013
000150 83 1b 08 3c a5 e4 00 bf c8 b9 43 be fb 3b bf 3e
       0.008307341 -0.50348884 -0.19113839 0.3735045
000160 41 96 18 3f 6e a1 7e 3e 33 f5 33 bf fb c9 ba bc
       0.5960427 0.24866268 -0.7029602 -0.02280139
000170 9a 68 d0 be 13 67 e0 be d5 fc 47 bf 93 c8 07 3f
       -0.40704805 -0.4382864 -0.78120166 0.53040427
000180 b6 e3 8e 3e bd a7 61 be b2 24 c3 be e9 ad 05 bf
       0.27908105 -0.22036643 -0.38113934 -0.5221849
000190 49 72 50 bf 96 cc 44 bf b6 f7 12 bf ae f1 ec 3d
       -0.81424385 -0.76874673 -0.57409227 0.11569534
0001a0 2d f8 2d 3f 26 b6 a1 3c 3e e3 b0 bf f6 d3 14 be
       0.6795681 0.019740175 -1.3819349 -0.14533982
0001b0 9a 9d 58 3e 43 a9 ac be a5 52 36 bf f9 1b 80 bd
       0.2115387 -0.33722886 -0.71219856 -0.06255335
0001c0 ea 76 0e 3f f6 90 bf be ce 25 92 be d2 7b de be
       0.556502 -0.37415284 -0.28544468 -0.43453842
0001d0 f2 54 7c bf 78 e3 5c bf 29 9b 4b bf 11 76 35 3f
       -0.98567116 -0.8628459 -0.7953363 0.7088328
0001e0 a3 30 ef 3d 5e 46 4b 3c 2d 40 d9 3e d8 32 e9 bd
       0.116791986 0.012406914 0.42431775 -0.11386651
0001f0 a7 5c b7 be c3 68 7b be a9 f8 10 be 79 50 d1 bd
       -0.35812876 -0.24551682 -0.14157356 -0.10220427
000200 bb e8 d0 3e 8d 8e 3a 3e 93 08 ac be 84 90 89 3d
       0.4080256 0.18218441 -0.33600292 0.06717017
000210 91 69 74 3e bf e2 10 be 4d 58 8d 3e cd 72 c5 be
       0.23868395 -0.14148997 0.2760643 -0.3856415
000220 3b 1b 0a bf 66 61 00 3e 1c 3c b7 3e 1f d6 d4 3e
       -0.539478 0.12537155 0.35788047 0.4156961
000230 3b 4f d8 3e e6 42 a9 3e ff 52 4a be 83 15 e3 3e
       0.42247948 0.33058852 -0.19758223 0.4435235
000240 37 f3 76 bd d2 77 e6 3e 99 92 74 be d6 76 ed bd
       -0.06029054 0.4501329 -0.23884048 -0.11594932
000250 cf db 2b bd b1 fa bb 3e aa b0 30 bd 46 59 2d be
       -0.041957673 0.367147 -0.04313723 -0.16928586
000260 33 19 d5 be d2 01 24 be e1 b4 26 be 10 e0 89 3e
       -0.41620788 -0.1601632 -0.16279937 0.2692876
000270 03 a7 b3 be 76 a4 88 be fa 0b ec bd 46 e6 3e 3e
       -0.35088357 -0.26687974 -0.11525722 0.1864253
000280 12 58 11 3d 78 be 26 bd 71 6e 91 3d 2a 72 b1 be
       0.03548438 -0.04070899 0.07101143 -0.34657413
000290 e6 e3 35 be a1 e6 ee bd f9 f3 a3 3e da da 75 3c
       -0.17762718 -0.11665083 0.32022074 0.015005792
0002a0 89 27 fc 3e 72 fb b0 3e b6 a9 1f bf ce 22 07 3f
       0.49248913 0.34566838 -0.62368333 0.5278748
0002b0 e1 13 4e 3e 96 88 f3 be 5c 2f 90 be e4 08 61 3d
       0.2012477 -0.47565144 -0.28161132 0.05494012
0002c0 71 32 3c 3e 8a 98 bc be dd f2 54 be 72 82 1d 3e
       0.18378617 -0.36835128 -0.2079577 0.15381792
0002d0 0e 59 44 3e 12 01 4c be ac 16 df ba 79 c2 11 be
       0.19174597 -0.19922283 -0.0017020307 -0.14234342
0002e0 54 e9 99 3c 49 e1 6d 3e 8c b1 5a bd 48 8c e7 bd
       0.018788017 0.2323047 -0.05339198 -0.113060534
0002f0 a9 eb fd 3d 96 85 5a be 68 34 8a bd 5b 50 9e 3d
       0.12398464 -0.21340021 -0.06748277 0.0773017
000300 92 88 05 3f 89 07 86 be df e5 04 bf 33 ba 4f be
       0.52161515 -0.26177624 -0.51913255 -0.20285873
000310 fa 5b c1 be 88 1d 27 bc 61 83 ff bd e0 d1 b4 bd
       -0.37765485 -0.010199912 -0.124762304 -0.08829093
000320 4a d5 3a bd 40 d7 73 3e 44 a1 06 bf 62 f5 e5 3c
       -0.045613565 0.2381258 -0.5258982 0.02807111
000330 0b 3b f5 be e6 50 88 be dc 12 fd bd b2 b1 16 be
       -0.4789661 -0.2662422 -0.12357113 -0.14716223
000340 bb 17 97 3e 7f 31 2f be 11 e1 2e bc 54 5c 0d bf
       0.29510292 -0.17108725 -0.010673777 -0.55219007
000350 c0 8c 5d be f8 8a 0e bf 00 95 9d be c7 fa 51 3e
       -0.21635723 -0.556808 -0.3077774 0.2050582
000360 4d 85 ae bd fe 03 8c 3e 3b 71 16 be ef 7e d4 3e
       -0.08521519 0.27346796 -0.14691631 0.41503093
000370 d9 af f3 3e a5 26 f2 bc 80 ab 4f 3d d8 72 9f 3d
       0.475951 -0.029559443 0.050700665 0.077855766
000380 d0 e5 67 be a1 57 0b bf cc 27 ee 3e ce f5 c3 be
       -0.2264626 -0.54430586 0.46514738 -0.38273472
000390 87 04 b1 be 17 ac af be 35 4e 90 bd 6d 31 07 3f
       -0.34573767 -0.34310982 -0.07046167 0.5280979
0003a0 49 71 50 3e 7a da 5b 3f ae 62 62 bf 47 29 dd 3f
       0.20355715 0.85880244 -0.88431823 1.7278222
0003b0 7a 3f 6b 3f 5e 43 a3 3e ed 9b a0 bd 6b 42 45 3e
       0.9189373 0.31887335 -0.078422405 0.19263618
0003c0 39 4c 7a be 0f 7e db 3e 58 0b a5 3e bf 82 ab 3f
       -0.24443139 0.42869613 0.32235217 1.3399276
0003d0 ea 37 ad 3e 10 03 ca 3e 44 38 38 3d 53 97 8b 3f
       0.33831722 0.39455462 0.044975534 1.0905555
0003e0 0a 1f fe 3d 68 90 89 be 06 c4 bc bc 98 64 bc 3d
       0.12408264 -0.26867986 -0.02304269 0.09198874
0003f0 f3 fe 45 bd 3b b2 c2 bd 0d 72 15 3d f1 39 41 bf
       -0.04833884 -0.09506651 0.03648572 -0.75479037

lstm.weight_hh_l1 f4 [32, 8]
000000 10 8a 56 3e ff cc fa bd 18 5c dc 3c df ed 3c bd
       0.20951104 -0.12246131 0.026899382 -0.04612529
000010 a1 61 ba bd de cf 81 be 0d 60 51 3e f9 7a 28 be
       -0.091006525 -0.25353903 0.20446797 -0.1645316
000020 ed c6 81 be 14 e0 1a 3e 83 34 52 3e c8 13 00 bf
       -0.2534708 0.15124542 0.20527844 -0.50030184
000030 cc 6a 82 3e 36 52 23 be ca e2 b4 be c1 47 72 3d
       0.25472105 -0.1594933 -0.35329276 0.05915046
000040 88 6d 07 bf b9 a6 13 3e 9b 2a be 3e b9 b3 18 3d
       -0.52901506 0.14419068 0.3714188 0.037280772
000050 a3 79 fc 3c f7 be d8 3e 28 2b ec bd 98 45 d2 bd
       0.03081972 0.42333195 -0.11531669 -0.1026718
000060 0a dc 5d 3e 9a 67 19 be 69 05 b3 be a9 66 57 be
       0.2166597 -0.14980927 -0.34965065 -0.21035255
000070 fa 96 9d bd 55 5c 8e bf 21 6a d7 be a4 35 04 bf
       -0.07694812 -1.1121927 -0.42073157 -0.5164435
000080 0b 28 d6 bd de 44 63 be 1b 6e f5 3c 3b 9f 86 bd
       -0.10456856 -0.2219424 0.029959729 -0.065733396
000090 84 ab dd 3e 5e 03 12 be 4e 0f a8 3c 73 99 87 be
       0.4329492 -0.14259097 0.02051511 -0.2648426
0000a0 14 21 0c 3f 26 ce 24 bf 61 31 cb 3e b1 e5 ea 3f
       0.54737973 -0.6437706 0.3968611 1.8351346
0000b0 4b 75 02 bf 03 37 ae 3f bc 18 a1 3e 1c cd 9a 3f
       -0.50960225 1.3610538 0.31464183 1.2093844
0000c0 f8 f3 91 3d b5 38 84 be 24 a5 37 3d 45 12 87 3f
       0.071266115 -0.25824514 0.044835225 1.055245
0000d0 f2 a9 fd be b3 e5 8a 3f bb 66 35 3f 40 53 a8 be
       -0.4954372 1.0851349 0.7085988 -0.32876015
0000e0 93 13 af 3d bd 6b 98 bd b7 47 5d 3e ce 14 d8 be
       0.08548655 -0.074424244 0.21609388 -0.42203373
0000f0 b4 cc d1 be ba 3f 77 bf 75 90 08 be 95 4d 93 be
       -0.4097649 -0.96581614 -0.13336356 -0.28770128
000100 be 14 6f be 02 bf 49 3c c2 a6 f2 be 70 b1 b7 be
       -0.23347756 0.012313606 -0.4739285 -0.35877562
000110 94 a6 f5 be ed b6 cc bd 22 76 eb 3e 5b 0d 71 3d
       -0.47978652 -0.09995828 0.45988566 0.058850627
000120 29 63 e2 be 8d 73 2e bd fd 7d 3c be 9e e5 06 bf
       -0.44216278 -0.042590667 -0.18407436 -0.5269412
000130 c2 54 b1 be ef d9 99 be 87 dc b7 be 3d 20 97 3d
       -0.34634978 -0.30049083 -0.35910437 0.07379196
000140 28 63 c3 be 7e 98 86 3e 8f 55 bf bc 9a 19 40 be
       -0.38161588 0.26288217 -0.023356227 -0.18759766
000150 3a 5f 98 bc d1 1b e5 3e 1d 4b 06 3f f9 7b 5a be
       -0.018600095 0.44747785 0.52458364 -0.21336354
000160 a3 cc b0 be 54 a1 f5 3e e7 31 87 3e c7 24 18 bf
       -0.34531125 0.47974646 0.2640526 -0.5943112
000170 dc 6c 01 3f 07 be 5e be 41 e4 17 3f cf 6f 17 bf
       0.5055673 -0.21752177 0.5933266 -0.5915498
000180 30 42 b7 be 91 17 e1 3e 67 09 e0 3c 4f c7 33 be
       -0.35792685 0.43963292 0.027348233 -0.17556499
000190 fc c7 b3 3e 44 e2 1a 3f 17 55 d7 bb 3b 67 f1 be
       0.35113513 0.60501504 -0.006571423 -0.4714907
0001a0 bb 1a 8f bc 32 a5 de 3c b1 a0 dd 3e 0e c8 6b bd
       -0.0174688 0.02717838 0.4328666 -0.057563834
0001b0 3e fb b7 bc 6f 88 b3 3f 21 ec a1 3f e6 c1 c8 3d
       -0.022458669 1.4026011 1.2650186 0.09802608
0001c0 fb 62 47 bf f2 06 43 3f 57 e6 d4 3e 0b 06 c6 bd
       -0.7788541 0.7618247 0.41581985 -0.09669121
0001d0 99 b4 de bd 66 fe 70 3f ab b7 b3 3e 93 41 af 3d
       -0.1087429 0.9413818 0.35101065 0.08557429
0001e0 02 d9 08 bf 3d e5 06 3f 89 89 0c be 6f b1 80 be
       -0.5345613 0.5269354 -0.1372434 -0.2513537
0001f0 56 87 aa 3e 0d cf 1a bf a2 40 04 be f3 97 4c bf
       0.33306378 -0.60472184 -0.1291528 -0.79919356
000200 c3 58 a7 3d a2 e3 f5 3d d7 2a 8d be bf 62 e9 be
       0.08171227 0.12006308 -0.27571747 -0.4558315
000210 5c 7d a1 bd c8 c9 c4 be da c7 99 3e 8f a1 0c be
       -0.078852385 -0.38435197 0.30035287 -0.13733505
000220 a9 39 5c bd d9 3f b9 be 35 53 8c 3e c0 d5 32 3e
       -0.053765927 -0.36181524 0.27407232 0.17464352
000230 d7 4a b7 3d 4b aa ee 3e 3e b2 24 3e f0 d3 46 be
       0.089498214 0.46614298 0.16083619 -0.19416785
000240 1b d8 7f 3d 87 1e e8 3d 2a a2 b2 bc 85 54 36 3e
       0.062461954 0.11333948 -0.021805841 0.17805679
000250 e3 52 48 3b 9a 75 09 bf 5f b4 49 be 72 48 f3 3d
       0.0030566982 -0.5369507 -0.19697712 0.11879052
000260 8b bd 03 3e ea e9 27 3d a4 bb 37 be 34 ea 42 be
       0.12865274 0.040994562 -0.17942673 -0.19034654
000270 31 b2 1b 3f 87 01 86 bf bc 15 f5 be 67 bf bf bd
       0.60818774 -1.0469216 -0.47868145 -0.09362679
000280 73 30 83 be 8a f0 9e 3d 47 ab 43 bd c0 a6 a2 3d
       -0.256229 0.07760723 -0.047770765 0.07941961
000290 d2 41 c9 be 6d 13 96 3e ed c5 24 bf 98 03 09 be
       -0.3930803 0.29311696 -0.6436451 -0.13380277
0002a0 84 0f 9c 3c 90 d5 19 3e 16 34 93 be 99 0a d7 3d
       0.019050367 0.15022874 -0.28750676 0.10500068
0002b0 6a b4 80 be 7c 5c 30 bf 6f 88 70 be cf 2c 41 3c
       -0.25137645 -0.6889112 -0.23489545 0.011790468
0002c0 99 8f 58 3d 51 c2 a2 be 9f 24 c0 3e f3 cf 6d 3f
       0.05287132 -0.31788877 0.3752794 0.9289543
0002d0 e3 e1 ab 3e b3 22 af 3e 15 51 09 bf 98 f4 33 3f
       0.33570775 0.3420616 -0.53639346 0.70295095
0002e0 f5 05 f9 be a7 a5 ec 3e f0 47 d4 3e d3 d9 23 bf
       -0.48637357 0.46220133 0.41461134 -0.6400425
0002f0 24 56 e6 3e 4f 75 34 bf f7 d3 93 be 50 8a 17 bf
       0.44987595 -0.704915 -0.28872654 -0.59195423
000300 d0 2d 2c be 7c 44 f7 3e ea e0 81 3e 0b 2d 92 3d
       -0.16814351 0.48294437 0.25366908 0.071374975
000310 ed e1 2a bd b1 b3 12 bf af 4b 45 3b e0 9b 8a bd
       -0.041719366 -0.5730544 0.0030104925 -0.06768012
000320 19 97 f8 bd f5 a8 dd 3c 11 db 54 bc 53 79 de be
       -0.121381946 0.027058104 -0.012991683 -0.43451938
000330 59 08 7a 3e 8d 25 dd 3d ee 71 d1 bd 82 4a 8d 3e
       0.24417247 0.10798178 -0.102268085 0.27595907
000340 dc 2c 96 be 75 3a 08 3f 12 c9 00 3e 25 4d ed bd
       -0.293311 0.532142 0.12576702 -0.1158698
000350 b8 16 a3 3e 0c a4 ae be 4c de bb 3e f8 02 ea be
       0.3185327 -0.34109533 0.36693037 -0.4570539
000360 df 71 13 3f 2e 1c 32 3e 8a 02 68 be ad c6 53 bf
       0.5759563 0.17393562 -0.22657219 -0.8272503
000370 4c 03 2e 3e bc b7 b1 bf 0b f4 32 bf 46 e8 1e bf
       0.16993445 -1.3884196 -0.6990363 -0.6207317
000380 63 fb 51 be 1a 95 43 3e db 68 4f be 4e 9b b8 3d
       -0.20506053 0.19099846 -0.20254843 0.09013997
000390 16 c8 de 3e 1f c5 5c bd 56 2b a1 3e 4c 34 c1 bc
       0.43512028 -0.053898927 0.31478375 -0.023584507
0003a0 d6 39 66 3f f9 ee 74 bf 1f 66 2d 3e fc b7 98 3f
       0.89932 -0.95677143 0.16933487 1.1931148
0003b0 a2 06 20 bf ca 93 98 3f 12 ad a6 3e e4 56 a6 3f
       -0.6251012 1.1920102 0.32553917 1.2995267
0003c0 b1 05 c1 3c fb 6e 1a be 05 01 47 be 37 b1 86 3f
       0.023562284 -0.15081398 -0.19433983 1.0522832
0003d0 4c b0 40 bd 53 bf 97 3e 47 c5 dc 3e be f9 69 be
       -0.04704313 0.29638156 0.4311926 -0.22849175
0003e0 4e e1 ac be d6 21 54 3e 1c 73 50 3e bc 35 aa be
       -0.33765644 0.20716032 0.2035641 -0.3324412
0003f0 83 12 f2 bd 68 fb 55 bf 6d 1e cc be 77 37 24 be
       -0.11819937 -0.8358674 -0.39866963 -0.16036783

lstm.bias_ih_l1 f4 [32]
000000 d6 35 e6 bd 67 ea f4 bd fe af 54 bf 8d a6 01 3f
       -0.11240737 -0.11958771 -0.8308104 0.5064476
000010 2c 4a 19 bf ea 3b e9 3e fa 30 6b be 8b 5f 01 be
       -0.598788 0.45553523 -0.22967902 -0.12634103
000020 cc ba ce bc 39 2c f2 be 46 bd 38 bd 1d 16 68 bd
       -0.025235556 -0.47299364 -0.04510238 -0.056661714
000030 75 be 1c bf 00 2e 99 be 44 0d 8e bf 6b 8d 15 bf
       -0.61228114 -0.29917908 -1.1097798 -0.5841891
000040 13 8a 96 3e 29 2c 2a be 35 24 49 be 27 81 41 3e
       0.29402217 -0.16618408 -0.19642718 0.18896924
000050 57 10 9c 3e f2 1a 66 be de 3e 62 be 27 92 00 3d
       0.30481216 -0.22471216 -0.22094294 0.03138938
000060 79 7f a4 be fa 07 ea 3d a9 df 3f bf ad da d3 3e
       -0.32128504 0.11427303 -0.74950653 0.41377774
000070 98 9b 0a bf b5 b7 02 3f 87 ae 00 3d 0f 65 68 be
       -0.5414367 0.51061565 0.031416442 -0.22694801

lstm.bias_hh_l1 f4 [32]
000000 6e 38 ab be 95 52 c5 3d 02 4e 13 bf b1 d8 e0 3e
       -0.3344149 0.09634892 -0.57540905 0.43915322
000010 d3 53 6d bc 38 7f 4b 3f e8 0d ae 3e fc d7 0c be
       -0.014485317 0.79490995 0.33994985 -0.13754267
000020 c9 ff da be 91 01 96 be 88 eb 84 be ce cc cc be
       -0.42773274 -0.2929807 -0.25960946 -0.40000004
000030 36 fe 16 bf 02 64 eb be c2 69 2f bf de cd fd be
       -0.58981645 -0.45974737 -0.6852075 -0.49571127
000040 ad a7 9f 3e 4b fe 84 be 4a 17 14 3e b6 bb 4c be
       0.31182614 -0.2597526 0.14462009 -0.19993481
000050 f1 72 87 be 68 dd 5c 3e 88 58 5f 3e 4d 19 8e 3d
       -0.2645488 0.21568835 0.21811116 0.069384195
000060 ce c1 a4 bd c2 9b b4 be 37 90 ee be ad 95 c5 3e
       -0.08044778 -0.35275084 -0.46594402 0.38590756
000070 96 61 04 be c4 60 6a 3e bc 48 c8 3e 21 07 fa bd
       -0.12927851 0.22888476 0.39117992 -0.12208391

fc.weight f4 [1, 8]
000000 4f 0c 85 be 24 3d 6f 3e 45 ea cf bd 74 b7 e1 bc
       -0.25985953 0.23363167 -0.10152105 -0.027553298
000010 a9 4f 99 bd 7d 88 16 bf c0 e0 8f bd 18 7e 00 bc
       -0.07485897 -0.58802015 -0.070252895 -0.007842563
