models/Kochi_model.pth (torch, 6128 bytes, 9 tensors)

lstm.weight_ih_l0 f4 [32, 1]
0	0xbec1cdb3	-0.3785225
1	0xbec90c2c	-0.392671
2	0xbfd16f92	-1.6362174
3	0x3f99e821	1.2023965
4	0xc090f9c0	-4.530487
5	0xbff0b372	-1.8804762
6	0xbfb2288e	-1.3918626
7	0xbfa1a9ac	-1.2629905
8	0xbe86be13	-0.2631689
9	0x3faeaf30	1.3647213
10	0xbfe9bf3c	-1.8261485
11	0x3ff6f92d	1.9294792
12	0xc00ba34a	-2.1818414
13	0xbfa7f966	-1.3122985
14	0xbf99fea5	-1.2030836
15	0xbfa50ed3	-1.2895149
16	0x3e77963e	0.24178407
17	0xc032982e	-2.7905383
18	0x3f8903da	1.07043
19	0x400b7298	2.1788692
20	0x4006e015	2.107427
21	0xbf375a10	-0.716218
22	0x3f50265d	0.8130854
23	0xbf6b50dc	-0.91920257
24	0xbf8cc950	-1.0998936
25	0x3e88309c	0.26599586
26	0xbfe61b15	-1.7977015
27	0x3fd2991d	1.6452976
28	0xc08700fc	-4.21887
29	0xc024f2c5	-2.5773175
30	0xc003e8f3	-2.061093
31	0xbf84041d	-1.0313755

lstm.weight_hh_l0 f4 [32, 8]
0	0xbe2989ae	-0.16556427
1	0xbf6e0bd3	-0.9298679
2	0xbe93fcdf	-0.28903863
3	0x3e199aa2	0.15000394
4	0x3f659382	0.89678204
5	0xbe878476	-0.26468247
6	0x3d88f31a	0.06686993
7	0xbd34ed16	-0.044171415
8	0xbf555165	-0.83327323
9	0xbefa33ab	-0.48867545
10	0xbf85db82	-1.0457613
11	0x3fa833c5	1.3140799
12	0xbe284ec2	-0.16436294
13	0x3f538313	0.8262188
14	0xbf8bb19e	-1.091358
15	0x3f71feed	0.9452961
16	0x3ec1e316	0.37868565
17	0xbe340908	-0.1758157
18	0x3ea9c88b	0.33160815
19	0x3e7a35fc	0.24434656
20	0xbddd8985	-0.108172454
21	0xbbbfcb3a	-0.005853084
22	0xbc41eff2	-0.011836993
23	0xbe9b1246	-0.3028738
24	0x3dcb6cff	0.09932899
25	0xbe10fc18	-0.14158666
26	0xbf4c8e88	-0.79904985
27	0xbdd5d8c1	-0.10441733
28	0xbfb082c9	-1.3789912
29	0x3f8a3b74	1.0799394
30	0xbf3ef9ad	-0.74599725
31	0x3f2b4819	0.6690689
32	0xbeb247d1	-0.34820417
33	0x3e56abff	0.20964049
34	0xbeed3374	-0.46328318
35	0xbeaeb5d7	-0.34123108
36	0xbed5964d	-0.41716233
37	0x3ebe7ea8	0.37206006
38	0xbe17d82d	-0.14828558
39	0x3cc0f4cd	0.02355423
40	0x3f5e74a1	0.8689671
41	0x3d631920	0.055443883
42	0xbe90e784	-0.28301632
43	0xbe5d17cd	-0.2159111
44	0x3c4bdd46	0.012442892
45	0x3d39fd89	0.045407806
46	0x3ed42dcd	0.41441193
47	0x3df45537	0.11930316
48	0xbc7dc87a	-0.015489692
49	0xbe6b3ce7	-0.22972451
50	0x3e6d6831	0.23184277
51	0x3e9a3c76	0.30124253
52	0xbded1fc5	-0.11578325
53	0xbe81ea27	-0.25373957
54	0xbe26d852	-0.16293457
55	0xbd89f34b	-0.067358576
56	0x3f3cf567	0.73811954
57	0x3ea73f3e	0.32665437
58	0xbdbbe303	-0.091741584
59	0xbe03c4df	-0.12868069
60	0xbe8534d4	-0.26016867
61	0x3e8d3bc4	0.2758466
62	0x3d30ac0a	0.04313282
63	0xbedd3730	-0.43206167
64	0xbf17903d	-0.59204465
65	0xbe93ef72	-0.2889362
66	0xbe29f85d	-0.1659865
67	0x3e26fa09	0.16306318
68	0x3f59b39b	0.8503968
69	0xbea2c59b	-0.31791386
70	0xbdccafeb	-0.09994491
71	0x3c3f85fb	0.011689658
72	0xbecc5dbf	-0.39915273
73	0x3f6a5001	0.91528326
74	0xbda2a540	-0.07941675
75	0xbef7e6dd	-0.48418322
76	0xbecd3338	-0.4007814
77	0x3e88e16b	0.2673448
78	0x3e9e8c92	0.30966622
79	0x3dd07af2	0.101797
80	0x3e9ac8d3	0.30231342
81	0x3cded104	0.027199276
82	0x3e335ca9	0.17515816
83	0xbdb89f60	-0.09014773
84	0xbecc1b73	-0.39864692
85	0xbea0d495	-0.31412187
86	0x3e46d049	0.19415392
87	0xbe88e4a7	-0.26736948
88	0xbe87eb57	-0.26546738
89	0x3d66152c	0.056172535
90	0x3f432a84	0.7623675
91	0x3e0af377	0.13569437
92	0x3fa863fc	1.3155513
93	0xbf80bca7	-1.0057572
94	0x3f00fa42	0.50381863
95	0xbf49a314	-0.7876446
96	0x3f8ee105	1.116242
97	0x3f3db43d	0.74103147
98	0xbe3dd4f9	-0.18538274
99	0xbdda4bf5	-0.10659019
100	0x3d32e8e8	0.043679148
101	0xbd0dcc47	-0.034618642
102	0xbd8d13e0	-0.068885565
103	0xbde00bf6	-0.10939781
104	0x3ef95508	0.48697686
105	0xbe0461f6	-0.12927994
106	0x3c9b2861	0.018940153
107	0xbdae815d	-0.08520768
108	0xbd73894a	-0.0594571
109	0xbe960234	-0.29298556
110	0xbdd63d97	-0.10460966
111	0xbe8ca123	-0.27466688
112	0x3dd3a40b	0.10334023
113	0x3e5abba7	0.21360646
114	0xbe4057a9	-0.1878344
115	0x3e0f3f45	0.13988979
116	0xbe36da2d	-0.17856665
117	0xbea0adc5	-0.31382576
118	0xbdc3df5f	-0.09564089
119	0xbcfaed76	-0.030630808
120	0x3ed3895a	0.41315728
121	0x3ed22a99	0.41048124
122	0xbce9a32d	-0.028520191
123	0xbec63291	-0.38710454
124	0x3e8e5437	0.27798626
125	0xbe7526ec	-0.23940629
126	0xbe56d7cd	-0.20980759
127	0xbdc8c4f1	-0.098031886
128	0x3e952845	0.29132286
129	0x3e9ad492	0.30240303
130	0xbeaddad3	-0.33956012
131	0xbea34694	-0.31889784
132	0xbf3ecc06	-0.74530065
133	0x3ec22be9	0.37924126
134	0xbd44cef1	-0.048048917
135	0x3e180e15	0.14849122
136	0x3e39a30f	0.18128608
137	0xbecfeb5d	-0.40609255
138	0xbdac832a	-0.08423455
139	0x3df24cc8	0.11831051
140	0x3e4b160b	0.19832627
141	0xbe6c2277	-0.23060022
142	0xbddecb1c	-0.10878584
143	0x3d610778	0.054938763
144	0xbf0fa82c	-0.56115985
145	0xbe678805	-0.22610481
146	0xbe1fba8c	-0.15598506
147	0xbc107b79	-0.008818501
148	0xbd4c7699	-0.04991779
149	0x3df82697	0.121167354
150	0x3dd6a7cc	0.104812235
151	0xbe892af2	-0.26790577
152	0x3d1d12c1	0.038347963
153	0x3f1089f0	0.56460476
154	0xbe697c5a	-0.22801343
155	0xbedb94e0	-0.4288702
156	0xbe1f5100	-0.15558243
157	0x3e0d7b75	0.13816626
158	0x3e2a91e8	0.16657221
159	0x3db0bec8	0.08630139
160	0xbe26e2f8	-0.16297519
161	0xbe978f80	-0.2960167
162	0x3d9397ec	0.07206711
163	0xbcc28ae2	-0.023747865
164	0xbe70d9ee	-0.23520634
165	0x3e7b7ab3	0.24558525
166	0x3e3c41a4	0.18384415
167	0xbe430b4b	-0.19047277
168	0xbd9d93f7	-0.07694238
169	0x3e07f33d	0.13276382
170	0xbe6e2642	-0.23256782
171	0xbbc743fe	-0.0060811033
172	0xbe25534c	-0.16145056
173	0x3e5594e5	0.2085758
174	0x3e7bd8aa	0.2459437
175	0x3de8e046	0.11370902
176	0x3e4a0fbf	0.19732569
177	0x3bdc4af2	0.0067228014
178	0xbd478505	-0.04871084
179	0xbee3235c	-0.44362915
180	0x3dcae9db	0.09907886
181	0xbe823302	-0.2542954
182	0x3ec1de95	0.3786513
183	0xbdb01820	-0.085983515
184	0x3e8b5fda	0.27221566
185	0xbb9de82c	-0.004818937
186	0x3e409e96	0.18810496
187	0x3e605a47	0.21909438
188	0x3d821aa5	0.06352738
189	0x3e19a4f4	0.15004331
190	0x3e9d7e56	0.3076045
191	0xbcb9a0fb	-0.02265977
192	0xbefb75ec	-0.49113405
193	0xbeb0d6cb	-0.34538874
194	0x3e86f4d7	0.26358673
195	0xbda956b2	-0.08268489
196	0x3f7cc8b0	0.98743725
197	0x3e75f27b	0.2401828
198	0xbe95a016	-0.29223698
199	0xbca24959	-0.019810366
200	0xbf793ba5	-0.97356635
201	0xbe1dcc2e	-0.1540992
202	0xbf00399f	-0.5008792
203	0x3ebd22a2	0.36940485
204	0xbe8e1463	-0.2774993
205	0x3ef40980	0.47663498
206	0xbf1a4ebc	-0.6027639
207	0x3f307486	0.689278
208	0x3f0b6ec9	0.5446592
209	0x3e087b91	0.13328387
210	0xbc1add9c	-0.00945225
211	0x3e85d02c	0.26135385
212	0xbc6b955b	-0.014378871
213	0x3e1161e5	0.141975
214	0x3eafbb6c	0.3432268
215	0x3e52ea1f	0.20597123
216	0xbeb66790	-0.35625887
217	0xbf0a6dd9	-0.54073864
218	0xbf611cd6	-0.87934625
219	0x3f246622	0.6421834
220	0xbfb77c90	-1.4334888
221	0x3f3e83a0	0.74419594
222	0xbf729760	-0.9476223
223	0x3f6a93af	0.916316
224	0x3e1494fc	0.14509958
225	0x3e84c8dd	0.25934497
226	0xbe70c5cc	-0.23512954
227	0xbd44e560	-0.04807031
228	0xbe66ae56	-0.22527441
229	0x3efc87eb	0.49322447
230	0xbeddf0fe	-0.43347925
231	0x3eba1e12	0.36351067
232	0x3ee5030c	0.44728887
233	0x3c6ca856	0.014444431
234	0x3ecfa9ea	0.40559322
235	0xbd480c81	-0.04884005
236	0xbd20c037	-0.03924581
237	0x3e9ca011	0.3059087
238	0x3ed47cc2	0.41501433
239	0xbdaf5bd8	-0.0856244
240	0x3ee7fd9a	0.4531067
241	0xbe97a4b2	-0.2961784
242	0xbe3aeb26	-0.18253765
243	0xbe7a832e	-0.24464104
244	0x3ea77504	0.32706463
245	0xbe8d7fbe	-0.27636522
246	0x3d4fa8ad	0.05069797
247	0x3e3058da	0.17221394
248	0x3f069420	0.5256977
249	0x3cb7044c	0.022340916
250	0xbe622c9b	-0.22087328
251	0xbd43bf7c	-0.047790036
252	0xbd804142	-0.06262447
253	0xbea803dd	-0.32815447
254	0xbdcef100	-0.10104561
255	0x3de4a003	0.11163332

lstm.bias_ih_l0 f4 [32]
0	0x3f011fd9	0.5043922
1	0x3f7d80b4	0.9902451
2	0x3e5a9c70	0.21348739
3	0x3f2d7be5	0.67767173
4	0x3ee1ffb5	0.441404
5	0x3e6a1f97	0.22863613
6	0x3db2808b	0.08715924
7	0x3d0485c9	0.03235415
8	0xbeb7d96c	-0.35908067
9	0xbed2e60b	-0.41191134
10	0xbe9c955e	-0.30582708
11	0xbe8a23a9	-0.26980332
12	0x3eae5d15	0.3405539
13	0xbe2ce670	-0.1688478
14	0xbbe82f9d	-0.007085754
15	0x3cb172ad	0.021661127
16	0xbe1658b5	-0.14682277
17	0x3dafd361	0.08585239
18	0xbe66ccea	-0.22539106
19	0xbd4f81a5	-0.050660748
20	0x3db88226	0.09009199
21	0x3e686d89	0.22698034
22	0xbec2ad8d	-0.38023034
23	0x3e937ad3	0.28804645
24	0x3e95c349	0.29250553
25	0x3edb57f5	0.42840543
26	0xbd07780f	-0.03307348
27	0x3f73c4c4	0.95222116
28	0x3de7fb42	0.113272205
29	0x3d1881fd	0.03723334
30	0x3e8574cb	0.26065668
31	0x3e81ba44	0.25337422

lstm.bias_hh_l0 f4 [32]
0	0x3e131641	0.14363958
1	0x3f8392fd	1.0279232
2	0xbe8c71a1	-0.27430442
3	0x3f575c2e	0.8412503
4	0x3e529715	0.20565446
5	0xbe070486	-0.1318532
6	0x3eb79ea1	0.35863212
7	0xbea36376	-0.3191182
8	0x3c88abbf	0.016683457
9	0x3d5201a2	0.05127109
10	0xbeabccc3	-0.33554658
11	0xbd6564e7	-0.05600443
12	0x3e64199b	0.22275393
13	0xbda35dce	-0.07976876
14	0xbd63e574	-0.055638745
15	0xbea05e05	-0.3132173
16	0xbd69b62e	-0.057058506
17	0xbe03716a	-0.12836233
18	0xbebb7ddb	-0.36619458
19	0x3cfc6813	0.030811345
20	0xbe0c76e0	-0.13717222
21	0xbe34d397	-0.1765884
22	0xbe863140	-0.2620945
23	0x3e5ef81b	0.21774332
24	0x3eb314f6	0.3497693
25	0x3f7de49b	0.9917695
26	0x3ead50d2	0.33850724
27	0x3f2feec1	0.68723685
28	0x3dad79b9	0.084704824
29	0xbeacee52	-0.33775574
30	0x3df4f51a	0.11960812
31	0xbe2e19f3	-0.17002086

lstm.weight_ih_l1 f4 [32, 8]
0	0x3e8de5de	0.27714437
1	0xbdd61afb	-0.10454365
2	0xbe7e7004	-0.24847418
3	0x3e111c07	0.14170848
4	0x3e74f4be	0.23921487
5	0x3ddb193c	0.106981725
6	0x3d87d50a	0.06632431
7	0x3bed6b68	0.00724547
8	0x3df020d5	0.11725012
9	0x3f84412b	1.0332388
10	0xbd402356	-0.0469087
11	0xbf6b5ccd	-0.9193848
12	0xbe24dfcb	-0.16100995
13	0x3ee57a5c	0.44819915
14	0xbe83104d	-0.25598374
15	0x3eb8f065	0.36120906
16	0x3e8c1189	0.27357128
17	0x3debe26d	0.11517797
18	0x3caffbb1	0.02148232
19	0xbe2817a9	-0.16415276
20	0xbdf1875a	-0.117933944
21	0xbd060123	-0.032715928
22	0xbea3e74d	-0.32012406
23	0x3d7ad116	0.061234556
24	0xbf779197	-0.9670653
25	0x3ed16594	0.4089781
26	0x3e79885a	0.2436842
27	0xbddab630	-0.10679281
28	0x3e97d3dc	0.29653823
29	0x3d073725	0.033011574
30	0x3ec44b6e	0.38338798
31	0x3d804e23	0.062649034
32	0xbc875a77	-0.01652263
33	0xbf85af14	-1.0444055
34	0x3e9e253d	0.30887786
35	0x3f45b594	0.7723019
36	0x3f03930b	0.51396245
37	0xbea7e2e7	-0.327903
38	0x3ed6f536	0.41983956
39	0xbeacec6c	-0.33774126
40	0x3e28e7c0	0.16494656
41	0x3f23414c	0.6377151
42	0xbdb29255	-0.08719317
43	0xbf07c31c	-0.5303209
44	0xbf010014	-0.50390744
45	0x3c93982e	0.0180169
46	0xbea87a04	-0.3290559
47	0xbe5ed3e0	-0.21760511
48	0x3e55f57f	0.2089443
49	0x3ee9a5c8	0.45634294
50	0x3dd8adb9	0.1058001
51	0x3d59188d	0.05300193
52	0x3e1b0525	0.15138681
53	0xbe1f33fc	-0.15547174
54	0x3de2b82a	0.11070283
55	0xbe54bf6d	-0.20776148
56	0xbff80370	-1.9376049
57	0x3fff0211	1.9922506
58	0xbef6298c	-0.48078573
59	0xbfb95a99	-1.4480773
60	0xbf5be767	-0.85899967
61	0x3f11bf4a	0.5693251
62	0xbe2730ac	-0.1632716
63	0x3d035f79	0.03207347
64	0xbe6bc90c	-0.23025912
65	0xbeab87ea	-0.33502132
66	0xbe2ff33f	-0.17182635
67	0x3dca1ed0	0.09869158
68	0xbe92c047	-0.2866232
69	0x3cb72506	0.022356521
70	0x3e65fbff	0.2245941
71	0x3e866754	0.26250708
72	0x3f3b7d68	0.7323823
73	0x3dc72fb5	0.09725896
74	0x3ec4d975	0.38447157
75	0x3ea3fc23	0.32028303
76	0x3ee938d7	0.45551178
77	0xbe8364e6	-0.25662917
78	0x3ea3709b	0.3192185
79	0xbed11a95	-0.40840593
80	0xbd919d5f	-0.07110094
81	0x3ec97182	0.39344412
82	0x3df9cd99	0.12197418
83	0x3ee1a7ac	0.44073236
84	0x3e13d9d2	0.1443856
85	0x3e2282c1	0.15870191
86	0x3eca6c61	0.39535812
87	0xbe26814d	-0.16260262
88	0xbf257ced	-0.64643747
89	0xbed2e082	-0.4118691
90	0x3d0ebd0b	0.034848254
91	0x3ebeb055	0.37243906
92	0xbc224849	-0.009904929
93	0x3e7980b0	0.24365497
94	0x3db07c94	0.086175114
95	0xbe340f99	-0.17584075
96	0xbe8fc416	-0.2807929
97	0xbe5e3fbd	-0.21704002
98	0x3d967c81	0.07347966
99	0x3d171f23	0.03689493
100	0x3f3be085	0.73389465
101	0xbed2e889	-0.41193035
102	0x3cb62973	0.022236561
103	0xbe447c96	-0.19188151
104	0x3edc28ba	0.42999822
105	0x3ebb7968	0.36616063
106	0xbe5330e8	-0.20624125
107	0x3e486d3c	0.1957292
108	0xbeaf8257	-0.3427913
109	0x3e849976	0.2589833
110	0x3d200155	0.03906377
111	0x3e1fbebb	0.15600102
112	0x3e7469d4	0.23868495
113	0xbde67365	-0.112524785
114	0x3ecc5e6f	0.39915797
115	0x3e57e14e	0.2108204
116	0x3e968454	0.29397833
117	0xbe70541e	-0.23469588
118	0x3d2bcc45	0.041942853
119	0xbe25593f	-0.16147326
120	0xbf22a70e	-0.63536155
121	0x3f8a7be6	1.0819061
122	0x3e4d7207	0.20063029
123	0xbd5dc82c	-0.054145977
124	0xbea3f94d	-0.3202614
125	0x3e1a7901	0.15085222
126	0xbcb46290	-0.022019655
127	0xbf115755	-0.56773883
128	0xbda56d51	-0.08077491
129	0x3ed32a20	0.41243076
130	0x3e050464	0.12989956
131	0xbec76554	-0.38944495
132	0x3e28fc70	0.16502547
133	0xbe879409	-0.2648013
134	0xbe3309f0	-0.1748426
135	0xbe9b20dd	-0.3029851
136	0x3e3fa295	0.18714364
137	0x3e6362ee	0.22205707
138	0xbdadfee7	-0.084958844
139	0xbe836a7b	-0.25667176
140	0xbeec34b3	-0.46133956
141	0x3ecc672b	0.3992246
142	0xbec05c61	-0.3757048
143	0x3e8f7824	0.28021348
144	0xbea3e980	-0.32014084
145	0xbca1d4a4	-0.019754715
146	0xbdf8a308	-0.12140471
147	0x3e9855f3	0.29753074
148	0xbeca4de4	-0.3951255
149	0x3e18f576	0.14937386
150	0xbe0f3a8d	-0.13987179
151	0x3e2ceca6	0.16887149
152	0x3eb5108b	0.35364184
153	0xbe9b41d6	-0.30323666
154	0x3b4bf4e5	0.003112131
155	0xbf0aa6f7	-0.5416102
156	0x3cc4e4ea	0.024034936
157	0xbf076643	-0.52890414
158	0x3d25bf25	0.040465493
159	0x3e8e7ace	0.27828068
160	0x3e04c525	0.1296583
161	0xbee91ec3	-0.45531282
162	0x3e0368a4	0.12832886
163	0x3d3438ae	0.043999366
164	0xbde17e66	-0.11010437
165	0x3c956194	0.018235005
166	0x3eac102c	0.33606088
167	0x3de52e8e	0.1119052
168	0x3c4e1e73	0.012580502
169	0x3d03d1ab	0.032182377
170	0xbe88b2ba	-0.26698858
171	0xbe8508f3	-0.2598339
172	0xbee1bf42	-0.4409123
173	0x3e87d11e	0.2652673
174	0xbea03968	-0.31293797
175	0x3b842a0c	0.0040333327
176	0xbe83fdc4	-0.25779545
177	0xbd0b98e1	-0.034081344
178	0xbef0be4b	-0.47020182
179	0x3d4b40dd	0.049622405
180	0x3e1246f2	0.14284876
181	0xbe2b840e	-0.16749594
182	0xbead5e94	-0.3386122
183	0x3ebe7419	0.3719795
184	0x3f6bc703	0.9210054
185	0xbf6fed71	-0.9372168
186	0x3eae46be	0.34038347
187	0x3f5b87b9	0.8575397
188	0x3f195175	0.5988992
189	0xbdde0802	-0.10841371
190	0x3e639aa3	0.22226958
191	0x3e45315f	0.19257115
192	0x3e822b37	0.25423595
193	0xbe5ab5ac	-0.21358365
194	0x3e9aaa74	0.3020817
195	0x3f1b5020	0.60669136
196	0x3e109fe5	0.14123495
197	0xbe98f45d	-0.29873934
198	0xbc5274b9	-0.012845212
199	0xbd4f1038	-0.050552577
200	0x3e10b5d4	0.14131862
201	0x3f7fc4a1	0.99909407
202	0xbdd865f9	-0.10566325
203	0xbf42d5a6	-0.7610725
204	0x3d36fba9	0.044673596
205	0x3e138ada	0.14408436
206	0x3dca0a5b	0.098652564
207	0x3e1e755a	0.15474454
208	0xbeb2f75b	-0.34954342
209	0x3ecc8c72	0.399509
210	0xbcc1a28a	-0.023637075
211	0x3dee616a	0.11639674
212	0xbebaa22f	-0.3645186
213	0xbe15c3d9	-0.14625491
214	0xbea9fc17	-0.33200142
215	0xbe37f279	-0.1796359
216	0xbed6e9b1	-0.41975167
217	0x3ed0c3f1	0.4077449
218	0x3ecf9953	0.40546665
219	0x3eb76d1a	0.35825425
220	0xbe13d792	-0.14437702
221	0xbd0de0d0	-0.034638226
222	0x3cca2bc0	0.024679065
223	0xbed35be7	-0.41281053
224	0x3e0680db	0.13135092
225	0xbef7074b	-0.48247752
226	0x3f1a6247	0.6030621
227	0x3f7522f8	0.95756483
228	0x3ed1c1f1	0.40968278
229	0xbea41b89	-0.32052258
230	0x3e07220b	0.1319658
231	0xbea22428	-0.3166821
232	0xbd6e5ae2	-0.05819214
233	0x3f53b127	0.8269219
234	0xbebc9094	-0.36829054
235	0x3eccb320	0.39980412
236	0xbf30a689	-0.6900411
237	0xbe5212ab	-0.20514934
238	0xbe44ece4	-0.19230992
239	0xbe4392ae	-0.19098923
240	0x3d865d7d	0.065608
241	0x3ee0fb43	0.43941697
242	0x3e0b38e0	0.13595915
243	0x3e477161	0.19476844
244	0x3eca3f05	0.39501205
245	0xbe9a9a29	-0.3019574
246	0x3f0f6a17	0.56021255
247	0xbebe82b7	-0.37209103
248	0xbff576cf	-1.9176883
249	0x401bbaaa	2.433268
250	0xbf4376bd	-0.76353055
251	0xbfa26a5f	-1.2688712
252	0xbfb56411	-1.4171163
253	0x3f89b019	1.0756866
254	0xbe375019	-0.17901649
255	0x3e325191	0.17413928

lstm.weight_hh_l1 f4 [32, 8]
0	0x3ed8f6c2	0.4237576
1	0x3d4e4256	0.05035623
2	0xbc6d3a4e	-0.014479233
3	0x3ea81098	0.3282516
4	0x3e24dc0a	0.16099563
5	0xbc656af3	-0.014002549
6	0xbee69927	-0.4503872
7	0xbe16a465	-0.14711149
8	0x3eb1ab15	0.34700838
9	0xbe6838ce	-0.2267792
10	0xbe8b1559	-0.27164724
11	0x3e8d4ef9	0.27599314
12	0xbf3bd5fa	-0.7337338
13	0x3de3fa77	0.11131757
14	0x3cd7b6df	0.026332317
15	0xbd7dff91	-0.062011305
16	0x3dc96591	0.098338254
17	0xbed304c6	-0.4121458
18	0x3e80430f	0.25051162
19	0x3e3c24a9	0.1837336
20	0xbe241883	-0.16024975
21	0xbd0b1590	-0.03395611
22	0xbe791799	-0.24325408
23	0xbe44f823	-0.19235282
24	0x3d767739	0.060172293
25	0xbf0d2031	-0.55127245
26	0x3db8e6fc	0.09028432
27	0xbe97f958	-0.29682422
28	0xbe519fe4	-0.2047115
29	0xbef2bb82	-0.47408682
30	0x3e737524	0.23775154
31	0xbeadfed8	-0.33983493
32	0x3db5a970	0.08870208
33	0xbde33fad	-0.110961296
34	0x3c9eca88	0.019383684
35	0x3e34f895	0.17672952
36	0x3defc090	0.1170665
37	0xbe388c9d	-0.1802239
38	0xbe683ee2	-0.22680238
39	0x3f2b8dea	0.6701342
40	0x3d7df415	0.062000353
41	0xbec4cabb	-0.3843592
42	0x3e6d9416	0.23201022
43	0x3eb307c1	0.34966853
44	0xbf0d4b85	-0.5519336
45	0xbdf025e3	-0.11725976
46	0x3e827bcb	0.25485072
47	0xbec09042	-0.3761006
48	0x3eaf67d8	0.34258914
49	0xbef43a14	-0.4770056
50	0xbe97a3b5	-0.29617086
51	0xbdee9af6	-0.1165065
52	0xbe8571d8	-0.26063418
53	0xbd7931c0	-0.06083846
54	0x3eb48a96	0.35261983
55	0xbe98a2bf	-0.29811665
56	0x3bfb0927	0.007661003
57	0xbfda1673	-1.7038101
58	0x3e436cf7	0.19084536
59	0xbe83c9c0	-0.2573986
60	0x3e9acfb2	0.30236584
61	0xbf27298d	-0.65297776
62	0xbd39adac	-0.045331642
63	0x3eb9eed8	0.36315036
64	0xbd9c44be	-0.07630299
65	0xbf343941	-0.7039986
66	0xbd58568d	-0.052816916
67	0x3f105dd4	0.5639317
68	0xbeb1b07a	-0.34704953
69	0xbee10d27	-0.43955347
70	0xbdcc5b11	-0.09978307
71	0x3eea6614	0.45781004
72	0x3ec081e3	0.37599096
73	0xbd74974c	-0.0597146
74	0x3df123c8	0.11774403
75	0x3eeddb1c	0.4645623
76	0xbf3bed3c	-0.73408866
77	0x3e2132e2	0.15742067
78	0x3e7a2838	0.24429405
79	0x3ec3dbb5	0.3825356
80	0x3d03051d	0.0319873
81	0xbf0e4d13	-0.55586356
82	0x3cbf00fe	0.023315903
83	0x3f017156	0.5056356
84	0xbdffda55	-0.124928154
85	0xbe24b731	-0.16085507
86	0xbe53e3f8	-0.20692432
87	0x3e8c6983	0.2742425
88	0xbe8be880	-0.2732582
89	0x3d2bf992	0.041986056
90	0x3cb25063	0.021766847
91	0x3d8de014	0.06927505
92	0xbdad6f87	-0.08468538
93	0x3ccd18aa	0.025036175
94	0x3ecafb4f	0.39644858
95	0x3e745550	0.23860669
96	0x3de94c64	0.113915235
97	0xbf613525	-0.8797172
98	0xbec45fd3	-0.38354358
99	0x3ddfbb34	0.10924378
100	0x3dc763c3	0.09735825
101	0xbf0d9cb2	-0.55317223
102	0x3d695f8d	0.05697589
103	0x3df0b309	0.11752898
104	0x3eefdf15	0.46849886
105	0xbeb6197c	-0.35566318
106	0xbb617d5f	-0.0034407002
107	0xbdbe6bfe	-0.092979416
108	0xbf43cffa	-0.7648922
109	0xbe9e494b	-0.30915293
110	0xbc394c0e	-0.011309637
111	0xbdedc14b	-0.11609133
112	0x3f0a7af2	0.5409385
113	0xbeb6ac00	-0.356781
114	0xbe46e1b4	-0.19422036
115	0xbead3fdf	-0.33837792
116	0xbe01a248	-0.12659562
117	0xbe1b0bf3	-0.15141277
118	0x3e359d93	0.17735891
119	0xbd9b8df8	-0.07595438
120	0x3f19cb8a	0.600762
121	0xbdf0613f	-0.11737298
122	0xbcb75182	-0.022377733
123	0xbde11692	-0.10990633
124	0xbeca9bc1	-0.39571956
125	0xbe210b7b	-0.15727036
126	0x3f53aa82	0.8268205
127	0xbf449358	-0.7678733
128	0xbe62da64	-0.22153622
129	0x3cfac08f	0.030609397
130	0xbddc2288	-0.10748774
131	0xbeee0b22	-0.4649287
132	0x3dfed155	0.12442271
133	0x3cf71453	0.030161059
134	0xbe8136fb	-0.2523726
135	0xbd4ce32a	-0.050021328
136	0x3e32d1a7	0.17462789
137	0x3d86ab21	0.06575609
138	0x3e1c3843	0.15255837
139	0xbeae8986	-0.34089297
140	0xbe38fb18	-0.18064535
141	0x3dbaeb21	0.091268785
142	0xbee79f60	-0.4523878
143	0x3e5e8e26	0.21733913
144	0xbe34b122	-0.17645696
145	0xbebbba00	-0.36665344
146	0xbdf5e7ce	-0.12007104
147	0x3e266d00	0.16252518
148	0xbde2eb8e	-0.11080085
149	0x3e1552e0	0.14582396
150	0xbe182d4e	-0.14861032
151	0x3e48e9a5	0.19620378
152	0xbe354ca7	-0.17705022
153	0xbda66456	-0.08124606
154	0xbe9e2372	-0.30886418
155	0x3eade7d7	0.33965942
156	0x3e7c66a7	0.24648534
157	0x3e154b49	0.145795
158	0xbe4c4543	-0.19948296
159	0x3f021b54	0.5082295
160	0x3e5083bb	0.20362751
161	0xbe0ce6f8	-0.13759983
162	0xbe4f9554	-0.20271808
163	0xbddb4a1f	-0.10707497
164	0xbdc274cd	-0.09494934
165	0x3df0d740	0.11759806
166	0x3bc54451	0.006020107
167	0x3e36c828	0.17849791
168	0xbe911b7e	-0.28341287
169	0xbe349902	-0.17636493
170	0xbe299c9d	-0.1656365
171	0x3ea2405d	0.3168973
172	0xbe215f0a	-0.15758911
173	0xbe915da4	-0.28391755
174	0x3e07f1c4	0.1327582
175	0xbe527017	-0.20550571
176	0xbdc715d5	-0.09720961
177	0x3df71f6c	0.1206654
178	0x3e44dba7	0.19224416
179	0x3e15f82c	0.14645451
180	0xbd7fd15a	-0.062455513
181	0xbdbd2922	-0.09236361
182	0xbf11887a	-0.5684887
183	0x3f01b47e	0.50666034
184	0xb6e24ec6	-6.7444953e-06
185	0x3f63a48c	0.88922954
186	0xb847d8ae	-4.7647096e-05
187	0x3dcdc12f	0.100466125
188	0xbe30dd64	-0.17271954
189	0x3eb5065a	0.35356408
190	0xbd78d97e	-0.06075429
191	0xbee0ff99	-0.43945006
192	0x3e01e7bd	0.12686057
193	0xbf020f34	-0.5080445
194	0x3d355797	0.044272985
195	0x3dc8d296	0.09805791
196	0x3e3e11a3	0.18561415
197	0xbe8466d9	-0.25859717
198	0x3c8e21e3	0.017350143
199	0x3e8c895d	0.2744855
200	0x3efd4d83	0.494732
201	0xbdaeee10	-0.085415006
202	0x3e46b71e	0.19405791
203	0x3eff0762	0.4981032
204	0xbf6acefd	-0.9172209
205	0x3e935f70	0.2878375
206	0x3ec676e4	0.3876258
207	0xbdc3c718	-0.095594585
208	0x3e48da59	0.19614543
209	0xbedb2f56	-0.42809552
210	0xbe71dda0	-0.236197
211	0x3e4e8961	0.20169593
212	0xbdecac61	-0.11556316
213	0xbec3a7f0	-0.38214064
214	0x3d8bbd94	0.068232685
215	0xbe347eae	-0.1762645
216	0xbe33251c	-0.17494625
217	0xbe4c8203	-0.1997147
218	0xbda370e7	-0.07980519
219	0xbcd8087a	-0.02637123
220	0x3d9fbee2	0.0780008
221	0xbe3310d1	-0.17486884
222	0x3e4a6443	0.1976481
223	0xbe8c2a4a	-0.27376014
224	0xbe38ad4d	-0.18034859
225	0x3cb3c849	0.02194609
226	0xbf08ea94	-0.5348294
227	0xbe67022d	-0.22559424
228	0xbd69d7d5	-0.0570906
229	0xbdebad3c	-0.11507651
230	0x3e2712f4	0.16315824
231	0x3f1723ec	0.5903919
232	0xbd88410c	-0.06653032
233	0xbecd8321	-0.40139106
234	0xbd8f984c	-0.0701147
235	0xbe484a2d	-0.19559546
236	0xbf37e7d2	-0.71838105
237	0x3e20003b	0.15625088
238	0xbe3428cb	-0.17593686
239	0xbead6840	-0.338686
240	0xbdd40520	-0.1035254
241	0x3db71ed0	0.08941424
242	0xbe9bc7ef	-0.30425975
243	0x3e88c802	0.26715094
244	0x3e119ba5	0.1421953
245	0xbf1b002a	-0.60547125
246	0xbe42dbf6	-0.19029221
247	0xbc182526	-0.009286201
248	0x3e3e0e83	0.18560223
249	0xbf44be2b	-0.76852673
250	0x3eb49931	0.35273126
251	0x3d8a8bc8	0.067649424
252	0x3d8e1e40	0.069393635
253	0x3b9aca1f	0.0047238017
254	0xbd8576cc	-0.06516799
255	0xbed66240	-0.41871834

lstm.bias_ih_l1 f4 [32]
0	0x3e5e4088	0.21704304
1	0xbe3a4908	-0.18191922
2	0x3d3933b5	0.045215327
3	0xbed7b59d	-0.42130747
4	0xbe727f77	-0.23681436
5	0x3e7dde7f	0.24791907
6	0xbf249cfd	-0.64302045
7	0x3e344f7d	0.17608447
8	0xbe2fdd9a	-0.17174378
9	0xbe1676a1	-0.14693691
10	0xbeba4fc8	-0.36388993
11	0x3dfe8908	0.124284804
12	0x3dc7dff8	0.097595155
13	0x3e55a9e9	0.20865597
14	0xbe0bdbb8	-0.13658035
15	0xbeb9024d	-0.36134568
16	0xbe44814a	-0.19189945
17	0xbd07c489	-0.033146415
18	0x3eabf71e	0.33586973
19	0x3d8a6d12	0.06759085
20	0x3d8e88ac	0.06959662
21	0xbe51905d	-0.20465226
22	0xbe1bf7f0	-0.152313
23	0xbdf63889	-0.12022502
24	0x3e930aac	0.2871908
25	0xbec26ecd	-0.3797516
26	0x3d870f57	0.06594723
27	0xbed5fa73	-0.4179264
28	0xbe8a9ef1	-0.27074388
29	0x3de1845c	0.11011574
30	0xbf1d0461	-0.61334807
31	0xbc822111	-0.015884908

lstm.bias_hh_l1 f4 [32]
0	0xbe9db25a	-0.30800134
1	0x3d42ca7a	0.047556378
2	0x3e920465	0.28518978
3	0xbdeebd9d	-0.116572596
4	0xbe227771	-0.15865876
5	0xbe76323d	-0.24042602
6	0xbef3ab7d	-0.47591773
7	0xbdc41550	-0.095743775
8	0x3b812e68	0.0039422996
9	0xbc9798d3	-0.01850549
10	0x3df16fa0	0.11788869
11	0x3e2916ee	0.16512653
12	0xbef3d594	-0.47623885
13	0x3e98becf	0.29833075
14	0x3be2925f	0.0069144215
15	0xbeaf6d7e	-0.34263223
16	0xbd8348a5	-0.0641034
17	0x3d2c00c7	0.04199293
18	0xbe08de28	-0.13365996
19	0xbd84ff1e	-0.06493972
20	0x3dcc12a3	0.09964492
21	0x3e9bf92b	0.30463538
22	0xbe0557d5	-0.13021787
23	0x3e184cb1	0.14873005
24	0xbea428af	-0.3206229
25	0x3e27a02d	0.16369696
26	0xbdaf883f	-0.08570909
27	0xbd87aae4	-0.06624392
28	0x3c83882e	0.016056146
29	0x3d908cbb	0.07058092
30	0xbf232f89	-0.6374441
31	0xbde4ebd7	-0.111777954

fc.weight f4 [1, 8]
0	0x3e0f5c46	0.14000043
1	0xbe6b4fab	-0.2297961
2	0xbe9ecd79	-0.31016138
3	0x3dcfa8e1	0.10139633
4	0xbdbdb07b	-0.092621766
5	0xbeb9b30e	-0.3626942
6	0x3c88358a	0.016627092
7	0x3e6e0649	0.23244585
