models/Kollam_model.pth (torch, 6135 bytes, 9 tensors)

lstm.weight_ih_l0 f4 [32, 1]
-2.8229892 -2.5729759 1.2235202 -2.0184238 0.6536312 -2.0572789 1.4142816 -0.89703685
-1.7284944 -3.3866313 -0.782143 -1.9446872 0.39680582 -3.4894083 0.24732526 -1.5873529
-1.8934121 -2.8453538 -1.0378668 -3.6667416 0.92900056 2.319995 1.9730988 -1.0791966
-2.1681874 -2.022 1.6145049 -1.9552222 1.0255661 -2.08259 1.677393 -1.5053415
00000000: dbab 34c0 a3ab 24c0 4f9c 9c3f db2d 01c0
00000010: 6054 273f 75aa 03c0 2e07 b53f 35a4 65bf
00000020: 4e3f ddbf 91be 58c0 863a 48bf 83eb f8bf
00000030: 222a cb3e 7752 5fc0 d542 7d3e 612e cbbf
00000040: 545b f2bf 471a 36c0 d2d8 84bf e5ab 6ac0
00000050: fbd2 6d3f cc7a 1440 808e fc3f 1d23 8abf
00000060: 95c3 0ac0 7368 01c0 19a8 ce3f b944 fabf
00000070: c045 833f 2849 05c0 d0b4 d63f 08af c0bf

lstm.weight_hh_l0 f4 [32, 8]
-0.39830777 -0.16188577 0.6882702 0.25672954 0.35561305 0.06913391 -0.14787869 -0.12529553
1.1307688 2.2637565 1.7462789 1.8708045 -0.40262547 -2.1789727 -1.3296572 0.58294696
-0.41301295 -1.164052 -0.3411838 -0.9401559 0.6553909 0.4763637 0.5442993 0.20628406
-0.17727399 -0.06974269 0.7033176 -0.12144994 0.72888863 -0.6266619 0.72079825 0.51916707
0.04775982 0.16525738 -0.04214922 0.03341456 -0.06345568 -0.16224465 -0.18128087 0.14601593
0.3393729 0.7520777 1.0093827 0.23975037 0.51522624 -1.0264821 -0.15943028 0.5092538
-0.19420333 0.04211171 1.348593 -0.14410156 -0.2008644 -0.45930427 -0.2085998 0.579186
-0.04031063 -0.18347858 -0.25723195 -0.23464905 -0.15341681 0.58489615 -0.1350841 -0.5673955
-0.12246272 0.087161675 -0.24234335 0.6911349 0.50541306 0.039122865 -0.022758536 -0.28954363
1.1642249 1.9558356 -1.2563977 2.1359136 -0.7573676 -1.2408445 -1.3448391 -0.20326525
-0.21336457 0.004447979 0.97541565 0.33155203 -0.12021936 -0.36570057 -1.3068236 -0.16209973
0.3626157 0.0866687 -0.7609218 1.0706099 0.6830522 0.16505982 0.30160144 -0.5121969
-0.3463674 -0.35035744 0.2587621 0.16970262 -0.37539944 0.33031264 -0.5399515 -0.024397762
0.38419905 0.9528781 -0.042553432 1.1717557 0.37737924 -1.041067 -0.4280197 -0.15714549
0.4262937 0.34845003 0.34778622 0.7438263 -0.27122885 -0.2114876 -0.38936415 0.09613542
-0.44965446 0.1715321 -0.08869149 -0.07762042 -0.19202833 0.31239724 0.16967763 -0.48424098
-0.05794406 -0.029274674 0.11084392 0.23539296 0.30422562 0.17130941 0.006559403 -0.12509389
-0.13986292 0.16382928 0.14667368 0.24712825 -0.13692974 0.04129789 -0.067657314 -0.1356175
-0.20092519 -0.0999616 -0.47223842 -0.97614753 0.23221976 0.46449792 1.1512113 0.26827866
-0.35695323 -0.104949355 0.8580305 -0.17854154 -0.090919584 0.11961992 -0.5993134 -0.028262487
-0.4671654 0.005204746 1.2195281 0.120668784 -0.17890954 0.37045258 -0.6387003 0.19654833
0.025752753 -0.07620508 -0.10517703 0.21468282 0.04169623 -0.30035618 0.2523775 0.008694433
0.24702369 0.22507587 0.091955975 0.39566645 -0.07368985 -0.026524516 -0.4811811 0.24668275
-0.36810076 -0.18578802 -0.48482415 -0.28071833 0.09248586 0.28953606 -0.18969905 -0.6385345
-0.11263521 -0.28173205 -0.7325227 0.64369357 0.9509913 0.005847487 0.38827398 0.49678698
1.0773485 1.6252881 0.33372658 1.6070478 0.43552878 -2.0008006 -0.63173 0.54570764
-0.6323939 -0.28093028 0.009450236 -0.86241204 0.6047192 0.20510402 0.26325 0.22783683
-0.19986029 -0.6527505 -0.570494 -0.4101453 1.410354 -0.47814143 0.91044146 0.7576596
-0.2082664 0.23419705 0.35335678 0.4307458 0.0778714 -0.13659507 -0.10570556 0.0355811
0.20551254 1.0687569 0.3258222 0.8103896 0.5332861 -1.2036433 -0.034160163 0.55844223
0.08068768 0.5811475 0.90051335 0.10413051 0.27063492 -0.48858276 -0.2986034 0.52128065
-0.24266359 0.30682078 0.179359 0.38985726 -0.7589046 0.13367328 -0.29115957 -0.06037106
00000000: ffee cbbe 62c5 25be 7a32 303f 0e72 833e
00000010: ea12 b63e 1496 8d3d 836d 17be 794d 00be
00000020: 08bd 903f 63e1 1040 1186 df3f 8676 ef3f
00000030: ed24 cebe 4a74 0bc0 3532 aabf 033c 153f
00000040: 6f76 d3be a8ff 94bf a5af aebe 0fae 70bf
00000050: b3c7 273f f1e5 f33e 3357 0b3f 213c 533e
00000060: 5087 35be 41d5 8ebd 9f0c 343f bfba f8bd
00000070: 7298 3a3f ea6c 20bf 3c86 383f 22e8 043f
00000080: cd9f 433d 3b39 293e a9a4 2cbd b5dd 083d
00000090: 0df5 81bd 7623 26be b1a1 39be 3385 153e
000000a0: 49c2 ad3e 2a88 403f 7433 813f 1f81 753e
000000b0: dee5 033f c463 83bf b141 23be 755e 023f
000000c0: 3ddd 46be 547d 2c3d b29e ac3f 5c8f 13be
000000d0: 66af 4dbe ee29 ebbe 309b 55be 8945 143f
000000e0: c21c 25bd cfe1 3bbe e8b3 83be d747 70be
000000f0: 4c19 1dbe c1bb 153f 7c53 0abe d540 11bf
00000100: bccd fabd d281 b23d db28 78be 38ee 303f
00000110: c062 013f 4c3f 203d 1c70 babc 103f 94be
00000120: 5205 953f d258 fa3f a4d1 a0bf cfb2 0840
00000130: d8e2 41bf fed3 9ebf b023 acbf c424 50be
00000140: 3e7c 5abe 5ac0 913b d7b4 793f 30c1 a93e
00000150: 9135 f6bd 1b3d bbbe ff45 a7bf 79fd 25be
00000160: c4a8 b93e 5c7f b13d c5cb 42bf bf09 893f
00000170: 82dc 2e3f 7105 293e 816b 9a3e 561f 03bf
00000180: 1157 b1be 0d62 b3be 777c 843e 86c6 2d3e
00000190: 5b34 c0be bd1e a93e 433a 0abf d1dd c7bc
000001a0: bdb5 c43e d2ef 733f 824c 2ebd 17fc 953f
000001b0: da37 c13e af41 85bf 6625 dbbe bfea 20be
000001c0: 2b43 da3e 0b68 b23e 0911 b23e 676b 3e3f
000001d0: 82de 8abe 3590 58be bd5a c7be a6e2 c43d
000001e0: 1c39 e6be 1ca6 2f3e e2a3 b5bd 74f7 9ebd
000001f0: 13a3 44be 88f2 9f3e f9bf 2d3e 6fee f7be
00000200: c056 6dbd 71d1 efbc 2302 e33d da0a 713e
00000210: 76c3 9b3e bc6b 2f3e 43f0 d63b 9d18 00be
00000220: 3a38 0fbe ddc2 273e a031 163e 300f 7d3e
00000230: 4f37 0cbe fa27 293d eb8f 8abd 50df 0abe
00000240: 55bf 4dbe abb8 ccbd 3cc9 f1be cee4 79bf
00000250: 04cb 6d3e acd2 ed3e e45a 933f d25b 893e
00000260: 93c2 b6be b0ef d6bd e3a7 5b3f 98d3 36be
00000270: 0c34 babd 4afb f43d 9a6c 19bf bb86 e7bc
00000280: 4e30 efbe 938c aa3b 7f19 9c3f 3221 f73d
00000290: 1034 37be f6ab bd3e dd81 23bf f743 493e
000002a0: 70f7 d23c 6911 9cbd 0e67 d7bd d0d5 5b3e
000002b0: abc9 2a3d 49c8 99be a037 813e 1873 0e3c
000002c0: c7f3 7c3e 4a7a 663e 6a53 bc3d cb94 ca3e
000002d0: b4ea 96bd f149 d9bc 5e5d f6be 679a 7c3e
000002e0: b477 bcbe 373f 3ebe df3a f8be 50ba 8fbe
000002f0: 3a69 bd3d 123e 943e 7840 42be ff76 23bf
00000300: 4aad e6bd 2f3f 90be 9c86 3bbf 1ac9 243f
00000310: 2a74 733f 479c bf3b d9cb c63e dd5a fe3e
00000320: 8ee6 893f 7109 d03f 36de aa3e beb3 cd3f
00000330: a1fd de3e 1e0d 00c0 0fb9 21bf 7fb3 0b3f
00000340: 91e4 21bf 18d6 8fbe 2ad5 1a3c 09c7 5cbf
00000350: e1ce 1a3f ca06 523e b4c8 863e 0f4e 693e
00000360: 2da8 4cbe a81a 27bf e50b 12bf 91fe d1be
00000370: 7b86 b43f f4ce f4be b112 693f fbf5 413f
00000380: ca43 55be 5ad1 6f3e 2eeb b43e b78a dc3e
00000390: 0a7b 9f3d 94df 0bbe 287c d8bd 7dbd 113d
000003a0: e171 523e 07cd 883f 2bd2 a63e b175 4f3f
000003b0: 7085 083f fc10 9abf 87eb 0bbd 12f6 0e3f
000003c0: 953f a53d 15c6 143f 0b88 663f 6042 d53d
000003d0: a990 8a3e 8527 fabe 8be2 98be a672 053f
000003e0: ce7c 78be 9d17 9d3e e3a9 373e 5f9b c73e
000003f0: 9247 42bf a6e1 083e de12 95be a547 77bd

lstm.bias_ih_l0 f4 [32]
0.35580844 0.4947472 0.30422106 0.6638496 -0.096114606 0.49736932 0.35861152 -0.20090027
0.020708684 -0.08989756 -0.4143327 -0.12395583 0.021105137 -0.34693563 -0.5055446 -0.5438978
0.08030088 -0.052706126 -0.12005851 -0.09855395 -0.24978626 -0.326922 -0.017988943 0.06251129
-0.23043214 0.28444347 0.36084524 0.4145649 0.3400519 0.66769934 0.18732971 -0.13401332
00000000: 862c b63e 814f fd3e ddc2 9b3e 0cf2 293f
00000010: bcd7 c4bd 31a7 fe3e ee9b b73e cdb8 4dbe
00000020: 42a5 a93c 361c b8bd 6a23 d4be 8edc fdbd
00000030: aee4 ac3c 8ca1 b1be 5f6b 01bf e33c 0bbf
00000040: ca74 a43d 61e2 57bd 3ce1 f5bd a7d6 c9bd
00000050: f8c7 7fbe 5262 a7be 8c5d 93bc eb05 803d
00000060: 67f6 6bbe 93a2 913e b5c0 b83e da41 d43e
00000070: 481b ae3e 58ee 2a3f 5cd3 3f3e ca3a 09be

lstm.bias_hh_l0 f4 [32]
0.39820004 0.41418025 0.14380647 0.41056708 0.013386186 0.48432186 0.4958475 -0.2690977
0.030678798 0.17712295 -0.19530122 -0.70476466 -0.17128634 -0.30906692 -0.4807043 0.016103726
-0.04963631 0.0844009 0.15363134 0.13923745 0.26529482 0.1982718 -0.0067382837 0.03890201
0.33030486 0.46199444 0.30661452 0.49306393 -0.18884364 0.54652774 0.2566792 -0.2881863
00000000: e0e0 cb3e 6f0f d43e 0142 133e d935 d23e
00000010: bc51 5b3c 09f9 f73e b9df fd3e 2cc7 89be
00000020: 1a52 fb3c b85f 353e 0bfd 47be 756b 34bf
00000030: b065 2fbe 053e 9ebe e01e f6be f6eb 833c
00000040: 724f 4bbd 61da ac3d 8951 1d3e 4394 0e3e
00000050: b9d4 873e c307 4b3e d2cc dcbb b757 1f3d
00000060: b81d a93e 898a ec3e 94fc 9c3e e072 fc3e
00000070: 3a60 41be 3ee9 0b3f 756b 833e 288d 93be

lstm.weight_ih_l1 f4 [32, 8]
1.3443636 1.6016283 -0.5758132 1.1954256 6.595688e-05 -1.6011206 -0.32404304 0.6026925
0.28029945 0.4560012 -0.14804487 0.07559537 0.3203658 -0.3314472 -0.23978043 -0.38572735
0.00033267218 0.71263206 -0.011403929 0.029886585 0.010384041 -0.20607421 -0.32657272 0.39927316
-0.5699281 -0.1338792 -0.3051055 0.08867292 0.40625617 0.604853 0.6047102 -0.5280317
0.14506231 0.9522958 -0.02506396 0.6599979 0.11079248 -0.7211377 -0.03465473 0.07373179
-0.29376477 0.038224246 -0.5608456 -0.0267808 0.4896235 0.53465384 0.45432267 -0.5083158
-0.03868982 -0.23917466 -0.87316006 0.5082109 0.81692517 0.26565897 0.75431883 -0.4296881
-0.5627176 -0.3622234 -0.5125346 -0.55303115 0.69295555 0.6194623 0.52978444 -0.050743803
0.03582048 0.93848234 -0.13085173 0.5326592 -0.17101796 -1.0364399 -0.6254405 0.07117351
0.2746496 0.44158995 -0.20374857 0.34948167 -0.118998565 0.0054367664 0.08452082 0.16324383
0.03932703 0.5649041 -0.13857241 0.17975666 -0.13239963 -0.43006876 -0.4322376 0.0004254772
-0.656061 0.013515893 0.28131783 -0.7059358 -0.0020079566 0.75632 0.16863324 -0.11673234
-0.2990265 0.46340492 0.4742109 0.14746782 0.0051649427 -0.3238069 -0.8196256 -0.38638702
0.04508786 0.2888059 0.37855065 0.6997732 -0.371933 0.018335296 -0.40547234 0.055119213
0.001467819 0.26263073 0.77346826 -0.13219926 -0.18273658 -0.19943665 -0.13361253 -0.20518912
-0.041878216 0.63939875 0.29310483 0.36100397 0.18794851 -0.16623506 -0.3778697 0.26797205
-0.39817858 -0.48666507 0.20887908 -0.3921589 -0.26056138 0.6715588 0.23472781 -0.12358693
-0.16082181 0.3500224 0.13839124 -0.1401932 -0.36430126 0.070823684 -0.18553956 0.017968193
-0.07040713 -0.49814606 0.013192191 -0.02841312 0.12735146 0.5200191 -0.09093111 -0.18301332
-0.012424359 -0.053153083 0.0052696634 0.081408925 0.41516048 0.32483876 0.2681736 -0.3953827
-0.06865029 -0.27343306 -0.10583654 0.03817838 0.26451176 0.2115092 0.30277237 0.16950178
0.13969928 0.012282625 0.3515377 -0.026893815 -0.26473922 -0.32282013 -0.32979032 0.14115733
0.25185752 -0.23053113 -0.11239999 0.048199534 -0.5843878 -0.35568205 -0.7241945 0.18550105
0.13476041 -0.09281284 0.27817938 0.016271824 -0.4558232 0.15184765 -0.4371497 0.26772603
1.1704257 1.5660336 -0.413545 1.1742308 -0.041056305 -1.4034818 -0.3460083 0.10481466
0.2395256 0.4985892 0.34326035 0.18503939 -0.04008547 -0.6212162 -0.61803734 -0.117410526
0.3148064 0.7439483 0.34700343 0.38231882 -0.06479985 -0.69562453 -0.26973125 0.23998158
-0.5654983 -0.294251 0.01933956 0.12848438 0.32153526 1.1175425 0.37622058 -0.63373494
0.5145717 1.4628936 -0.29452485 0.8337164 -0.16428123 -0.50905836 -0.4454095 -0.23943813
0.007400708 -0.27581742 -0.5998749 -0.077035315 -0.15367343 0.48531672 0.31249043 -0.5436408
0.026825193 0.17896041 -0.86469114 0.09694408 0.5925998 0.26168203 1.0235513 0.24162687
-0.04848464 0.08381744 -0.059109624 0.35855648 0.54465115 0.2595563 0.045051467 -0.24084547
00000000: 1b14 ac3f 2802 cd3f 7e68 13bf b503 993f
00000010: 5552 8a38 85f1 ccbf f8e8 a5be 0e4a 1a3f
00000020: 6983 8f3e fd78 e93e 1399 17be bfd1 9a3d
00000030: fc06 a43e 73b3 a9be 0089 75be 0e7e c5be
00000040: 816a ae39 0e6f 363f 8cd7 3abc b6d4 f43c
00000050: d321 2a3c 1e05 53be 8a34 a7be 886d cc3e
00000060: cfe6 11bf a117 09be ca36 9cbe 269a b53d
00000070: cf00 d03e a5d7 1a3f 4ace 1a3f 162d 07bf
00000080: 378b 143e a8c9 733f ef52 cdbc 9ff5 283f
00000090: 2be7 e23d 7b9c 38bf 1ef2 0dbd b100 973d
000000a0: 5668 96be 0791 1c3d 9493 0fbf 6963 dbbc
000000b0: eeaf fa3e 13df 083f fb9c e83e fc20 02bf
000000c0: 3779 1ebd 34ea 74be 6b87 5fbf 1c1a 023f
000000d0: 0222 513f 7404 883e 0a1b 413f 1400 dcbe
000000e0: 430e 10bf 5875 b9be 7835 03bf 7393 0dbf
000000f0: 8965 313f 1595 1e3f f49f 073f bcd8 4fbd
00000100: 7fb8 123d 6140 703f fffd 05be 5a5c 083f
00000110: 551f 2fbe 10aa 84bf de1c 20bf 6bc3 913d
00000120: df9e 8c3e 1418 e23e 77a3 50be 43ef b23e
00000130: 85b5 f3bd e726 b23b 4019 ad3d 6429 273e
00000140: 6115 213d 8e9d 103f ede5 0dbe 2112 383e
00000150: c593 07be f931 dcbe 3f4e ddbe 9512 df39
00000160: 9df3 27bf c471 5d3c e408 903e 35b8 34bf
00000170: ec97 03bb 309e 413f 31ae 2c3e 5d11 efbd
00000180: 001a 99be 6943 ed3e c5cb f23e ce01 173e
00000190: ae3e a93b 05ca a5be fcd2 51bf 85d4 c5be
000001a0: 0cae 383d 5ede 933e 64d1 c13e 5624 333f
000001b0: 016e bebe e733 963c 129a cfbe afc4 613d
000001c0: d563 c03a 8977 863e 0402 463f 3e5f 07be
000001d0: 4c1f 3bbe 1f39 4cbe b9d1 08be 191d 52be
000001e0: 7e88 2bbd a3af 233f d611 963e 83d5 b83e
000001f0: 9375 403e 8639 2abe 2378 c1be a233 893e
00000200: 10de cbbe 2a2c f9be 66e4 553e 0dc9 c8be
00000210: 4d68 85be 47eb 2b3f 7d5c 703e 251b fdbd
00000220: 79ae 24be 2336 b33e 6fb6 0d3e ce8e 0fbe
00000230: b285 babe 020c 913d 15fe 3dbe 0832 933c
00000240: 9d31 90bd 000d ffbe 0f24 583c a2c2 e8bc
00000250: 6c68 023e f91f 053f 173a babd d867 3bbe
00000260: 8a8f 4bbc 0cb7 59bd 24ad ac3b b9b9 a63d
00000270: ea8f d43e 4451 a63e 0d4e 893e 9a6f cabe
00000280: 8698 8cbd 6bff 8bbe d4c0 d8bd ef60 1c3d
00000290: 166e 873e de95 583e fb04 9b3e e091 2d3e
000002a0: 540d 0f3e 103d 493c c0fc b33e 6b50 dcbc
000002b0: e68b 87be ae48 a5be 47da a8be 8c8b 103e
000002c0: 78f3 803e 5a10 6cbe f731 e6bd e06c 453d
000002d0: 709a 15bf f51b b6be d064 39bf fdf3 3d3e
000002e0: a2fe 093e a914 bebd 876d 8e3e 7d4c 853c
000002f0: a961 e9be f37d 1b3e 16d2 dfbe 6313 893e
00000300: 82d0 953f ca73 c83f 2cbc d3be 324d 963f
00000310: a82a 28bd 4ba5 b3bf 0028 b1be 12a9 d63d
00000320: 3346 753e 1547 ff3e d2bf af3e f77a 3d3e
00000330: a930 24bd 0608 1fbf b237 1ebf ee74 f0bd
00000340: 4e2e a13e 6573 3e3f 6faa b13e 4bbf c33e
00000350: c9b5 84bd 7314 32bf 371a 8abe bbbd 753e
00000360: 7fc4 10bf 11a8 96be ff6d 9e3c 6991 033e
00000370: 45a0 a43e a20b 8f3f fc9f c03e 743c 22bf
00000380: f9ba 033f 1940 bb3f f6cb 96be 706e 553f
00000390: 5739 28be a651 02bf b70c e4be 452f 75be
000003a0: a381 f23b f137 8dbe 6791 19bf b1c4 9dbd
000003b0: 915c 1dbe 6f7b f83e bffe 9f3e 0b2c 0bbf
000003c0: 82c0 db3c 6641 373e 665c 5dbf 9e8a c63d
000003d0: 9fb4 173f 30fb 853e bb03 833f 096d 773e
000003e0: d497 46bd 7aa8 ab3d ef1c 72bd b794 b73e
000003f0: 426e 0b3f 90e4 843e e387 383d 32a0 76be

lstm.weight_hh_l1 f4 [32, 8]
-0.4570144 -0.29624534 -0.12617874 -0.45268992 -0.2755284 0.75671226 1.3620912 0.83554727
-0.11472527 0.081070326 0.0047394563 0.27295053 0.4805018 -0.21375255 -0.29206133 -0.5916342
0.019222276 0.17360274 0.25935668 0.48624125 0.48233253 -0.4325655 -0.5113731 -0.112209536
-0.35326165 -0.28674302 0.35193577 -0.16608137 -0.06403305 0.07662257 0.5598116 -0.06882789
0.11393506 -0.21195777 0.026691178 -0.4514066 0.08665561 0.32699212 0.7587553 0.1744278
-0.13620837 -0.45757622 0.47644272 0.0849069 -0.07904259 0.6421442 0.40962315 -0.016432608
-0.701529 0.0615401 -0.65623105 -0.1812345 -0.38836837 -0.069389164 0.5560535 0.24109036
-0.008986769 -0.4000769 0.26243845 -0.24899837 0.2503013 0.19933383 0.11767323 -0.036443155
-0.20069623 -0.09699575 0.1396991 -0.5457086 0.009706369 0.4255761 1.5344 -0.053027533
-0.046002906 0.058686316 0.44536373 -0.061949156 0.17550598 -0.3058169 -0.51506585 -0.56254387
0.44824925 0.16238858 0.116161086 0.4077288 0.16944875 -0.17106487 -0.010778072 -0.6192905
0.85633755 -0.457805 0.4059418 0.14717865 0.6825878 -0.20341764 -0.6942701 0.22710802
0.23296301 -0.28373998 0.3016248 -0.21133089 0.4074117 0.45484868 0.8548937 -0.50349367
-0.29010522 -0.41224355 0.65861064 -0.097346105 0.014301051 0.19881512 0.570458 -0.1545144
0.64162683 -0.20718405 0.467511 0.18016066 0.60351664 0.030456413 0.1634289 -0.032469325
-0.064273246 -0.06872297 0.41093203 0.42008215 0.21650556 0.036174107 -0.4638801 -0.14777358
-0.38991377 0.35824084 -0.36863384 -0.04464181 -0.028248353 0.576622 0.4564104 0.47064683
-0.019070847 -0.10395472 0.280493 0.43639174 0.21737553 -0.5470841 -0.47717327 -0.5625275
-0.4826699 0.1333057 0.27775934 -0.5220722 -0.57155156 0.31752753 0.7587011 0.20212002
-0.1405133 -0.13142893 -0.20543379 -0.06290339 -0.23144075 -0.10604927 0.18411738 -0.21976392
-0.6836803 0.20792085 -0.324827 -0.022933425 -0.5778122 0.2525072 0.09189004 -0.23957953
0.37947226 -0.008154723 0.1774866 0.05564565 0.05686572 -0.13951255 -0.5461886 -0.50621074
0.5270334 -0.34289268 0.16592465 0.24033616 -0.026698126 -0.14395292 -0.04906011 -0.32410622
-0.06699388 0.06719201 -0.06671709 0.20460205 0.37054077 -0.5200667 -0.30130047 -0.2530791
-1.0366402 0.34776768 -0.0146019 -0.21268539 -0.6232031 0.4854969 0.78019756 0.28702292
0.44723207 -0.36664152 -0.106039345 -0.071003094 0.48377174 -0.08904792 -0.14995767 -0.50906044
-0.02916091 0.0010560461 0.16184038 0.09673583 0.15676416 -0.042557333 0.10967997 -0.21368237
0.4606173 -0.5713354 0.24521297 0.2333303 0.3095497 -0.14247398 -0.10979834 -0.23270679
-0.46714792 -0.21428268 0.0140163675 -0.48843157 0.11689585 0.2757891 0.9830858 0.18717924
-0.762873 -0.024780547 0.1954838 -0.38011566 -0.17903867 0.30574208 0.3582789 0.13094874
-0.5221726 0.37516916 -0.49764454 0.08605091 0.053602 0.012599952 -0.36749208 0.16379419
0.050836157 -0.15225767 -0.029693125 -0.15163825 -0.18738316 0.04252614 0.345626 -0.18819226
00000000: cbfd e9be 78ad 97be 0035 01be f9c6 e7be
00000010: 0f12 8dbe e5b7 413f 0159 ae3f 6de6 553f
00000020: 15f5 eabd 3308 a63d 714d 9b3b 2cc0 8b3e
00000030: 5504 f63e f3e1 5abe 1089 95be 5775 17bf
00000040: 0978 9d3c ebc4 313e 66ca 843e 9df4 f83e
00000050: 4af4 f63e 3a79 ddbe 59e9 02bf 1dce e5bd
00000060: b6de b4be fbcf 92be ed30 b43e 3c11 2abe
00000070: c223 83bd 4bec 9c3d d04f 0f3f a3f5 8cbd
00000080: c956 e93d 750b 59be 75a7 da3c c41e e7be
00000090: 7f78 b13d 836b a73e ca3d 423f 349d 323e
000000a0: 357a 0bbe 6e47 eabe 4df0 f33e abe3 ad3d
000000b0: 15e1 a1bd 9063 243f 20ba d13e ad9d 86bc
000000c0: 6897 33bf 7911 7c3d c2fe 27bf 8995 39be
000000d0: 38d8 c6be e81b 8ebd 8659 0e3f 64e0 763e
000000e0: 3e3d 13bc e1d6 ccbe 555e 863e 6ef9 7ebe
000000f0: 7e27 803e 2b1e 4c3e aafe f03d 6b45 15bd
00000100: 5083 4dbe b5a5 c6bd 480d 0f3e 8fb3 0bbf
00000110: 7607 1f3c 1ce5 d93e 3867 c43f 6633 59bd
00000120: 8b6d 3cbd 1061 703d b706 e43e 66be 7dbd
00000130: d7b7 333e 0894 9cbe 5bdb 03bf e002 10bf
00000140: ed80 e53e 3149 263e dde5 ed3d d4c1 d03e
00000150: f983 2d3e a12b 2fbe 8396 30bc d289 1ebf
00000160: f038 5b3f 6b65 eabe 9bd7 cf3e 00b6 163e
00000170: 13be 2e3f b74c 50be afbb 31bf 018f 683e
00000180: db8d 6e3e 5e46 91be 916e 9a3e 2067 58be
00000190: 4498 d03e ede1 e83e 50da 5a3f f6e4 00bf
000001a0: ac88 94be 9611 d3be b59a 283f 655d c7bd
000001b0: f54e 6a3c 3196 4b3e 8909 123f 0639 1ebe
000001c0: a841 243f 0e28 54be 9a5d ef3e 097c 383e
000001d0: 1180 1a3f ba7f f93c e859 273e 8efe 04bd
000001e0: b1a1 83bd a1be 8cbd af65 d23e 0215 d73e
000001f0: a2b3 5d3e 4d2b 143d b181 edbe f551 17be
00000200: c7a2 c7be 586b b73e 93bd bcbe 55da 36bd
00000210: 1769 e7bc 809d 133f a0ae e93e 9ff8 f03e
00000220: 773a 9cbc 36e6 d4bd c79c 8f3e bd6e df3e
00000230: b197 5e3e b40d 0cbf 0e50 f4be cd01 10bf
00000240: 8220 f7be 4a81 083e 7936 8e3e 86a6 05bf
00000250: 3451 12bf f892 a23e 3c3a 423f 8df8 4e3e
00000260: b8e2 0fbe 4e95 06be 3c5d 52be 7ed3 80bd
00000270: cefe 6cbe 5c30 d9bd 4489 3c3e cb09 61be
00000280: ac05 2fbf 34e9 543e b94f a6be e1de bbbc
00000290: 80eb 13bf a048 813e d830 bc3d 5654 75be
000002a0: 304a c23e 639b 05bc 0cbf 353e b1ec 633d
000002b0: 07ec 683d 61dc 0ebe 04d3 0bbf 0797 01bf
000002c0: a9eb 063f a18f afbe 27e8 293e af1a 763e
000002d0: 07b6 dabc 6568 13be 41f3 48bd 40f1 a5be
000002e0: 1634 89bd f79b 893d f8a2 88bd 3383 513e
000002f0: 85b7 bd3e 1723 05bf 0e44 9abe 9593 81be
00000300: a0b0 84bf 9b0e b23e cf3c 6fbc 33ca 59be
00000310: 3d8a 1fbf 0d93 f83e 07bb 473f abf4 923e
00000320: 9afb e43e 70b8 bbbe 282b d9bd 126a 91bd
00000330: eeb0 f73e c25e b6bd 818e 19be c951 02bf
00000340: dce2 eebc 076b 8a3a 7cb9 253e 6f1d c63d
00000350: c986 203e 9950 2ebd e49f e03d 8dcf 5abe
00000360: 08d6 eb3e 0943 12bf 1c19 7b3e 23ee 6e3e
00000370: 4c7d 9e3e b3e4 11be f4dd e0bd b04a 6ebe
00000380: 032e efbe eb6c 5bbe e8a4 653c b413 fabe
00000390: 1767 ef3d 3b34 8d3e 83ab 7b3f eaab 3f3e
000003a0: a54b 43bf 9300 cbbc e82c 483e 859e c2be
000003b0: ea55 37be 3a8a 9c3e 5570 b73e 6d17 063e
000003c0: 1aad 05bf 2c16 c03e 44cb febe 763b b03d
000003d0: c58d 5b3d 0770 4e3c ec27 bcbe aab9 273e
000003e0: 9339 503d 6fe9 1bbe ff3e f3bc 0f47 1bbe
000003f0: 5fe1 3fbe e42f 2e3d e4f5 b03e 79b5 40be

lstm.bias_ih_l1 f4 [32]
0.3584191 -0.16078402 -0.08684411 -0.2778075 -0.29046792 -0.500753 0.5543995 -0.06422907
-0.340327 0.07875558 -0.07109557 -0.2038708 -0.756401 -0.06508845 -0.19237715 0.07801553
0.021061096 0.106671795 -0.27797344 -0.18996161 -0.12941772 0.123944744 0.14916633 0.31424794
0.24400137 -0.2864679 0.31233367 -0.27244157 0.027963236 0.0135654975 0.45406303 -0.22003265
00000000: b582 b73e 91a4 24be 53db b1bd c93c 8ebe
00000010: 36b8 94be 5931 00bf 20ed 0d3f 888a 83bd
00000020: 573f aebe 9b4a a13d 8e9a 91bd 82c3 50be
00000030: 7fa3 41bf 184d 85bd 84fe 44be 9bc6 9f3d
00000040: 5288 ac3c be76 da3d 8952 8ebe 4c85 42be
00000050: 1486 04be bed6 fd3d 0fbf 183e 1be5 a03e
00000060: 7fdb 793e ecab 92be 33ea 9f3e 767d 8bbe
00000070: 2813 e53c d241 5e3c f37a e83e 3d50 61be

lstm.bias_hh_l1 f4 [32]
-0.21881296 0.2751555 -0.28915432 -0.5049447 0.058720324 -0.46420407 0.17061943 -0.37423187
-0.6272695 -0.20071557 -0.29392466 -0.034586944 -0.64423066 -0.14493144 0.10372892 -0.32085374
-0.10503967 0.30496973 -0.22600915 0.16260976 0.048206817 -0.08277939 -0.06827987 -0.30283028
0.324379 -0.3047928 -0.20959713 -0.0060821613 -0.2944222 0.048963174 0.29313254 -0.12269711
00000000: 8110 60be 2fe1 8c3e 090c 94be 0e44 01bf
00000010: b984 703d 28ac edbe dcb6 2e3e 529b bfbe
00000020: bc94 20bf 6288 4dbe 4b7d 96be 0aab 0dbd
00000030: 4dec 24bf e868 14be d46f d43d f146 a4be
00000040: 0a1f d7bd fe24 9c3e f16e 67be 2c83 263e
00000050: 8374 453d 3e88 a9bd 51d6 8bbd 920c 9bbe
00000060: 0115 a63e cd0d 9cbe a1a0 56be de4c c7bb
00000070: 82be 96be 9c8d 483d 7815 963e 9f48 fbbd

fc.weight f4 [1, 8]
0.29967847 -0.1267119 0.28565323 0.0630097 0.06392331 -0.12055574 -0.11645682 -0.10075561
00000000: 756f 993e c4c0 01be 2441 923e 3b0b 813d
00000010: 39ea 823d eee5 f6bd ea80 eebd f558 cebd
