models/Kozhikode_model.pth (torch, 6156 bytes, 9 tensors)

lstm.weight_ih_l0 f4 [32, 1]
-1.1774588 0.8721359 -3.7247236 -0.72252315 -0.823682 -0.5394326 1.0222586 -3.172317
-1.2133934 1.3975123 -1.7466878 0.18340422 -0.72614926 -1.0421999 0.9404838 -2.1974247
-1.4796965 1.7085892 2.0572064 2.5176928 0.22682415 0.4845711 0.91215324 1.6282057
-1.2550731 1.4741416 -2.9698277 0.52136415 -0.940855 -1.1790147 0.98817545 -2.5527372
00000000: f8b6 96bf 4c44 5f3f df61 6ec0 47f7 38bf
00000010: d3dc 52bf 4118 0abf 5fd9 823f 3e07 4bc0
00000020: 7a50 9bbf afe1 b23f 7793 dfbf 51ce 3b3e
00000030: ebe4 39bf ce66 85bf 8cc3 703f 9ba2 0cc0
00000040: b266 bdbf 0db3 da3f 45a9 0340 e121 2140
00000050: 9744 683e b419 f83e e082 693f 0b69 d03f
00000060: 3ca6 a0bf acb0 bc3f a811 3ec0 1f78 053f
00000070: e0db 70bf f4e9 96bf 11f9 7c3f 0c60 23c0

lstm.weight_hh_l0 f4 [32, 8]
0.87976015 0.50195503 0.4125579 0.9867697 -0.2604247 -0.48460865 0.90972185 1.3553593
-0.00725877 0.34876263 0.17463799 -0.2535907 -0.469608 -0.21958792 0.112545155 0.03323138
-0.016348833 0.42115244 -0.22079755 -0.71208715 -0.42427325 -0.3559888 -0.03186321 -0.035513557
1.7474592 0.57325745 -0.30166543 0.2933933 -1.6836231 -1.3063238 0.8358133 -0.61926454
0.45165947 0.40533027 0.4529888 0.5401983 0.36979997 -0.10502425 0.41324165 0.04654901
-0.27075204 0.50351757 0.44402224 0.39910808 0.20847578 0.062608846 0.12417174 0.22342278
-0.45484808 0.051889557 0.4828889 -0.43280149 -0.032973718 0.4045274 -0.27323502 0.096664324
0.9442209 -0.4671042 -0.2156059 -0.8209211 0.18216434 -0.3682934 0.34342661 -0.41157967
0.4177403 0.04218202 0.52529335 0.24546361 -0.58054507 -0.5240284 -0.024155013 0.60027564
-0.20512459 -0.08654342 0.05070922 -0.734668 0.18196897 -0.08600786 -0.53989094 -0.21304369
0.51399136 0.28647938 -0.13367918 -0.77650625 -0.42336917 0.07030788 0.08230793 -0.40697065
-0.16572401 -0.6492876 -0.4403445 -1.046365 0.26218206 0.035248995 -0.22420591 -1.3883842
0.084263496 0.34364635 0.12518437 0.20029227 -0.04077086 -0.06536689 0.13939728 0.37408343
-0.0018947339 -0.16211893 0.36951634 0.20342335 0.23634498 0.15033069 0.20200905 0.09981259
-0.25221685 -0.16106151 0.20157468 -0.17240837 0.47297 0.024235519 -0.05964382 0.38229775
0.090120815 -0.5793037 -0.326426 -0.7497763 -0.3714466 0.14037646 -0.13295946 -0.5391163
0.22456458 0.26411885 0.94455546 0.41469496 -0.19970652 -0.16199923 -0.089268096 1.2876658
-0.35974523 -0.3253099 0.010596633 0.0446518 -0.12381289 0.10266667 -0.272397 -0.18040277
0.095068276 0.23679186 0.43923947 -0.10307671 -0.38343528 -0.09777903 0.16814886 0.093239404
0.19732293 0.047563065 0.0069832327 -0.43378112 0.25891206 -0.056864437 0.109127104 0.20586352
-0.2720614 -0.32178402 0.14789902 -0.4845987 0.26526964 0.3164954 -0.02739276 0.11935106
0.09243008 -0.19258863 -0.17333381 -0.42182097 -0.43290594 -0.3326981 0.0053194016 -0.3817764
-0.5312912 -0.10458853 0.028739838 0.02757274 -0.02024313 0.029090233 -0.3997509 -0.05766058
-0.28051728 -0.26340592 0.4741003 0.37498033 -0.11339928 -0.12561965 0.061724845 0.06518668
0.24349682 0.4684208 0.097337455 0.4267302 -0.252359 -0.45879516 0.85936815 0.9408049
-0.4025789 0.19310674 0.05651706 -0.039747234 -0.0899682 -0.28023842 0.023409495 0.22857216
0.37615392 0.11965751 -0.43579507 -0.4491828 -0.32625997 -0.03128504 0.3988669 -0.37363258
1.9062332 0.37391835 -1.2845896 -0.44179866 -1.664571 -1.1217321 0.9790141 -0.70360154
-0.11771558 -0.35509562 -0.09766823 0.04974965 0.12222403 0.086468905 -0.23563837 0.20179683
0.04189351 0.32208246 0.055597663 0.12449526 0.1535584 0.20875528 0.097808756 0.22332795
-0.18616912 -0.20041384 0.03538491 0.042637486 0.39654934 -0.009737244 -0.05188252 -0.043924596
0.84238935 0.17585406 -0.28909945 -1.2410145 -0.38849762 -0.17803584 0.100724004 0.00780438
00000000: f637 613f 2080 003f ca3a d33e f09c 7c3f
00000010: 6356 85be a01e f8be 88e3 683f 6a7c ad3f
00000020: fada edbb 0491 b23e 4dd4 323e a4d6 81be
00000030: 7670 f0be a8db 60be 137e e63d a11d 083d
00000040: fded 85bc 4ba1 d73e c118 62be 584b 36bf
00000050: 583a d9be 2a44 b6be ff82 02bd aa76 11bd
00000060: beac df3f 00c1 123f e473 9abe a637 963e
00000070: f680 d7bf 9e35 a7bf dcf7 553f 1f88 1ebf
00000080: e93f e73e 7387 cf3e 26ee e73e 704a 0a3f
00000090: 6c56 bd3e f416 d7bd 6994 d33e 2daa 3e3d
000000a0: 03a0 8abe 87e6 003f e256 e33e e557 cc3e
000000b0: ad7a 553e 1139 803d c14d fe3d f1c8 643e
000000c0: d9e1 e8be 258a 543d 373d f73e 2898 ddbe
000000d0: 730f 07bd 371e cf3e 76e5 8bbe f2f7 c53d
000000e0: 76b8 713f 4828 efbe cbc7 5cbe e327 52bf
000000f0: 4a89 3a3e f490 bcbe 9dd5 af3e 92ba d2be
00000100: 0ee2 d53e 0ec7 2c3d a079 063f d05a 7b3e
00000110: 9a9e 14bf ba26 06bf bce0 c5bc aaab 193f
00000120: 2e0c 52be ad3d b1bd 79b4 4f3d 3413 3cbf
00000130: 1356 3a3e e424 b0bd 4b36 0abf 2028 5abe
00000140: f094 033f 6dad 923e 32e3 08be 1dc9 46bf
00000150: d8c3 d8be 94fd 8f3d 0f91 a83d 755e d0be
00000160: 8eb3 29be b637 26bf d674 e1be 4aef 85bf
00000170: ba3c 863e 4061 103d 3c96 65be 93b6 b1bf
00000180: 5792 ac3d 6af2 af3e 5530 003e 6b19 4d3e
00000190: 58ff 26bd 13df 85bd 29be 0e3e dd87 bf3e
000001a0: b858 f8ba 8102 26be 3f31 bd3e 364e 503e
000001b0: 6b04 723e 4af0 193e 76db 4e3e 8b6a cc3d
000001c0: 9122 81be 4fed 24be 9869 4e3e d28b 30be
000001d0: 2029 f23e 9189 c63c 144d 74bd 88bc c33e
000001e0: 4391 b83d 3f4d 14bf 4f21 a7be 57f1 3fbf
000001f0: 402e bebe d9be 0f3e 8626 08be 8703 0abf
00000200: 42f4 653e 963a 873e 63ce 713f e652 d43e
00000210: de7f 4cbe 20e3 25be 31d2 b6bd 3cd2 a43f
00000220: 8730 b8be 058f a6be 809d 2d3c cee4 363d
00000230: 9d91 fdbd e742 d23d 9f77 8bbe 81bb 38be
00000240: 28b3 c23d 9179 723e ffe3 e03e e219 d3bd
00000250: a151 c4be 5f40 c8bd 372f 2c3e 4df4 be3d
00000260: 060f 4a3e 7dd1 423d 9ad3 e43b 8f18 debe
00000270: 1f90 843e afea 68bd 087e df3d e3cd 523e
00000280: a24b 8bbe e0c0 a4be d772 173e 521d f8be
00000290: 6cd1 873e af0b a23e c866 e0bc 546e f43d
000002a0: fb4b bd3d f435 45be 6b7e 31be ebf8 d7be
000002b0: d9a5 ddbe 6857 aabe 604e ae3b 3278 c3be
000002c0: b302 08bf 8332 d6bd cf6f eb3c 3ae0 e13c
000002d0: ecd4 a5bc a44e ee3c 26ac ccbe 802d 6cbd
000002e0: f69f 8fbe 24dd 86be 46bd f23e 6cfd bf3e
000002f0: e23d e8bd 70a2 00be 31d3 7c3d 9880 853d
00000300: 3b57 793e dad4 ef3e dc58 c73d 617c da3e
00000310: 3335 81be 33e7 eabe 8dff 5b3f 97d8 703f
00000320: d21e cebe c6bd 453e 6f7e 673d ffcd 22bd
00000330: 3f41 b8bd 697b 8fbe 45c5 bf3c d20e 6a3e
00000340: 3f97 c03e ff0e f53d 8820 dfbe 4afb e5be
00000350: 8c0b a7be be24 00bd 4838 cc3e c54c bfbe
00000360: 73ff f33f 3a72 bf3e 6f6d a4bf 6f33 e2be
00000370: aa10 d5bf eb94 8fbf aba0 7a3f 3b1f 34bf
00000380: de14 f1bd 18cf b5be 4806 c8bd 4ac6 4b3d
00000390: 9850 fa3d 9c16 b13d 2f4b 71be d4a3 4e3e
000003a0: 8798 2b3d fee7 a43e 60ba 633d 5ff7 fe3d
000003b0: 6a3e 1d3e f2c3 553e f54f c83d 15b0 643e
000003c0: 1ea3 3ebe 4939 4dbe c4ef 103d a5a4 2e3d
000003d0: 8408 cb3e f688 1fbc c482 54bd 47ea 33bd
000003e0: d4a6 573f 1613 343e d804 94be 90d9 9ebf
000003f0: 29e9 c6be 074f 36be 6348 ce3d e2bb ff3b

lstm.bias_ih_l0 f4 [32]
0.53388005 -0.107546 -0.19604184 1.3187482 -0.180882 0.05308346 0.19708435 0.18115495
0.32143092 -0.24059294 -0.08257894 0.14554635 0.2898137 0.10241897 -0.028315136 -0.1373263
-0.18239097 -0.033230692 -0.22071628 0.086925976 -0.19732776 -0.17670731 0.18903616 0.0013168
0.4148324 0.32779795 0.44282156 0.91704714 0.27829707 -0.1484032 -0.1314249 0.06851548
00000000: 5dac 083f 1441 dcbd 31bf 48be becc a83f
00000010: 2239 39be 0b6e 593d 7bd0 493e af80 393e
00000020: 9892 a43e ff5d 76be 261f a9bd 1a0a 153e
00000030: 7662 943e 09c1 d13d 25f5 e7bc 449f 0cbe
00000040: b3c4 3abe e81c 08bd 7303 62be 3f06 b23d
00000050: 4a10 4abe c3f2 34be b292 413e 7a98 ac3a
00000060: ea64 d43e 22d5 a73e 82b9 e23e 9ac3 6a3f
00000070: f47c 8e3e 02f7 17be 4094 06be d851 8c3d

lstm.bias_hh_l0 f4 [32]
0.6554577 0.29757437 0.21350706 1.5080856 -0.28883433 -0.01797708 -0.18032204 0.18386693
0.12977222 -0.29281542 0.40368313 -0.36084223 -0.22061251 -0.07911793 -0.5585556 0.26221114
0.19709547 0.015230018 0.067777574 0.064304665 -0.3888827 -0.08992052 -0.13924547 -0.086459994
0.77608454 -0.1984112 0.019653289 1.0309341 -0.29542956 -0.23594956 -0.4668552 0.21142069
00000000: 13cc 273f ab5b 983e 98a1 5a3e f308 c13f
00000010: 18e2 93be ab44 93bc 57a6 38be 9d47 3c3e
00000020: 02e3 043e e7eb 95be 8eaf ce3e 50c0 b8be
00000030: 3fe8 61be 9508 a2bd 80fd 0ebf 8a40 863e
00000040: 65d3 493e 5387 793c f8ce 8a3d 2ab2 833d
00000050: a21b c7be 4028 b8bd 5d96 0ebe f011 b1bd
00000060: 7aad 463f 4e2c 4bbe efff a03c a6f5 833f
00000070: 8b42 97be c39c 71be a507 efbe aa7e 583e

lstm.weight_ih_l1 f4 [32, 8]
0.9554203 -0.7191124 -0.5738211 -1.4307874 0.048232388 -0.050264183 -0.025339296 -0.44208995
0.35457537 -0.3976562 0.62789494 -0.7100918 0.3704254 0.30529436 -0.5372784 0.4967979
-0.029958792 0.36261624 -0.42708686 -0.71850914 0.12541096 -0.10000503 0.010876411 0.020150347
-0.2736523 0.18203478 -0.35048342 -0.40070876 -0.054019015 -0.114390016 0.18815236 -0.058207102
1.7092922 -1.2939521 -0.03437096 -0.6899205 -0.47730082 -0.57283705 -0.33421862 -0.6719761
2.3306198 -1.0373003 -0.8513571 -1.1741339 -0.07574638 -0.34102726 -0.97299635 -0.70728886
0.4756352 0.02443929 -0.02680985 -0.9329313 0.2119121 0.090039745 0.20152122 -0.07667833
0.95195574 -1.0557293 -0.61241806 -2.6578422 -0.12321171 0.042039182 -0.2897435 -0.7350918
0.28702185 -0.27816212 0.16337404 -1.7418393 -0.018825356 0.27055162 -0.18163557 0.009278933
0.5366072 -0.5374923 0.71480983 -0.13903165 -0.040605564 0.4415576 -0.51942194 0.17064586
-0.32492507 0.3170065 -0.45571947 -0.5253666 0.27992088 0.31695083 0.09705175 -0.095637515
0.2489779 0.114726655 -0.04937251 -0.61337024 0.03927622 -0.2725089 0.5279966 -0.42298967
-0.65096724 -0.80169463 -0.5359307 -0.8319007 0.45666602 0.6084712 -0.7946378 -0.6739699
-0.046042234 0.5917998 0.3888901 0.7124942 -0.34000802 0.26848152 0.4441563 0.7785085
0.12227396 -0.3202738 -0.23970683 -0.5294705 0.25368565 0.16483119 0.09982234 -0.42398006
-0.48520494 -0.5252456 0.28811875 -1.3780594 0.22577222 0.59650564 -0.2667777 -0.46389514
-0.39049062 0.24860965 -0.124907896 1.0941659 0.30470473 0.26563373 0.13295479 -0.110784754
-0.031473007 0.27119058 -0.3472438 0.30353463 -0.25178543 0.15771078 0.038075462 -0.17831026
-0.00092093967 -0.009018679 -0.43863147 -0.16269536 -0.026983935 0.2896258 0.4484688 -0.41993165
-0.16755047 -0.13109942 0.03641531 0.25024736 0.33918428 -0.26613235 -0.5682747 0.07213944
-0.32044014 -0.43947825 0.32602 0.61196434 0.26793584 0.2635904 -0.21157157 0.15535338
0.61407226 0.2695231 -0.682135 -1.0189903 -0.45043197 -0.15289918 0.18693426 -0.053862993
-0.076209776 0.0054713213 -0.1605713 -0.33025146 -0.18363062 -0.35773343 -0.07215734 -0.39668608
-0.16550714 0.40887877 0.40025088 0.79929173 -0.08813836 0.21132152 0.1797943 0.57221305
0.9024198 -1.2133484 -0.22121419 -2.7315419 0.22478098 0.114598885 0.1567224 -0.55103534
0.0016168045 -0.49715635 0.33625045 -0.9133765 0.6782374 0.56743336 -0.34223914 0.34678832
-0.098002 -0.14420034 -0.5461912 -1.2756296 0.2604368 -0.1367986 -0.21622519 -0.08570101
-0.18425322 0.022039114 -0.34969825 -1.1864072 0.2473336 -0.014161302 0.23051906 -0.3607519
1.7568198 -0.6062261 -0.008090373 -0.65627307 0.07857708 -0.09005315 -0.7931304 -0.5212901
2.4183102 -0.96934533 0.07733115 0.07888603 -0.4188469 -0.05845258 -0.5814873 -0.25267914
0.019140245 -0.42193905 -0.4706061 -1.0565323 -0.118673295 0.32698032 0.18135697 -0.2819469
0.8913253 -1.1010826 -0.37263495 -2.8904004 -0.38776356 -0.4663195 -0.111247264 -0.18462874
00000000: 6d96 743f c017 38bf f1e5 12bf 0b24 b7bf
00000010: 538f 453d d1e1 4dbd 5b94 cfbc 9d59 e2be
00000020: e78a b53e 9899 cbbe b9bd 203f 94c8 35bf
00000030: 66a8 bd3e 8b4f 9c3e 148b 09bf 4b5c fe3e
00000040: 246c f5bc d6a8 b93e 21ab dabe 37f0 37bf
00000050: bb6b 003e 70cf ccbd f932 323c 5712 a53c
00000060: 271c 8cbe 5367 3a3e 9072 b3be b329 cdbe
00000070: 0b43 5dbd 5045 eabd 03ab 403e 926a 6ebd
00000080: 16ca da3f 39a0 a5bf 90c8 0cbd a19e 30bf
00000090: c660 f4be 73a5 12bf b41e abbe a006 2cbf
000000a0: e028 1540 42c6 84bf 8af2 59bf 054a 96bf
000000b0: eb20 9bbd 209b aebe 4a16 79bf e210 35bf
000000c0: 7586 f33e e834 c83c 55a0 dbbc 96d4 6ebf
000000d0: 7cff 583e c266 b83d 945b 4e3e 8709 9dbd
000000e0: 5fb3 733f 2322 87bf 6ec7 1cbf 161a 2ac0
000000f0: 6c56 fcbd 4731 2c3d 4359 94be fa2e 3cbf
00000100: 87f4 923e 446b 8ebe 864b 273e 97f4 debf
00000110: a237 9abc be85 8a3e adfe 39be aa06 183c
00000120: 175f 093f 1899 09bf c7fd 363f 505e 0ebe
00000130: 0552 26bd d613 e23e d6f8 04bf cabd 2e3e
00000140: 945c a6be ad4e a23e 1054 e9be 6d7e 06bf
00000150: ca51 8f3e 6147 a23e 11c3 c63d 9add c3bd
00000160: 10f4 7e3e cff5 ea3d d43a 4abd d505 1dbf
00000170: 1ae0 203d 4986 8bbe c92a 073f 1a92 d8be
00000180: caa5 26bf dc3b 4dbf c132 09bf 72f7 54bf
00000190: 21d0 e93e c5c4 1b3f 626d 4bbf 4b89 2cbf
000001a0: c896 3cbd 3180 173f 9a1c c73e 0566 363f
000001b0: 8815 aebe 6976 893e 7468 e33e 554c 473f
000001c0: c56a fa3d edfa a3be b575 75be 618b 07bf
000001d0: 16e3 813e 82c9 283e a86f cc3d ea13 d9be
000001e0: c86c f8be 7f76 06bf 4d84 933e 4064 b0bf
000001f0: d530 673e 98b4 183f 1697 88be aa83 edbe
00000200: 63ee c7be 8793 7e3e b6cf ffbd a10d 8c3f
00000210: 4202 9c3e 2501 883e 4d25 083e 1ee3 e2bd
00000220: d7e9 00bd 7ed9 8a3e f0c9 b1be e468 9b3e
00000230: 05ea 80be ef7e 213e 04f5 1b3d f796 36be
00000240: 376b 71ba 15c3 13bc 4e94 e0be 9d99 26be
00000250: 6a0d ddbc d549 943e b49d e53e 4801 d7be
00000260: 5a92 2bbe ed3e 06be 3828 153d 6c20 803e
00000270: 90a9 ad3e 8042 88be 737a 11bf d8bd 933d
00000280: bb10 a4be 4b03 e1be 18ec a63e b2a9 1c3f
00000290: e32e 893e 52f5 863e 38a6 58be f514 1f3e
000002a0: d733 1d3f effe 893e 66a0 2ebf 466e 82bf
000002b0: 059f e6be 9a91 1cbe b26b 3f3e 719f 5cbd
000002c0: df13 9cbd c548 b33b ce6c 24be b816 a9be
000002d0: aa09 3cbe d628 b7be 3ac7 93bd 701a cbbe
000002e0: b47a 29be 8f58 d13e afed cc3e 629e 4c3f
000002f0: e281 b4bd ab64 583e ff1b 383e 8e7c 123f
00000300: fc04 673f 004f 9bbf f985 62be 95d1 2ec0
00000310: fc2c 663e d2b2 ea3d d67b 203e a710 0dbf
00000320: f5ea d33a 478b febe 0529 ac3e 0bd3 69bf
00000330: f7a0 2d3f 5043 113f f839 afbe 3d8e b13e
00000340: 46b5 c8bd 41a9 13be 30d3 0bbf d547 a3bf
00000350: f957 853e ef14 0cbe 236a 5dbe 0384 afbd
00000360: e0ac 3cbe 5f8b b43c a60b b3be 31dc 97bf
00000370: 0545 7d3e ce04 68bc 300d 6c3e 79b4 b8be
00000380: 79df e03f a231 1bbf 7c8d 04bc 8301 28bf
00000390: 05ed a03d c96d b8bd 980a 4bbf 4573 05bf
000003a0: 98c5 1a40 0427 78bf cb5f 9e3d 008f a13d
000003b0: 1a73 d6be f96b 6fbd 5adc 14bf 295f 81be
000003c0: 01cc 9c3c 6508 d8be 48f3 f0be 733c 87bf
000003d0: fc0a f3bd f769 a73e a4b5 393e 585b 90be
000003e0: e52d 643f 46f0 8cbf 02ca bebe 52fc 38c0
000003f0: f288 c6be 6ec1 eebe 9bd5 e3bd 510f 3dbe

lstm.weight_hh_l1 f4 [32, 8]
0.05885373 -0.14539729 -0.20077948 -0.1275033 0.21992023 -0.77148074 -0.5638811 0.4914324
0.24773021 -0.055229597 -0.31195214 0.66203785 -0.29488942 -0.16311198 -0.37200367 0.23984458
0.28463382 0.18584764 -0.251375 0.09155366 0.1231003 -0.5081402 -0.34932992 0.33445367
0.035860617 -0.42269996 0.3199318 0.17341407 0.14700831 -0.24314055 -0.14290929 0.050372973
-0.057108138 -0.880099 0.1652627 -0.09520391 -0.16583247 -1.1372458 0.19075383 1.0645454
-0.0956169 -0.62318265 -0.10584553 0.15125701 -0.3073726 -0.9610207 0.16661419 1.2857674
0.012540101 -0.1839226 -0.13985232 0.39864028 0.10255329 -0.31295946 0.17311934 0.18168527
-0.017155545 -0.24073924 0.19532529 -0.19363014 -0.47134104 -0.16602024 -0.48699751 0.3823287
0.28613538 0.060479503 -0.1921569 0.477139 -0.16978385 -0.20426528 0.0049920916 0.5650578
0.40916637 -0.025680473 -0.7072593 0.63645303 -0.21507452 -0.29292947 -0.36206073 0.23758028
-0.041045275 0.2639352 -0.026228655 0.071011454 -0.060759775 -0.011360572 -0.35301277 0.2668152
0.034423202 -0.31970555 -0.32347044 0.24705704 -0.118560925 -0.31253526 -0.094320185 0.07568468
0.1615902 0.4549075 -0.08527603 0.5900832 -0.62035835 1.1695795 0.0505746 -0.18737788
-0.39187145 0.24507809 0.2449834 0.17714058 -1.4130738 -0.43918088 0.24314383 -0.38613605
-0.09507558 -0.39928362 -0.38980502 0.38990387 0.1350243 -0.21448527 -0.028420167 0.43797815
0.22132227 0.38208988 -0.40927452 0.53025943 -0.22291394 0.70088935 -0.1692016 -0.042526443
-0.09240811 0.5615064 -0.16121233 -0.42981294 -0.17994556 0.36026877 0.2081285 -0.19098824
0.15536608 -0.3703338 0.4581763 0.21765886 0.09173857 0.23590204 -0.0051190457 0.123363204
-0.1339265 -0.33237427 -0.06901735 -0.10455002 0.39907146 -0.033041667 -0.03176275 0.026734646
-0.12723647 -0.24814646 -0.053294107 0.3563323 -0.04855956 0.33660313 0.1942778 -0.40729222
-0.555987 -0.46326476 -0.022938767 -0.38570228 -0.7612528 0.46021867 0.14935964 -0.7124346
-0.4208324 -0.47982877 -0.048281983 0.179396 0.49093854 -0.19069955 0.25682953 -0.48294345
0.2692471 0.080875956 0.022845589 0.2344122 0.20105861 -0.46730554 0.10737144 0.06356962
0.21940543 0.00610253 0.13917601 -0.23133576 0.3114302 0.13711742 -0.18940385 -0.6075789
0.090972036 -0.17775317 0.06302939 0.26573426 0.41130224 -0.15105796 0.12845184 0.57054234
0.09544517 -0.032687485 -0.35159564 0.37141773 0.01549345 0.029776487 -0.03495929 0.29990903
0.2692407 0.22151683 -0.2322963 0.26827312 -0.14151967 -0.3243144 -0.358165 0.13716057
-0.24319436 0.31473818 -0.3262903 -0.16476995 -0.07016007 -0.53602445 -0.44388512 0.33568308
-0.4356662 -0.69568485 -0.22483864 -0.17926072 -0.14775114 -1.0773458 0.10830693 0.37211102
-0.7915193 -0.98870265 0.043236874 0.11186903 -2.1602507 0.15920365 0.3933665 0.3136395
0.1813396 -0.42734852 -0.033067916 -0.10128809 0.104312286 -0.001796021 -0.40531865 0.106267795
0.08480617 -0.57083863 -0.37802562 0.09184812 -0.69934976 0.07496342 -0.38093555 0.49604654
00000000: 9c10 713d 07e3 14be 2399 4dbe 3a90 02be
00000010: c532 613e c37f 45bf 835a 10bf 079d fb3e
00000020: fdac 7d3e 6e38 62bd 31b8 9fbe 507b 293f
00000030: bffb 96be d406 27be 4477 bebe d199 753e
00000040: 86bb 913e d84e 3e3e 39b4 80be 7c80 bb3d
00000050: 031c fc3d 7a15 02bf 5fdb b2be 833d ab3e
00000060: 95e2 123d 216c d8be 1ace a33e 7593 313e
00000070: 5989 163e d6f9 78be d056 12be e453 4e3d
00000080: 39ea 69bd 2b4e 61bf a03a 293e 44fa c2bd
00000090: fdcf 29be 4591 91bf f954 433e 0643 883f
000000a0: cbd2 c3bd e688 1fbf 8bc5 d8bd 1ee3 1a3e
000000b0: f15f 9dbe 7405 76bf e99c 2a3e 0794 a43f
000000c0: ff74 4d3c 3556 3cbe 7235 0fbe 941a cc3e
000000d0: 7607 d23d 393c a0be 3246 313e b40b 3a3e
000000e0: c989 8cbc 5984 76be 5a03 483e fb46 46be
000000f0: 9d53 f1be 3601 2abe bd57 f9be 96c0 c33e
00000100: 5680 923e 5bb9 773d c7c4 44be 904b f43e
00000110: d1db 2dbe eb2a 51be b394 a33b a1a7 103f
00000120: 417e d13e db5f d2bc f20e 35bf 96ee 223f
00000130: 7f3c 5cbe dafa 95be 0660 b9be 3f48 733e
00000140: 171f 28bd 8422 873e 7add d6bc 746e 913d
00000150: 3edf 78bd b121 3abc 17be b4be 009c 883e
00000160: 58ff 0c3d 72b0 a3be eb9d a5be 85fc 7c3e
00000170: 12d0 f2bd 9f04 a0be f12a c1bd 9200 9b3d
00000180: e777 253e a3e9 e83e 33a5 aebd b10f 173f
00000190: cecf 1ebf c8b4 953f 5027 4f3d fddf 3fbe
000001a0: 60a3 c8be c0f5 7a3e eedc 7a3e 5764 353e
000001b0: 9adf b4bf 51dc e0be b2fa 783e a0b3 c5be
000001c0: fcb6 c2bd e76e ccbe 8694 c7be 7ba1 c73e
000001d0: cf43 0a3e 07a2 5bbe 69d1 e8bc ac3e e03e
000001e0: 4ea2 623e 49a1 c33e 6e8c d1be 15bf 073f
000001f0: 8d43 64be 7c6d 333f 2f43 2dbe 3530 2ebd
00000200: 7740 bdbd e2be 0f3f d814 25be 7110 dcbe
00000210: a643 38be 2675 b83e a31f 553e 6c92 43be
00000220: 4918 1f3e 649c bdbe 1696 ea3e f7e1 5e3e
00000230: 6ee1 bb3d 4e90 713e abbd a7bb d9a5 fc3d
00000240: 0724 09be f62c aabe f858 8dbd 521e d6bd
00000250: 1853 cc3e b356 07bd a819 02bd 9e02 db3c
00000260: 474a 02be 1b1a 7ebe ec4a 5abd 3071 b63e
00000270: 64e6 46bd 3f57 ac3e c2f0 463e 9b88 d0be
00000280: 2a55 0ebf 0a31 edbe 15ea bbbc c57a c5be
00000290: 77e1 42bf c8a1 eb3e bcf1 183e 1d62 36bf
000002a0: 5877 d7be 1eac f5be 54c3 45bd 96b3 373e
000002b0: 4c5c fb3e be46 43be 297f 833e 5d44 f7be
000002c0: c2da 893e 4ba2 a53d ac26 bb3c c009 703e
000002d0: 4fe2 4d3e ac42 efbe 8fe5 db3d ca30 823d
000002e0: d1ab 603e bbf7 c73b 2884 0e3e 48e3 6cbe
000002f0: c773 9f3e 8268 0c3e 15f3 41be 4a8a 1bbf
00000300: 8c4f ba3d ed04 36be 8e15 813d 520e 883e
00000310: 3596 d23e f0ae 1abe e188 033e 100f 123f
00000320: c278 c33d 50e3 05bd 5804 b4be 772a be3e
00000330: 3dd8 7d3c d2ed f33c 7931 0fbd ad8d 993e
00000340: ebd9 893e 4fd5 623e 15df 6dbe 185b 893e
00000350: 88ea 10be 890c a6be 6761 b7be d273 0c3e
00000360: f107 79be 5d25 a13e 860f a7be 74b9 28be
00000370: 15b0 8fbd e638 09bf e944 e3be a7de ab3e
00000380: a40f dfbe 6718 32bf 1a3c 66be 1f90 37be
00000390: 134c 17be 78e6 89bf 06d0 dd3d 5685 be3e
000003a0: 02a1 4abf 9e1b 7dbf 2619 313d 971b e53d
000003b0: 8c41 0ac0 4806 233e 5567 c93e 5b95 a03e
000003c0: 17b1 393e 6dcd dabe 3972 07bd 2170 cfbd
000003d0: aea1 d53d 7768 ebba ed85 cfbe eea2 d93d
000003e0: dbae ad3d 7b22 12bf 938c c1be de1a bc3d
000003f0: 9608 33bf 6c86 993d fc09 c3be d0f9 fd3e

lstm.bias_ih_l1 f4 [32]
0.28157717 -0.23940918 -0.32962105 -0.20370059 -0.2871051 -0.1501856 -0.061865393 0.12555748
0.15583715 -0.5160137 -0.32319096 -0.05293079 -0.50743467 0.16443202 -0.2209513 -0.29154527
-0.28009987 -0.19224043 0.4019973 -0.46229088 0.2048685 0.12260157 0.3668779 0.17894778
-0.37586573 -0.17544834 0.026687583 0.15781839 -0.044572867 -0.261756 0.25924376 0.33921427
00000000: e22a 903e ae27 75be 17c4 a8be e396 50be
00000010: 71ff 92be 41ca 19be 9166 7dbd 2492 003e
00000020: c693 1f3e 7919 04bf 4979 a5be f5cd 58bd
00000030: 3de7 01bf de60 283e 0f41 62be 6c45 95be
00000040: 4069 8fbe adda 44be 97d2 cd3e 64b1 ecbe
00000050: 0cc9 513e 8816 fb3d 6cd7 bb3e 163e 373e
00000060: 7971 c0be bba8 33be eb9f da3c 259b 213e
00000070: 0a92 36bd e204 86be 99bb 843e 7ead ad3e

lstm.bias_hh_l1 f4 [32]
-0.18632598 -0.37841076 -0.057913557 -0.014955507 -0.12773179 -0.09350655 0.08715284 0.124227814
-0.44454432 -0.40888909 0.14315338 -0.27854604 -0.68831235 0.26264834 -0.18594137 -0.38972348
-0.038930926 0.08092496 0.06544852 -0.31923392 -0.33019522 -0.14138857 -0.1123237 -0.36025536
-0.09229213 -0.43154663 0.25070837 0.28594312 0.31349814 0.11893877 0.16249341 -0.28901234
00000000: 3dcc 3ebe 0ebf c1be c436 6dbd f107 75bc
00000010: 1fcc 02be 5d80 bfbd 307d b23d 276b fe3d
00000020: 509b e3be e959 d1be cd96 123e 969d 8ebe
00000030: 3d35 30bf d879 863e 6a67 3ebe d689 c7be
00000040: 0976 1fbd fcbb a53d e009 863d a172 a3be
00000050: 590f a9be 2ac8 10be f809 e6bd 6473 b8be
00000060: a803 bdbd aef3 dcbe d95c 803e 2367 923e
00000070: d482 a03e 2b96 f33d ac64 263e 6df9 93be

fc.weight f4 [1, 8]
0.1552337 -0.019269045 -0.12276401 0.26098362 0.061786532 -0.1466436 -0.3442121 0.22036636
00000000: 95f5 1e3e 1eda 9dbc b36b fbbd a59f 853e
00000010: e013 7d3d bd29 16be 923c b0be b8a7 613e
