models/Mangaluru_model.pth (torch, 6156 bytes, 9 tensors)

lstm.weight_ih_l0 f4 [32, 1]
00000000: 81c4 d23f c82f 9e3f d11d f7bf 5bc1 a63f
00000010: 9f6d 553f 1056 173f bb2c 9a3f b257 283f
00000020: 2881 1440 0bed f93f f151 d5bf 90a6 223f
00000030: b323 8c3f b827 523f 4e12 db3f 5016 b53f
00000040: e05e fdbf 18db 17c0 db28 0940 6833 0ec0
00000050: c509 c9bf f4b0 d6bf 02db c3bf b22f e3bf
00000060: 44a4 2e40 97ed 0240 1569 b2bf ce64 f63f
00000070: 71be 8d3f 3b9b 103f dcec e13f bec4 963f
1.6466218 1.2358332 -1.9305974 1.3027757 0.83370394 0.59115696 1.2044901 0.6575881
2.320383 1.9525465 -1.6665632 0.63535404 1.0948395 0.82091856 1.7114961 1.4147434
-1.9794579 -2.3727474 2.1431186 -2.2218876 -1.5706106 -1.6772752 -1.5301211 -1.774893
2.728776 2.0457513 -1.3938318 1.9249513 1.1073743 0.5648686 1.7650409 1.1778791

lstm.weight_hh_l0 f4 [32, 8]
00000000: b6ef 2abe 5e8b 0f3e 0a7e 48be cb50 983e
00000010: 46e0 52bc c544 4a3c b6b7 c7be d39c 32be
00000020: 640b 27bf fefb 18bf 3a27 823b dac9 5fbe
00000030: 3f17 16bf 8250 09bf 3ff1 ffbd e578 44be
00000040: 4730 0fbe f6f2 08be f928 40be 4688 173f
00000050: dc92 49be a246 a0be 48b9 edbd 9b5d f63d
00000060: 0e00 63bf 52be d7be 0be3 d33e 1734 18bf
00000070: 828e 4dbf e646 08bf e44d 4ebf c745 d5be
00000080: 3dfb 95be a7f0 3c3e e31a a5be c346 34be
00000090: c016 8c3e a053 4abe 4913 8cbe e420 7abe
000000a0: 8ea0 0b3e 2adc 35bc 62eb 603e 2b2a 14bd
000000b0: 792b a03e 0211 e13e 37ce 283e 289d 933c
000000c0: 0664 8d3d 520b 793d 6382 db3e 4c40 00be
000000d0: 5526 96be 79c9 68be 3710 ffbe 3cd9 813e
000000e0: c80b 7fbe 2f0b 09be c461 42be 083f a5be
000000f0: fe82 413e 69ec 59bd e704 1bbe feac b9be
00000100: cd7d 46bd b1a0 fc3c 9e9a 24bf 0115 b83e
00000110: 3015 013f 6792 543e f8e2 65be e720 1d3f
00000120: eb99 0fbe bb6c 743e 7aea a1be f27a 773e
00000130: 7d85 95be ab54 4dbe b25c 613d 3110 6e3e
00000140: 0d63 1e3f 20fd 293f 1771 09be 98cc 6e3f
00000150: b921 a43c 4581 233c 4004 f63e 89dc cf3e
00000160: dd54 cd3c 19c0 b5bc ffeb 79bf a4dd 483f
00000170: 49c5 54bd a4d1 b03e 96c0 803d 652e 393e
00000180: 185c 38be b7ae 9e3e 264c 4bbe 6047 b53e
00000190: a0ad 8d3e 22f4 1abb afc6 703d 5dc8 6d3e
000001a0: dbd0 68be 7722 573d cebe db3d f431 d3bd
000001b0: c9f0 e83e 76f9 b13e 856a fabd 3009 40be
000001c0: d623 a7bd e764 00bf b0d9 9f3e 971f 41be
000001d0: 2aad a8be 8914 9ebe 6eb2 75be 6706 7cbe
000001e0: 0e7a 87be cfdd 623e 5a4c 49be 157e 593c
000001f0: 2d35 44be 832b d93d 9632 823e 2403 8a3e
00000200: 996b dc3e 4867 443d a7d4 9cbe 6775 1ebe
00000210: 313e 5ebe 55a4 80be 8205 b13c 689c 983d
00000220: e4b4 b03e aaeb 8dbd eb19 93be 6335 153a
00000230: 510c acbd 796b 973e 8065 aebc 415b 9f3e
00000240: bc6e 89bd f0a1 0a3c 498e 093e 34ba 98bd
00000250: a1d8 8abe 3695 85be d7e9 5bbe 5787 0abd
00000260: 8b71 bebe 552c aabe ade6 9d3e 1176 c1be
00000270: e2c0 2c3e b224 2ebb 8a04 b3bc 0743 2abe
00000280: 719d 42be c91e 913e 0ce3 4e3d 6114 a8bd
00000290: 5ea7 7a3e 2a9b 103d ad75 253e ae76 cb3d
000002a0: 2eb8 9dbe 3cd8 2fbe 8786 bcbe b40b f23d
000002b0: 3935 233e b771 0c3e 188b 633e c9f7 983e
000002c0: 8bb5 833e a0b7 e13e 61ce bfbe f3fc ad3d
000002d0: fbff 0d3e 50fb 59be db7a a33e afd5 c43d
000002e0: 31fc 7ebe a3c5 d63d 6be9 fbbd 9c6b 353e
000002f0: 1f3f a33e 00cc af3e ea00 e5bd 2fac d23d
00000300: e317 b93d c310 aa3d e535 c7be e07c f33c
00000310: 52f1 11be 0ce5 d4bd 0116 0fbd a959 1cbe
00000320: f344 06be ba5f aebe 3796 b7be 8a41 63be
00000330: d7bd 86be fca4 ccbb d6fe c4bd 997d 783d
00000340: 24d1 b53e 219b 4dbe cbbe 41bf 9107 593f
00000350: 2e9b 803e 04eb a0bd f04d f8be cbfc 403e
00000360: abe9 59bf 36e2 29bf 4669 84be a492 cebe
00000370: 1a10 57bf a1fa 12bf 36c4 40bf 4320 04bf
00000380: 3753 9abe 5bd7 a3be 3285 293e b630 5ebe
00000390: 536d 883e b7f6 9b3e 6acd 4cbb a769 c43e
000003a0: 5326 223e c5eb 6f3e 71f6 bcbe 1e85 f83e
000003b0: 4538 2c3e 3cbb 323e 0cb7 053e 76de e73e
000003c0: 28cf bbbd faa4 dbbd dd8a 7dbe 91bc 773e
000003d0: 1bfa 8b3d 50e5 fa3d 7d02 bdbd a9c3 73be
000003e0: 6eee c13d 477e af3e d7bd babe cc89 313e
000003f0: b022 4a3e ff90 823e 5ae7 3fbe 8430 cf3e
-0.16693005 0.14018008 -0.1957933 0.2974914 -0.012870854 0.0123454975 -0.39007348 -0.17442636
-0.65251756 -0.5975951 0.0039719613 -0.21854344 -0.5862922 -0.5363847 -0.12497186 -0.19186743
-0.1398326 -0.13373932 -0.1876563 0.5919231 -0.19684929 -0.3130389 -0.11607605 0.120295726
-0.8867196 -0.4213739 0.41384158 -0.5945448 -0.80295575 -0.5323318 -0.805876 -0.41654798
-0.29293242 0.18451177 -0.32247075 -0.17605118 0.27361107 -0.19758463 -0.27358463 -0.2442661
0.13635466 -0.0110998545 0.21964791 -0.036173027 0.31283167 0.43958288 0.16484915 0.018019274
0.069038436 0.06080181 0.42872915 -0.12524527 -0.2932612 -0.22733106 -0.49817058 0.2536105
-0.24906838 -0.13383172 -0.18982607 -0.32274652 0.18897626 -0.053203974 -0.15138589 -0.36264795
-0.048459817 0.030838342 -0.6429843 0.35953525 0.50422955 0.20758973 -0.22449863 0.6137833
-0.14023559 0.23869602 -0.31624204 0.24167994 -0.29203406 -0.2005183 0.05502004 0.23248364
0.6186989 0.66401863 -0.13422047 0.93280935 0.020035611 0.009979551 0.48050117 0.40597942
0.02506488 -0.022186326 -0.97625726 0.78463197 -0.05194596 0.34534943 0.06286733 0.18084104
-0.18003881 0.30992672 -0.19853267 0.35406017 0.27671528 -0.002364405 0.05878323 0.23220964
-0.22735922 0.052523103 0.107297525 -0.10312262 0.45496204 0.34760636 -0.12227348 -0.18753505
-0.08161132 -0.50153965 0.3122077 -0.18859707 -0.32944614 -0.30875042 -0.23993847 -0.24611817
-0.26460308 0.22154926 -0.19658032 0.013274689 -0.1916091 0.10604002 0.2542922 0.2695552
0.4305084 0.04795006 -0.3063099 -0.15474473 -0.21703412 -0.25125375 0.021609072 0.07451707
0.3451301 -0.06929715 -0.2873071 0.0005691854 -0.08400787 0.29574183 -0.021288633 0.3112431
-0.06710574 0.0084614605 0.13433184 -0.074573904 -0.271184 -0.260904 -0.21475922 -0.033820476
-0.37196 -0.33236948 0.30840054 -0.3778539 0.16870454 -0.0026572165 -0.02185275 -0.16627131
-0.19005372 0.283438 0.050509498 -0.08207012 0.24477908 0.035304226 0.16158171 0.09934746
-0.3080458 -0.1717233 -0.36821386 0.118186384 0.15938272 0.13715254 0.22221029 0.29876545
0.25724444 0.44085407 -0.37462142 0.08495512 0.1386718 -0.21287274 0.3192967 0.096110694
-0.24900891 0.10486915 -0.1230038 0.17716831 0.31884095 0.34335327 -0.11181815 0.10286748
0.09037759 0.08303978 -0.38908306 0.029722631 -0.14252213 -0.1039525 -0.034933094 -0.15268578
-0.1311224 -0.3405741 -0.35856792 -0.2219297 -0.2631671 -0.0062452536 -0.096189186 0.060666654
0.35511124 -0.20078708 -0.7568175 0.8477717 0.25118393 -0.07857326 -0.48496962 0.18846433
-0.85122174 -0.66360795 -0.25861567 -0.40346253 -0.84008944 -0.5741368 -0.75299394 -0.5161173
-0.30141613 -0.3200024 0.16554716 -0.21698269 0.26645908 0.30461666 -0.0031250366 0.38361856
0.15834932 0.23429783 -0.3690677 0.4853906 0.1681834 0.17454237 0.13058108 0.45286912
-0.09170371 -0.10724826 -0.24760003 0.24193026 0.06834813 0.12250769 -0.0922899 -0.23805107
0.09469305 0.3427603 -0.3647296 0.17337722 0.19739795 0.25501248 -0.18740597 0.40466702

lstm.bias_ih_l0 f4 [32]
00000000: c288 7f3c 2021 0b3f ece4 c13e cb8c 953e
00000010: c6f7 89be c72a 34be a8c9 a7bd 88fb e83e
00000020: a2fb f33d dea9 c6bd 5b52 b5be 2d34 5a3e
00000030: 8d77 a7be a8d0 8bbe 60a0 3b3e f6fa 5ebb
00000040: fadf 89be 83d0 b23d c33d 373d b1f8 43bd
00000050: d2ad abbe e404 cf3d 7db3 bb3b d983 49be
00000060: 6ee5 45bd bc11 c93e da4c 9ebd 91f4 883e
00000070: 861e 473e 8a5b 5fbe 54c0 67be 5c6a b1bd
0.01559657 0.5434742 0.37869966 0.2920898 -0.2694685 -0.17594443 -0.0819276 0.45504403
0.119132295 -0.09700368 -0.35414395 0.21308966 -0.32708398 -0.2730763 0.18322897 -0.0034024096
-0.26928693 0.08731177 0.044736635 -0.047844592 -0.33531052 0.10108355 0.005728184 -0.19679202
-0.048314504 0.39271343 -0.07729502 0.2674909 0.19445238 -0.21812263 -0.22631961 -0.086628646

lstm.bias_hh_l0 f4 [32]
00000000: 22b3 003f 752d 553e 902d fc3e 7a72 d23e
00000010: 22ca a33e 69e9 99be 24a6 c83d 3bb5 f93b
00000020: 6869 40be 7be1 a03e 7c05 0ebf 7dce 4abe
00000030: 18df 893d f25d 0abe 6616 313e a1b3 0e3e
00000040: 12b7 153c 2635 f6bd b817 7ebe 5b9a 0fbe
00000050: 1000 3e3e b044 70be f6ee 51be 0b7e 813d
00000060: 095e 493e 29d2 ac3e a54f febd 5e53 203f
00000070: 0a78 afbe e3b3 183e 9126 d8bd 3707 21be
0.50273335 0.20818122 0.4925351 0.41102964 0.31990153 -0.3006089 0.09797314 0.0076204813
-0.1879021 0.31422028 -0.5547712 -0.19805332 0.06732005 -0.135124 0.172937 0.1393571
0.009137886 -0.12021856 -0.24813735 -0.14023726 0.18554711 -0.23463702 -0.20501313 0.06322869
0.19664778 0.3375409 -0.12417535 0.6262721 -0.3427127 0.14912371 -0.10554231 -0.15725408

lstm.weight_ih_l1 f4 [32, 8]
00000000: cbfc 70bf 6b95 afbf 739a 3e3f 2964 fabe
00000010: 8b75 94bf 0ed7 aabe 57bc 8abf 0f6e 26bf
00000020: 9765 91be 8b26 c9be 1819 8a3f 447e 28bf
00000030: fbe4 00bf 2920 25bf 0079 453d 42fb 9dbe
00000040: dfb1 56bc 9caf a43e dadf 00be 8200 81be
00000050: 5a8c 40bd 793c f73e 8079 a23e 3898 123e
00000060: 30d3 babe 98e5 2bbf 278d 073e f734 25bf
00000070: c2a4 20bf 2392 b23d da40 40be d344 35bf
00000080: 6ba7 213f 72d5 5f3e 4c25 2a3e 6921 ee3d
00000090: 2721 de3d aada 00bd 48b3 fd3e 9134 053f
000000a0: c116 b1be b58a a73e 1e61 b3bd 35a0 aa3e
000000b0: 1b3d 15be 1735 dd3e 1ad5 acbe e30a 683c
000000c0: c8f5 b5be 5a04 b2bc 9a28 d2be d5aa 36be
000000d0: 8f15 833e 85e5 85bd 06eb 80be cacf f5bc
000000e0: 5536 a33d da41 78bc cbf7 a73e 5c9d b13e
000000f0: dcd2 1abe f81b 933e ddce afbe 0dd4 ebbc
00000100: 79b8 9bbc 097d 933d 31d0 dbbe 945c e93e
00000110: 61af 073c 5195 b5bd 1d74 9fbd 3489 b53d
00000120: 427f 863e c7c1 283e b569 2e3e b515 91be
00000130: d2fa 97bd d014 89be ed58 833e f051 2b3e
00000140: 949a 01be 0f11 033e 52b8 45bb 7d43 7e3e
00000150: 0c8a 8d3d 991c f23d 2d5b 02be eac3 71bd
00000160: 8dd7 12bf 4e12 89be 9152 4d3f ffb3 2cbf
00000170: 870e 2dbf 5d55 36bd 2105 a4be 365a 15bf
00000180: 0a5e 2e3d afe8 1a3f 06b5 29be f603 f23e
00000190: 374e 233e 74cc 5d3e 5e25 1f3c 0a9a 2bbd
000001a0: 6d77 2b3b 0377 013e aa0f 6a3d 5df1 aebe
000001b0: 7eff 493e ac10 54be f82c 30bd 3f7f 093e
000001c0: 3e6f 6c3e dd7b 1b3e 5741 a9bd 9d44 8c3e
000001d0: 33b3 af3d 2b42 b43e 6adf 223d 1a33 b0bd
000001e0: 0d6a b23e 4339 9ebe d027 753e a0fa 4cbd
000001f0: cd43 133d e54c 8b3d ccb6 96be 65fb 72be
00000200: 375b 3a3f 19e2 693f 8687 80bf 32ac 9f3f
00000210: 2a95 c43e 8e9b a83e 8735 283f 64be 233f
00000220: ec83 273e e8bf 23bd 2d30 09bd 46f0 f43e
00000230: 91cd 943e f4a5 0e3d bf91 c4bc cca1 4d3e
00000240: 31e1 b9bd 7b23 66be d465 203e 786a 613e
00000250: 197d 3abe db55 b43d 627f e13e 0d0e 713e
00000260: 63b8 7d3e 4f53 123f 3a8b febe 2675 f3bd
00000270: b3b1 56be bd74 42be 2312 2f3e 8e98 b8ba
00000280: 0dd9 96bd 2882 12be daaa a73d 6035 f5be
00000290: 84b0 05bd 9ee3 bf3d a81b 943c eb24 a23c
000002a0: 577c a7be b607 0cbe bc0f 7d3d e6e0 b7be
000002b0: f8e2 afbd 892e 7bbe 0428 193e 0b2d 34be
000002c0: 4c80 51bd cf2b f2be b8b4 983d 4e94 09bf
000002d0: 93f8 d7be e1df 3c3e a0a6 6ebe 6684 f4be
000002e0: 490f f2bd 01c1 363e 3f2e 7e3e 6947 043e
000002f0: 8bf3 13bd 12cd 89be 8f0c 81be 8f87 9fbe
00000300: d303 9bbf fb30 c9bf 1bfa a33f b69d 6dbf
00000310: 57a0 a9bf 62db 40bf bc90 32bf bb3c 77bf
00000320: 630c 43be 56ed 0dbf 12d0 953f ef6d 4dbf
00000330: 2954 c8be a234 f1bd 54f6 a4be 7a54 8bbe
00000340: 9d33 983e 9c63 723e f1d2 af3e f21c c83e
00000350: e7a5 523e 1baf 283d af9e ef3e cd06 05be
00000360: c59d bfbe 4294 2cbf 79a8 963f 271f 75bf
00000370: af21 6abf 5dac 0bbf d959 05bf d5c1 60bf
00000380: 6cae 2e3f f472 d03d cd23 4cbe e928 1e3f
00000390: de85 8c3e f460 ef3d a4ad 163f 8ec1 ee3d
000003a0: 6bdb 083e f1e6 6e3e 4d8f 483c ed50 8bbe
000003b0: f9d6 4abd e3f9 8a3e 8953 563e a1e8 293d
000003c0: 4734 0abe 095d ecbd 82d8 47be 46d0 c43e
000003d0: 884d 90be d866 80be 3d16 a0be 77bd 09be
000003e0: 0058 72be 49e6 093e 3c2f 5dbd 3dfd 8cbe
000003f0: 66ad 9d3e 7276 6e3e 80ea 6dbd fd46 8a3e
-0.9413573 -1.3717474 0.7445442 -0.4890454 -1.1598371 -0.333672 -1.0838727 -0.65011686
-0.2839782 -0.39287218 1.0788908 -0.65817666 -0.50349396 -0.645022 0.048211098 -0.30855757
-0.013103931 0.3216523 -0.12585393 -0.251957 -0.04700885 0.48288324 0.31733322 0.1431588
-0.36489248 -0.6714721 0.13237439 -0.6453394 -0.627514 0.087192796 -0.18774739 -0.7080814
0.63146085 0.21858767 0.1661579 0.11627466 0.10846167 -0.031458534 0.49550843 0.52033335
-0.34587672 0.32723013 -0.08758758 0.33325353 -0.14574091 0.43204567 -0.33756334 0.014162752
-0.3553908 -0.02173059 -0.41046602 -0.17838605 0.25602385 -0.06537918 -0.2517931 -0.030006308
0.079693474 -0.015152419 0.3280624 0.34690368 -0.15119499 0.28732276 -0.34337512 -0.028787637
-0.019008862 0.07201583 -0.42932275 0.45578444 0.00828156 -0.088663705 -0.07785819 0.0886406
0.26268965 0.1648017 0.17032512 -0.28336874 -0.07420887 -0.2677369 0.25653782 0.16730475
-0.12656623 0.12799476 -0.0030169678 0.24830432 0.06911096 0.11821861 -0.12730093 -0.05902473
-0.57360154 -0.26771778 0.8020411 -0.6746215 -0.6760029 -0.044515003 -0.32035163 -0.58340776
0.04257015 0.60511297 -0.16572961 0.47268647 0.15947805 0.21660024 0.009713499 -0.04189495
0.0026163713 0.12643056 0.057143845 -0.3416852 0.19726369 -0.20709485 -0.043011636 0.13427447
0.2308931 0.15183969 -0.08264416 0.27396098 0.085791014 0.35206732 0.039763846 -0.08603497
0.34846535 -0.30903062 0.23940969 -0.050043702 0.03595333 0.06801776 -0.29436338 -0.23728712
0.7279543 0.9136062 -1.0041358 1.2474425 0.38395053 0.3293118 0.65706676 0.6396239
0.16358918 -0.039977938 -0.03349321 0.47839564 0.29063085 0.034826234 -0.023995278 0.20081252
-0.09076155 -0.22474472 0.15663844 0.22013271 -0.18211783 0.08805438 0.44042498 0.23540516
0.24777369 0.5715837 -0.49715596 -0.11887579 -0.20966224 -0.18989845 0.17096762 -0.0014083551
-0.07365618 -0.14307463 0.08186884 -0.47892284 -0.03263904 0.093695864 0.018079594 0.019792994
-0.3271205 -0.13674816 0.061782584 -0.3591377 -0.08588213 -0.2452947 0.14956671 -0.17595308
-0.051147744 -0.47299048 0.07456344 -0.5374192 -0.42181835 0.18444778 -0.2330575 -0.47757262
-0.11819322 0.17847063 0.24822329 0.12917866 -0.036120933 -0.2691427 -0.25204894 -0.3115811
-1.2110542 -1.5718073 1.2810701 -0.9281877 -1.3252057 -0.7533475 -0.697521 -0.9657704
-0.19047694 -0.5544027 1.1704123 -0.8024587 -0.3912671 -0.11777617 -0.32219183 -0.27212888
0.29726878 0.2367081 0.34340623 0.39084584 0.20571099 0.04118262 0.46800753 -0.12990876
-0.37425056 -0.67413723 1.1770164 -0.9575066 -0.9145765 -0.5455988 -0.5209022 -0.87795764
0.68234897 0.101781756 -0.19935532 0.61781174 0.27445883 0.11688414 0.58858705 0.116580114
0.13364951 0.23330285 0.012241197 -0.2721018 -0.04952142 0.27143773 0.20930304 0.041481618
-0.13496505 -0.115411825 -0.19516185 0.3844015 -0.28184152 -0.25078464 -0.31266966 -0.13451181
-0.23666382 0.13466753 -0.054000124 -0.27536955 0.30796355 0.23287371 -0.058084965 0.27007285

lstm.weight_hh_l1 f4 [32, 8]
00000000: 974b 47bf ceb3 35bf 7915 1b3f 66ae bbbf
00000010: 6b70 b9bf 72f5 013e 3bb6 423f 7044 dd3e
00000020: 2bb5 043b 5d4a 86be f8b0 b8be 2ed1 8dbd
00000030: dbaf d3bb 78f6 083c 4db2 aebe 8584 c43d
00000040: a429 d33e f29a 4bbe 734a 7dbd 3e98 833e
00000050: be5a aebe b625 92be 7888 e5bd d8d6 3dbe
00000060: 80ea 5bbe 0332 7f3f f5f4 e93e 5c99 c7bd
00000070: 6cda 88bf cfd5 23bf 4422 0bbe 0079 bbbe
00000080: cda4 86be 2466 0dbe b092 f63d 43c0 e2be
00000090: 36dc 9dbe 3577 b93e 6ef0 febe 09fc 62be
000000a0: c762 3d3f 3405 403f 1fcc 36be 5674 313d
000000b0: 22cb f4be a516 2bbf 78de 26be 9f12 5bbe
000000c0: d13c 713e 62fa c4be 08b0 c7bc 5ae5 39bd
000000d0: fbcd cbbd 148a 38be e83b d2bd fbed 10be
000000e0: 7cdb d53c 1039 fbbe ffb0 d7bd 1287 19be
000000f0: c383 b7be 3182 8ebe 3415 893d 8ea7 b9bd
00000100: fdc6 3b3f 68f1 d23f ae3e 193e ef79 173f
00000110: b6ed d43c b036 ecbf de70 8abe 6b9c 32bf
00000120: 3a1c 2a3f 680e 323e cccf 08be 85bb 7e3e
00000130: ce2c 85bd 6b55 5bbd ef07 bebe 7901 03bf
00000140: dd92 313e b168 ae3e e558 213d 4ba2 763e
00000150: dd8e d43e 7020 c4be 3510 9abe 3cc0 b5be
00000160: a4df 15bf 5c28 123d 6401 5f3e 3233 3cbe
00000170: 6020 30be 7f5d dbbe 10a0 87be f889 363e
00000180: 068f cc3e 0b72 a03e d6ea aebe 3a63 ad3d
00000190: b93b a1be 5041 9fbe 1420 103d 6848 18bf
000001a0: 48e6 a93f dd14 503f 404c 64be d29a c63e
000001b0: 352e 023e 6612 49bf 92c9 8dbe 297f 33be
000001c0: fdb0 a03e 142e 17be 501b d73d 5817 b13e
000001d0: 7cb4 c9bd 1a8f 83be d3c9 bbbe 5ba2 703e
000001e0: 1111 ebbc 5e8a acbe d6e8 83bd 6d02 813e
000001f0: ee9c c6be a852 f6be 33e6 a5be b5f3 e1be
00000200: 7e54 15bf 742e 8dbe 2908 633d 573d f4be
00000210: fd65 14bd 147b 013f 6df5 33be cea8 003f
00000220: 472c 2b3e da91 98be b27e 123f 21cf 06bf
00000230: 95b2 fbbe cc72 033f 32a1 063f 482b 9b3e
00000240: 30e0 003d 4735 9cbd f51d 95bd 8d05 f7bd
00000250: 8f97 083f 751b 643e 27bf 813d 56fc 2b3d
00000260: 7c6f 183f dd57 96be 1fce 4b3e 4dee 5fbe
00000270: a677 57be 079d 57be 2376 b23c 8578 d8ba
00000280: c9cb bc3e 1f74 e9bd 7aa7 543e b59c f63d
00000290: 4404 1fbc 5ab4 893d e141 67be 2cae 09bc
000002a0: e045 eebe 5683 01bf a826 b2be 3941 2f3f
000002b0: c28f 1e3f d6e0 3d3e 4c0e 63be 6057 b03e
000002c0: e670 943d 9b24 adbe 3cfd 273c a856 7b3e
000002d0: d9a5 71bd 2035 023f 072c a03e cef8 d13d
000002e0: 38d6 cf3e 5935 97be 13fa a1be 789e e43e
000002f0: e336 ef3d b1e2 293e 5eed 133e 7cce 8ebd
00000300: c25a 54bf 22e8 7fbf a852 033e 1bbe 97bf
00000310: db2a 83bf dff2 113f ad2d a13e 89b7 573e
00000320: 2168 a43b d158 e5bc 423b 1dbe 204c c23e
00000330: 7102 14bd ded7 acbe a19e 133e ef3c 85be
00000340: e9b6 953e dee7 ef3e 06d4 5abe 23e3 d9bb
00000350: a97e be3d e9a9 ecbe c9f6 2ebf 3499 02bf
00000360: 1c8a 66bf 3ff9 073f da7e 5cbd a7c1 f6be
00000370: 11bb 8d3c 5f17 bbbe ff00 403e 01d9 d2bd
00000380: 4ef8 98bb 99aa 88be 1e59 92bd ad6f 91be
00000390: cdac 6a3e 3e41 f03e f452 bcbe ae2f 9dbe
000003a0: ca02 4f3f c9e3 023f 7e00 c2bb b907 7d3e
000003b0: 6e44 81bf 55a0 1cbf 74b6 a4be 4c3f 67bd
000003c0: 14f1 ad3e 9d3e 04be 24fa cfbe 3c59 c8bd
000003d0: 7142 4bbe e9e7 d2be 176f b0be 8546 e4bd
000003e0: 17b3 b63e 4b8e 8dbe 3d23 a8be 1b76 9c3e
000003f0: e906 23be 31b8 42bd e9a0 4d3e 9e25 35be
-0.77849716 -0.70977485 0.6057964 -1.4662597 -1.4487432 0.12691286 0.7605931 0.43216276
0.0020249586 -0.2622861 -0.36072516 -0.069246635 -0.0064601726 0.008359544 -0.34120408 0.095955886
0.41242707 -0.19883326 -0.06183858 0.2570209 -0.34053606 -0.28544396 -0.1120767 -0.18538988
-0.21476173 0.99685687 0.456947 -0.09746048 -1.0691657 -0.6399812 -0.1358729 -0.36615753
-0.26297608 -0.13808495 0.12039697 -0.4428731 -0.3083207 0.3622376 -0.49792808 -0.22166456
0.7397885 0.7500794 -0.17851304 0.043323837 -0.47811228 -0.6683143 -0.16295803 -0.21393822
0.23558356 -0.38472277 -0.02437593 -0.045384742 -0.09951397 -0.18021423 -0.102653325 -0.14153282
0.026105635 -0.49066973 -0.10531806 -0.14992931 -0.35842714 -0.27833703 0.06693497 -0.09065162
0.7335051 1.6479921 0.14965317 0.5917043 0.025992256 -1.8454189 -0.27039236 -0.69769925
0.6644932 0.17388308 -0.13360518 0.2487622 -0.065026864 -0.053548258 -0.37115428 -0.5117412
0.1734118 0.34064248 0.039391417 0.24085347 0.41515246 -0.38305998 -0.3009049 -0.35498226
-0.58544374 0.03568302 0.21777874 -0.18378904 -0.1719985 -0.4284477 -0.26489305 0.17826068
0.39952868 0.31337008 -0.3416354 0.084661916 -0.31490877 -0.31104517 0.035186842 -0.59485483
1.3273401 0.81281835 -0.22294712 0.38789994 0.12712939 -0.785437 -0.27692848 -0.17528977
0.3138503 -0.14763671 0.10503256 0.34588122 -0.09848878 -0.25695115 -0.36677417 0.23499434
-0.028694661 -0.33699316 -0.06440894 0.25197163 -0.38791603 -0.48109937 -0.3240219 -0.44131246
-0.5833205 -0.27574503 0.055427704 -0.4770305 -0.036230076 0.5057843 -0.17574091 0.50257576
0.16716109 -0.29798776 0.5722457 -0.52659804 -0.49159685 0.5134704 0.52589715 0.30306458
0.0314638 -0.07627349 -0.072811045 -0.120616056 0.5335626 0.22276099 0.063352875 0.041988693
0.5954511 -0.2936391 0.19902848 -0.21868248 -0.21041736 -0.21055995 0.021784848 -0.001651541
0.36874226 -0.113991015 0.20767012 0.12041608 -0.009705607 0.067238525 -0.22583725 -0.008403342
-0.46537685 -0.5059103 -0.34795117 0.68458897 0.61938107 0.185428 -0.22173423 0.34441662
0.07248096 -0.3381699 0.010253247 0.24544775 -0.058996055 0.5086231 0.3128359 0.10252534
0.40593123 -0.2953289 -0.31636104 0.44652152 0.11680391 0.16590382 0.14446017 -0.069729775
-0.82950985 -0.9996358 0.128245 -1.185489 -1.0247453 0.57011217 0.3148016 0.21066107
0.005017296 -0.027996453 -0.15354636 0.37948704 -0.03613514 -0.33758444 0.14415981 -0.2602305
0.29241112 0.46856588 -0.21369943 -0.0066493913 0.09301502 -0.4622338 -0.68345314 -0.5101502
-0.9005449 0.53114694 -0.053831913 -0.4819462 0.017301114 -0.36541268 0.1875038 -0.102952965
-0.004668272 -0.26692656 -0.07145904 -0.28405514 0.22917481 0.46924776 -0.36782038 -0.3070044
0.8086363 0.5112882 -0.005920469 0.24709977 -1.0099008 -0.6118215 -0.3217045 -0.05645685
0.3397299 -0.1291451 -0.4062053 -0.09782645 -0.19849564 -0.41192558 -0.34459755 -0.11146263
0.3568351 -0.27647623 -0.32839385 0.30558857 -0.15920605 -0.04753894 0.20080914 -0.17690131

lstm.bias_ih_l1 f4 [32]
00000000: 9806 033e 8a10 cebd 0963 f1be 9706 c73e
00000010: ed68 04bf 82c5 49bd 16bb 2bbd ad95 e8bd
00000020: 12c7 fd3d 6ef0 f1bd 7a07 a5be 5dff e0be
00000030: d87c 01bd 13ca e6bd af11 053e ade1 133e
00000040: d2fe 223e a8ae f23d d254 833e 05c8 793e
00000050: 675e f23d 6a1a d13d 7ada 343d 3a26 533e
00000060: ff55 203f c05f f4bd 7f42 09bf 7f03 06be
00000070: 0204 0dbf 111a 9b3d 7277 1e3d 0a7a 2ebe
0.12795484 -0.10061748 -0.4714587 0.38872215 -0.51722604 -0.049260624 -0.041926466 -0.113566734
0.12391485 -0.118134364 -0.32232267 -0.43944827 -0.0316132 -0.11269011 0.12995027 0.14441557
0.15917519 0.11849719 0.2565065 0.24392708 0.11834412 0.10210116 0.044153668 0.20620051
0.6263122 -0.11932325 -0.5361709 -0.13087271 -0.5508424 0.07573331 0.03868813 -0.17038742

lstm.bias_hh_l1 f4 [32]
00000000: de46 1a3f e853 893e ba9e 10bf cdb9 143e
00000010: a399 b4be 241c 0cbe 95ca 603e f694 94be
00000020: 310d 08bf 57cc f6be 3566 c9be e38d c3bd
00000030: 5384 c5bd 390a c83d 408f 8bbe b898 29be
00000040: 8c6d 883e 4dfc 1abe ede4 44be 2b3b 673d
00000050: 3225 d4bb 9474 8dbe dab3 a63e 4131 8f3e
00000060: 16fa 863d 64be 64be e666 28bf 88a2 68be
00000070: fafb 94be 8e01 dbbd 7543 443e f2d6 84bd
0.60264385 0.26821828 -0.564922 0.14524002 -0.35273466 -0.1368261 0.21952279 -0.29019898
-0.5314513 -0.48202774 -0.3933579 -0.09548547 -0.096443795 0.09767575 -0.2725773 -0.16562164
0.26646078 -0.15135308 -0.19227953 0.05645291 -0.0064741606 -0.27628005 0.3255909 0.27967265
0.06590669 -0.22338253 -0.6578201 -0.22718251 -0.29098493 -0.10693656 0.19166358 -0.0648631

fc.weight f4 [1, 8]
00000000: 3c17 2bbe 614a 5b3d 5803 203d 8600 87bd
00000010: 476f 523d d3cb 343d f246 693e f4e8 943e
-0.16708082 0.05353773 0.03906569 -0.06591897 0.051375654 0.044139694 0.2278097 0.2908398
