models/Mayiladuthurai_model.pth (torch, 6191 bytes, 9 tensors)

lstm.weight_ih_l0 f4 [32, 1]
0	0xbf045fd1	-0.51708704
1	0x3f640f2f	0.8908567
2	0x3e8c2079	0.27368525
3	0xc017a611	-2.369511
4	0xbf5d142d	-0.8635891
5	0x3f6615f9	0.8987728
6	0xbee9ec14	-0.45687926
7	0xbf810c08	-1.0081797
8	0xc0590d43	-3.3914344
9	0x3f612e77	0.87961525
10	0x3f58c540	0.8467598
11	0xc0468148	-3.1016407
12	0xc0050933	-2.0786865
13	0x3ec835f6	0.3910367
14	0xbf2f8fd9	-0.6857887
15	0xc0221a2c	-2.5328474
16	0xc02e31f3	-2.7217987
17	0x3ecbfdb1	0.3984199
18	0xbfec1c25	-1.8446089
19	0xbfee9330	-1.8638668
20	0x3f913d3d	1.1346813
21	0xbfad23d8	-1.3526564
22	0xbf0b1d68	-0.54341745
23	0x3faaa30e	1.333101
24	0xbf222731	-0.6334105
25	0x3f8665dc	1.0499835
26	0x3f9e34e8	1.2359896
27	0xc04cf588	-3.202486
28	0xbfaa1346	-1.3287132
29	0x3f2dfa32	0.6795989
30	0xbf1f2d98	-0.62178946
31	0xc038a607	-2.8851335

lstm.weight_hh_l0 f4 [32, 8]
0	0x3fa25f91	1.2685415
1	0x3f55e95f	0.8355922
2	0xbf8587f2	-1.0432112
3	0x3fb5911d	1.418491
4	0xbfc88bac	-1.5667624
5	0xbf7a9da2	-0.9789678
6	0x3ee89c65	0.4543182
7	0xbf964f7c	-1.1743007
8	0xbdf22a89	-0.11824519
9	0xbebf2064	-0.373294
10	0x3eb12686	0.34599704
11	0x3e93d0e6	0.28870314
12	0xbc55975d	-0.013036576
13	0x3e9d5ee5	0.3073646
14	0xbec35085	-0.3814737
15	0x3e233f92	0.15942219
16	0x3e2360f3	0.15954952
17	0xbe9c8264	-0.3056823
18	0x3db70f44	0.089384586
19	0xbdb57663	-0.08860471
20	0x3e3c316e	0.18378231
21	0x3d9eab96	0.07747571
22	0xbdeb07d0	-0.114760995
23	0xbeaaf9c4	-0.3339368
24	0x3ebc6c19	0.36801222
25	0x3d5c0fae	0.05372589
26	0xbf2ca3d7	-0.674375
27	0xbc58673a	-0.013208205
28	0xbe899071	-0.26868013
29	0xbef6ae6c	-0.48179948
30	0xbe0b0806	-0.1357728
31	0xbefbe2e0	-0.4919653
32	0xbf456bd3	-0.7711765
33	0x3e857edb	0.26073346
34	0x3e1a916d	0.15094538
35	0x3dc4a21e	0.09601234
36	0x3d9ccf29	0.076567
37	0xbec0006f	-0.3750033
38	0xbe8b6238	-0.27223372
39	0x3e4b393e	0.19846055
40	0x3dae0b6c	0.08498272
41	0xbef07425	-0.4696361
42	0x3cd05642	0.025431756
43	0xbe6e7a21	-0.23288776
44	0x3e74a5cf	0.23891376
45	0x3e79d384	0.24397093
46	0xbedd7b08	-0.43257928
47	0xbe6b07ee	-0.22952244
48	0x3f26fa54	0.6522572
49	0x3cd7e2be	0.026353236
50	0x3f0f8e0c	0.5607612
51	0xbe2bb217	-0.16767155
52	0x3e824ba1	0.25448325
53	0x3e0cfe01	0.1376877
54	0xbda6ba07	-0.08140951
55	0x3e7906be	0.24318978
56	0xbf283953	-0.6571247
57	0xbda0a169	-0.078432865
58	0xbf651ce2	-0.89497197
59	0xbe182d16	-0.14860949
60	0xbe90d797	-0.28289482
61	0xbda4c321	-0.080450304
62	0xbe8da03e	-0.27661318
63	0xbe856129	-0.2605069
64	0x3f8766a2	1.0578196
65	0xbec2c768	-0.3804276
66	0x3eb700fd	0.35742941
67	0x3ed72c17	0.42025825
68	0x3df9a8de	0.12190412
69	0x3e027e7f	0.12743567
70	0x3e27c500	0.16383743
71	0xbea8c241	-0.32960704
72	0x3ec9c6ce	0.39409488
73	0x3e6a510b	0.22882478
74	0x3ed25179	0.41077784
75	0xbec4ef4a	-0.38463813
76	0x3edd3474	0.4320408
77	0x3e861266	0.26185912
78	0x3d98341e	0.074318156
79	0x3e804e47	0.2505972
80	0x3f0934cc	0.53596187
81	0x3e2e85c1	0.1704321
82	0x3d316ca9	0.043316517
83	0x3ec12c6e	0.3772921
84	0x3e86c9d4	0.26325858
85	0x3ebf7547	0.37394163
86	0xbe0de7d5	-0.13857968
87	0xbe924a23	-0.28572187
88	0x3f07286a	0.5279604
89	0xbc52d348	-0.012867756
90	0xbe317b16	-0.1733211
91	0x3c8eec74	0.017446734
92	0x3e992ef8	0.29918647
93	0xbe44c8aa	-0.19217172
94	0xbe2c69cd	-0.16837235
95	0xbd3f4b11	-0.04670245
96	0xbf139140	-0.5764351
97	0xbe018dd0	-0.12651753
98	0xbdd00065	-0.10156325
99	0x3d72aebd	0.059248675
100	0xbe11e4cc	-0.14247435
101	0x3e825d3e	0.25461763
102	0xbe2b4a6c	-0.16727608
103	0xbeb1f502	-0.3475724
104	0x3cfb6b95	0.030690948
105	0xbd3df177	-0.046372857
106	0x3db4d542	0.08829738
107	0x3d9180f3	0.07104673
108	0xbe696e01	-0.2279587
109	0x3eb0764f	0.34465262
110	0xbe3f3b6a	-0.18675008
111	0x3ea8c47c	0.32962406
112	0x3ef4965f	0.47770974
113	0xbd95d0b3	-0.07315197
114	0x3df0e0ba	0.11761613
115	0x3e6c3e30	0.23070598
116	0x3b5788ac	0.003288786
117	0x3e921eec	0.28539217
118	0x3d2d013b	0.0422375
119	0xbee850b5	-0.45374075
120	0xbf195d69	-0.5990816
121	0x3ca5c6a5	0.020236323
122	0xbf441d25	-0.7660697
123	0xbda590ff	-0.080842964
124	0x3cc287da	0.02374642
125	0xbecc2ce0	-0.39877987
126	0xbeb8dfe1	-0.36108306
127	0xbd2b8eca	-0.04188422
128	0xbee7510d	-0.45179024
129	0xbe727ef1	-0.23681237
130	0x3e9d255f	0.30692574
131	0xbe3c14a2	-0.18367246
132	0x3d986d3b	0.07442709
133	0x3e49e356	0.19715628
134	0xbc93724e	-0.01799884
135	0x3e05c016	0.13061556
136	0x3f33e2d9	0.7026802
137	0x3d267e76	0.040647946
138	0xbd826351	-0.06366599
139	0x3e5fc9d1	0.2185433
140	0xbe9851ad	-0.29749814
141	0xbe190192	-0.14942005
142	0xbcc03b8f	-0.0234659
143	0xbe05c146	-0.13062009
144	0x3ef8a5de	0.48564047
145	0x3edf99ff	0.43672177
146	0xbd874ccc	-0.06606445
147	0x3eae0daf	0.33994815
148	0x3bc11516	0.005892406
149	0x3d49a99e	0.049234025
150	0x3e5a10ae	0.21295425
151	0x3ec660b1	0.38745645
152	0xbecc5373	-0.39907417
153	0x3ecaedf2	0.39634663
154	0x3dd877af	0.10569703
155	0x3dec06a0	0.11524701
156	0x3d80c3b0	0.062873244
157	0xbdd62a0e	-0.1045724
158	0x3e6a74fd	0.2289619
159	0x3dc5e755	0.09663264
160	0x3f8ba10b	1.0908521
161	0x3e90b176	0.28260392
162	0xbd92e03f	-0.07171678
163	0x3e9fea98	0.31233668
164	0xbde09ae4	-0.10967043
165	0xbe723fea	-0.23657194
166	0xbd4bc3f0	-0.049747407
167	0x3e677aa1	0.22605373
168	0x3ece58b9	0.40302065
169	0xbd9e3a6e	-0.07725988
170	0xbe080b0a	-0.13285461
171	0x3dea2891	0.11433519
172	0xbb96d58c	-0.0046030935
173	0xbe29d8f2	-0.16586664
174	0x3eb1cd36	0.34726876
175	0xbd11f3a6	-0.035632752
176	0x3dddb68e	0.10825835
177	0xbd76e98a	-0.060281314
178	0x3f4edf8e	0.8080987
179	0xbdacd388	-0.08438784
180	0x3ed43a58	0.41450763
181	0x3e6219b3	0.22080116
182	0xbddf6f0d	-0.10909853
183	0x3e1a7bf9	0.15086354
184	0x3f8b720b	1.0894178
185	0xbe023804	-0.12716681
186	0x3ed71a56	0.4201228
187	0x3f01ed2c	0.5075252
188	0x3ce8c6b5	0.028415063
189	0xbe1b7465	-0.1518112
190	0x3e8b8f1d	0.27257624
191	0x3edc9cb0	0.43088293
192	0x3f4dc141	0.8037301
193	0x3e74080a	0.23831192
194	0xbf3240c6	-0.69630086
195	0x3fb06d5c	1.3783374
196	0xbfcdcafc	-1.6077571
197	0xbf865e7c	-1.0497584
198	0x3eebbe49	0.46043614
199	0xbfa24652	-1.267771
200	0x3e4baf2a	0.19891039
201	0xbea2380e	-0.3168339
202	0xbda7b545	-0.08188871
203	0xbb86ec9d	-0.004117562
204	0x3eccd1b4	0.4000374
205	0x3e8c7e34	0.27440035
206	0x3e70dd7f	0.23521994
207	0x3ef93d07	0.48679373
208	0x3f99be77	1.201125
209	0xbeaa75da	-0.3329304
210	0xbdb4a9b7	-0.08821433
211	0x3d95eedc	0.073209494
212	0xbdec5e28	-0.115413964
213	0xbdd78e8a	-0.10525234
214	0x3dabe408	0.08393103
215	0xbd66bc97	-0.056332197
216	0x3ec3ad29	0.38218048
217	0x3e2c2993	0.16812734
218	0xbf063039	-0.5241733
219	0x3eaab836	0.33343667
220	0xbdb591d7	-0.08865707
221	0xbe9d4a7b	-0.30720887
222	0xbe33836a	-0.17530599
223	0xbee38559	-0.44437674
224	0xbefd96c7	-0.49529096
225	0xbea888b9	-0.3291681
226	0xbe76e33b	-0.24110119
227	0xbdac91cf	-0.08426248
228	0xbe6b73e5	-0.22993429
229	0x3e382fa0	0.17986917
230	0x3c327424	0.010891948
231	0xbeb61f25	-0.35570636
232	0x3f0c568e	0.5481957
233	0xbe17f822	-0.14840749
234	0x3db903db	0.090339385
235	0x3e4c32cd	0.19941254
236	0xbec2a5be	-0.38017076
237	0x3e57acc6	0.21062002
238	0xbe9a6f4e	-0.30163044
239	0x3dfab57f	0.12241649
240	0x3f0998c7	0.53748745
241	0x3ecd7a76	0.40132493
242	0x3f380e37	0.7189669
243	0x3e9307c2	0.28716856
244	0x3eff5637	0.49870464
245	0xbdcd8e01	-0.10036851
246	0x3c31f004	0.010860447
247	0xbe8d58c6	-0.2760679
248	0x3e070856	0.13186774
249	0x3dc73e70	0.09728706
250	0xbec9e69c	-0.39433753
251	0x3f32b216	0.6980299
252	0xbe7607ad	-0.24026366
253	0xbe96f0a7	-0.29480478
254	0x3db8862c	0.09009966
255	0xbf142c33	-0.5787994

lstm.bias_ih_l0 f4 [32]
0	0x3f90cfe0	1.1313438
1	0xbe98f06f	-0.29870936
2	0xbdd4c260	-0.103886366
3	0x3de3e038	0.11126751
4	0x3eb078ad	0.34467068
5	0xbd7ac565	-0.061223406
6	0xbc8ebaac	-0.017422996
7	0x3d57da17	0.05269822
8	0xbed4fdda	-0.41599923
9	0xbde74d83	-0.11294081
10	0x3e30d69f	0.17269371
11	0xbe119e37	-0.1422051
12	0xbecc5d73	-0.39915046
13	0x3d2fe955	0.042947132
14	0x3ddd9a74	0.10820475
15	0x3ea725b4	0.32645953
16	0x3e711912	0.2354472
17	0xbeac2d34	-0.33628237
18	0xbe5656b0	-0.20931506
19	0xbe12a2b4	-0.14319879
20	0xbdd2dd46	-0.10296111
21	0xbe9069ce	-0.28205723
22	0x3e0a2e22	0.13494161
23	0x3d8c3fdf	0.0684812
24	0x3f68958b	0.90853184
25	0xbeb23327	-0.3480465
26	0x3d9b8ba5	0.075949945
27	0x3e998e9b	0.29991612
28	0xbe9470f5	-0.2899243
29	0xbeb0ff23	-0.34569654
30	0xbefa73c7	-0.48916456
31	0x3b263cc5	0.0025365811

lstm.bias_hh_l0 f4 [32]
0	0x3f4bda98	0.7963042
1	0xbe517538	-0.20454872
2	0x3e8f205c	0.27954376
3	0x3e784c00	0.24247742
4	0x3e2cca71	0.168741
5	0x3d07f739	0.033194754
6	0xbefef422	-0.49795634
7	0x3c66840e	0.01406957
8	0xbd8a47d5	-0.06751982
9	0x3e144803	0.14480595
10	0xbe2ceee9	-0.16888012
11	0xbdf8e238	-0.12152523
12	0xbeae8ac8	-0.34090257
13	0xbe61cfcf	-0.22051929
14	0x3e8cbaa5	0.27486148
15	0xbe0386b3	-0.12844352
16	0xbc0569c7	-0.008142895
17	0x3e5c82e9	0.21534313
18	0xbd30db87	-0.043178108
19	0x3e7dc88d	0.24783535
20	0xbde78283	-0.1130419
21	0xbe2176da	-0.15767995
22	0x3d8760a6	0.06610231
23	0xbe3a69fc	-0.18204492
24	0x3f496400	0.7866821
25	0x3e5dceb7	0.21660887
26	0x3e70d029	0.23516907
27	0xbdf3fb55	-0.11913172
28	0x3e3b33b7	0.18281446
29	0xbe6c1a98	-0.2305702
30	0x3d54e564	0.051976576
31	0x3ea5086d	0.3223299

lstm.weight_ih_l1 f4 [32, 8]
0	0x3f9784a2	1.1837351
1	0xbe8f9a48	-0.28047395
2	0xbdaee776	-0.085402414
3	0x3f716617	0.942964
4	0xbee77e96	-0.45213765
5	0xbebe5d41	-0.37180522
6	0x3ee94645	0.45561424
7	0xbf3e8ba7	-0.7443184
8	0xbec5eb40	-0.38656044
9	0xbf0145eb	-0.5049731
10	0xbd162d40	-0.036664248
11	0xbf085bb5	-0.53264934
12	0x3ceaa760	0.028644264
13	0x3eb6c96e	0.35700554
14	0xbde92a48	-0.11385018
15	0x3eee55d3	0.46549854
16	0x3f191a06	0.59805334
17	0xbe4f267b	-0.20229523
18	0x3ea9be1c	0.33152854
19	0x3e2ffb33	0.17185669
20	0xbe9060de	-0.28198904
21	0x3e20b6a2	0.15694669
22	0xbe6fec35	-0.2342995
23	0xbe125660	-0.14290762
24	0x3f79dfb6	0.9760698
25	0xbee8c0dd	-0.45459643
26	0x3e8d1d9f	0.27561662
27	0x3f08d5fa	0.534515
28	0x3e4bf974	0.19919378
29	0x3e3dfc20	0.1855321
30	0xbe011d33	-0.12608795
31	0xbe926ea7	-0.28600046
32	0x3fcc4844	1.5959554
33	0xbe8bd12e	-0.2730803
34	0x3ee8b40e	0.4544987
35	0x3e4bc2e0	0.19898558
36	0x3e63386d	0.22189493
37	0x3e8bb1e3	0.27284154
38	0x3c738ec1	0.014865578
39	0xbedd0d6c	-0.43174303
40	0x3f7a7d28	0.97847223
41	0x3d63e535	0.05563851
42	0x3bda3eab	0.0066603026
43	0x3ee3c95b	0.4448956
44	0xbd971d63	-0.07378652
45	0x3ed8a898	0.42316127
46	0xbe0c658b	-0.1371061
47	0x3e68b554	0.22725421
48	0x3e923699	0.2855728
49	0x3d28aa5f	0.041178104
50	0x3eae9cbc	0.34103954
51	0x3e903e32	0.2817245
52	0x3de61535	0.11234514
53	0xbdfc6948	-0.12324768
54	0xbe914b77	-0.28377888
55	0x3bb99074	0.005662972
56	0xbe3f6bad	-0.18693419
57	0xbdc85bda	-0.09783144
58	0x3ef99547	0.48746702
59	0xbe32b33d	-0.17451186
60	0x3e5b6c5a	0.21428052
61	0xbbb4c841	-0.005517036
62	0xbd95a15a	-0.07306166
63	0x3ec0a817	0.37628242
64	0x3fb7d44a	1.436166
65	0xbe82515a	-0.2545269
66	0x3ef69249	0.48158482
67	0x3eea84ac	0.45804346
68	0xbd3ec47e	-0.04657411
69	0x3f376be4	0.71649003
70	0xbf1522ae	-0.5825604
71	0x3e238820	0.15969896
72	0xbed709d2	-0.4199968
73	0xbeb11e8e	-0.34593624
74	0x3eda8c14	0.42684996
75	0xbf00397b	-0.5008771
76	0x3e7ad524	0.24495369
77	0x3eda4af9	0.42635325
78	0x3d95365c	0.07285759
79	0x3e816e96	0.25279683
80	0x3e8a613a	0.27027303
81	0x3d327c4a	0.043575563
82	0x3ea24484	0.31692898
83	0x3cb94ec1	0.02262056
84	0x3e86d1b6	0.26331872
85	0xbe14af73	-0.14520054
86	0xbe007bb9	-0.12547196
87	0xbe42913e	-0.19000718
88	0x3e1c913c	0.15289778
89	0xbd064c88	-0.03278783
90	0xbd283514	-0.041066244
91	0xbe30297d	-0.17203327
92	0x3edd3b42	0.43209273
93	0xbaabad60	-0.0013097934
94	0xbefb86ef	-0.49126384
95	0x3db497e8	0.08818036
96	0x3f5d0b27	0.8634514
97	0x3de9eab9	0.11421723
98	0x3f167c4e	0.58783424
99	0x3e2c3861	0.16818382
100	0xbe072a16	-0.13199648
101	0x3eb99145	0.36243644
102	0xbf00fb9d	-0.5038393
103	0xbed55ea3	-0.41673765
104	0x3afb6a1e	0.0019181406
105	0x3e016101	0.1263466
106	0x3e54c9a3	0.20780043
107	0x3e44f0cf	0.19232486
108	0xbe3b22e1	-0.18275024
109	0x3ea77ee6	0.32714003
110	0xbdcf97f9	-0.10136408
111	0x3eb70072	0.35742527
112	0x3ea032ef	0.3128886
113	0x3eb37abd	0.3505458
114	0xbe39f9f7	-0.1816176
115	0x3e79ab6e	0.24381801
116	0xbe49a8d8	-0.19693315
117	0x3e10fd34	0.1415909
118	0x3e412983	0.18863492
119	0x3e6a228e	0.22864744
120	0xbf7673cd	-0.9627045
121	0xbda9487c	-0.082657784
122	0xbe125e1a	-0.1429371
123	0xbed6ee1a	-0.41978532
124	0x3ec3f531	0.38273004
125	0x3e97a73a	0.2961977
126	0xbf151240	-0.5823097
127	0x3dd49595	0.10380093
128	0x3f6ed894	0.9329922
129	0xbdfea64b	-0.124340616
130	0x3d17d1b1	0.03706521
131	0x3e9a0db4	0.3008858
132	0xbebc7cd7	-0.36813995
133	0x3e35aa4c	0.17740744
134	0xbe7f5d77	-0.24937998
135	0xbd7763f6	-0.060398065
136	0x3ec4b913	0.3842245
137	0x3d9d79d6	0.07689254
138	0x3e4b3c82	0.198473
139	0x3caca635	0.021075347
140	0xbec8e5e8	-0.39237905
141	0xbd81e9c6	-0.06343417
142	0x3ec86695	0.39140764
143	0xbdf2067d	-0.11817644
144	0xbf01c9ca	-0.5069853
145	0xbdd1faa1	-0.10252882
146	0xbe7b1a74	-0.2452181
147	0xbea5011c	-0.3222741
148	0xbe4e37b2	-0.20138434
149	0x3db84286	0.08997063
150	0x3e0296b0	0.12752795
151	0x3d5ae51d	0.053441156
152	0x3ec0ca4c	0.3765434
153	0xbe296fae	-0.16546509
154	0xbe00a397	-0.12562405
155	0x3ec25df2	0.379623
156	0xbe8402fe	-0.25783533
157	0x3bb198bc	0.0054198187
158	0xbe08da39	-0.13364495
159	0xbe95e722	-0.29277903
160	0x3f3adeba	0.72996104
161	0x3e185326	0.14875469
162	0x3e05cbf8	0.13066089
163	0x3ef3494a	0.47516853
164	0x3e79a975	0.24381049
165	0xbe667e42	-0.22509101
166	0x3d8a330b	0.06748017
167	0xbea0de10	-0.3141942
168	0x3ece382d	0.40277234
169	0xbdc04f08	-0.09390074
170	0xbe1683ed	-0.14698763
171	0x3e3e43cd	0.18580551
172	0xbcd293d8	-0.025705263
173	0x3e576930	0.2103622
174	0x3ece0824	0.40240586
175	0xbe83a666	-0.2571289
176	0x3e056c4f	0.13029598
177	0xbc7e4ab3	-0.015520739
178	0x3d6005eb	0.054693144
179	0x3e872764	0.2639724
180	0x3db81811	0.08988965
181	0x3e8288f4	0.25495112
182	0xbc05c370	-0.008164272
183	0xbe61323d	-0.2199182
184	0x3dce3968	0.10069543
185	0x3eb19a5a	0.34688073
186	0xbdea1ca9	-0.11431248
187	0x3ed48c96	0.4151351
188	0xbc0b5c8f	-0.008505954
189	0x3cc11f07	0.023574365
190	0xbe2fbbe9	-0.17161526
191	0xbe9f7876	-0.31146592
192	0x3fdcee5c	1.7260242
193	0xbf0ff52a	-0.56233466
194	0xbe4eed1d	-0.20207639
195	0x3f9c1928	1.2195177
196	0xbec4ca53	-0.3843561
197	0x3ceecd3f	0.029150603
198	0x3d44837a	0.04797695
199	0xbf50ca82	-0.81559
200	0xbf2eac02	-0.68231213
201	0xbf0f669e	-0.56015956
202	0x3d1ab9e1	0.037774924
203	0xbf4116eb	-0.75425595
204	0x3eac3cdd	0.33640185
205	0xbd337818	-0.043815702
206	0xbf143c06	-0.5790409
207	0x3e4d5821	0.2005315
208	0x3f828277	1.0196065
209	0xbe80e856	-0.25177258
210	0x3f111fa5	0.5668891
211	0x3f256932	0.6461364
212	0x3dd670be	0.104707226
213	0xbe57acec	-0.21062058
214	0xbe009e0e	-0.12560293
215	0xbe5c1bce	-0.21494982
216	0x3f74e6ae	0.9566449
217	0xbeb0d21c	-0.345353
218	0x3e0941e3	0.1340404
219	0x3cb9a8d5	0.022663513
220	0x3e3498f3	0.1763647
221	0x3e018618	0.12648809
222	0x3d35c10a	0.04437355
223	0xbe9c2bb2	-0.30502087
224	0x40062684	2.0961008
225	0xbebff42d	-0.3749098
226	0x3f21e4e8	0.6323991
227	0x3f1a25ad	0.6021374
228	0x3ea7b9ce	0.32758945
229	0x3b623dab	0.003452162
230	0x3c942150	0.01808229
231	0xbe40b679	-0.18819608
232	0x3f8117e7	1.008542
233	0xbe0b1614	-0.13582641
234	0x3ec85de1	0.39134124
235	0x3c941952	0.01807848
236	0xbd8ab150	-0.06772101
237	0x3ec93df9	0.39305094
238	0x3e47ac7e	0.19499394
239	0xbecc2e7f	-0.39879224
240	0x3f274bae	0.65349853
241	0x3dc5e10a	0.096620634
242	0x3e7ac0df	0.24487637
243	0x3f35abf9	0.70965534
244	0x3e25dc82	0.16197398
245	0x3d6bcc3f	0.05756783
246	0xbe9493d7	-0.29019043
247	0xbe3b4bd5	-0.18290646
248	0xbe84799d	-0.25874034
249	0x3dd80a2e	0.105488166
250	0x3eda82b4	0.42677844
251	0x3e2cc6c0	0.16872692
252	0x3e30c7e3	0.1726375
253	0x3f099cc0	0.53754807
254	0xbe35a5c7	-0.1773902
255	0x3ed90243	0.42384538

lstm.weight_hh_l1 f4 [32, 8]
0	0x3dea8daf	0.11452805
1	0xbd4e5d2a	-0.050381817
2	0xbe9b3a03	-0.30317697
3	0xbe579ec2	-0.21056655
4	0xbec42ba2	-0.3831454
5	0xbe9fde91	-0.31224492
6	0xbc8f19e3	-0.017468398
7	0xbea59055	-0.3233668
8	0xbf047e89	-0.5175558
9	0xbcb4efc9	-0.022086995
10	0x3e5fd34b	0.21857946
11	0xbe514e6c	-0.20440072
12	0xbeaabd74	-0.33347666
13	0xbe6b03d3	-0.22950678
14	0xbed8994e	-0.42304462
15	0xbe4d486c	-0.20047158
16	0xbe3845ba	-0.17995349
17	0xbeb1d687	-0.34733984
18	0xbd3dfa7b	-0.046381455
19	0xbef2f84e	-0.47455066
20	0x3dc6f920	0.097154856
21	0x3cd44e5e	0.025916275
22	0xbec4c2bd	-0.38429824
23	0x3d00cd1d	0.03144561
24	0xbdff62e1	-0.124700315
25	0x3e84e839	0.25958422
26	0x3eca0fcc	0.39465177
27	0xbea3358b	-0.31876788
28	0xbef0d2c6	-0.47035807
29	0xbf0c5b4a	-0.54826796
30	0xbe18d9e5	-0.1492687
31	0xbd476c9e	-0.04868757
32	0x3e72870a	0.23684326
33	0x3e43732b	0.19086902
34	0xbdf7a8e3	-0.120927595
35	0xbebcadcc	-0.36851346
36	0xbee05eab	-0.43822226
37	0xbd35bd56	-0.044370018
38	0xbe6fdfdb	-0.23425238
39	0x3f0d0317	0.5508284
40	0xbec2f3da	-0.3807667
41	0x3b564f7f	0.0032701192
42	0x3ebaeea0	0.3651018
43	0x3df2f88b	0.11863812
44	0xbf179367	-0.59209293
45	0xbefdc6c2	-0.49565703
46	0xbee28649	-0.44243076
47	0xbd39c03d	-0.04534935
48	0xbd50ed6b	-0.05100767
49	0xbd152da2	-0.036420472
50	0x3d4e84da	0.050419666
51	0xbeb2c43b	-0.34915337
52	0xbf027be4	-0.5097029
53	0xbee36fa6	-0.44421118
54	0xbd899563	-0.067179464
55	0x3e1d0252	0.15332916
56	0x3e4dccb7	0.20097624
57	0xbe0dbfb7	-0.13842665
58	0x3e6b91df	0.23004864
59	0x3d542e69	0.051802073
60	0xbe8d29ba	-0.27570897
61	0xbe365bb4	-0.1780842
62	0xbc7547db	-0.014970745
63	0x3d23a0e2	0.03994835
64	0xbd282edb	-0.04106031
65	0x3f21b43c	0.6316564
66	0x3e2eb95e	0.170629
67	0x3e1e1afe	0.15439984
68	0xbebe5a12	-0.37178093
69	0xbed5fa19	-0.41792372
70	0xbd02f1f8	-0.03196904
71	0x3e271777	0.16317545
72	0x3e6bbc6a	0.23021093
73	0xbdddd9b9	-0.10832543
74	0x3dec6f59	0.115446754
75	0xbe2d41dc	-0.16919655
76	0xbef2b244	-0.4740163
77	0xbe96901b	-0.2940682
78	0xbec7e8fd	-0.39044943
79	0x3beae980	0.0071689487
80	0xbec44719	-0.38335493
81	0x3e56aa19	0.20963325
82	0x3e8b6917	0.27228615
83	0x3d473620	0.048635602
84	0xbeb8806c	-0.36035478
85	0xbf0ee24f	-0.5581407
86	0xbedb3337	-0.4281251
87	0xbe5a9f5b	-0.21349852
88	0xbeba39a2	-0.36372095
89	0x3ec58d51	0.38584378
90	0xbe141e61	-0.14464714
91	0xbd4722f0	-0.048617303
92	0xbdc5f944	-0.09666684
93	0xbe60dca1	-0.21959163
94	0xbe8ae392	-0.27126747
95	0x3ee039f2	0.4379421
96	0xbec6c356	-0.38820904
97	0xbd8b12bc	-0.06790683
98	0x3e1f349f	0.15547417
99	0xbe8cdd9c	-0.27512825
100	0xbf2b98a8	-0.6702981
101	0xbdbbf3ad	-0.09177337
102	0x3d50d4a9	0.05098406
103	0x3ed30805	0.41217056
104	0xbe595015	-0.21221955
105	0xbe43ca5e	-0.19120166
106	0x3e066a42	0.13126472
107	0xbeac97d8	-0.33709598
108	0xbed48c0f	-0.41513106
109	0xbe339712	-0.17538098
110	0xbeb001a2	-0.34376246
111	0xbe889a0d	-0.2668003
112	0x3d107693	0.03526933
113	0xbe4371c2	-0.19086364
114	0x3ea2cac3	0.3179532
115	0xbe368789	-0.1782514
116	0xbea03b5d	-0.3129529
117	0xbe8d7ef3	-0.27635917
118	0x3e8194e8	0.2530892
119	0xbb0c11ba	-0.002137287
120	0xbe323edb	-0.1740679
121	0x3d4749db	0.04865442
122	0x3d9b027f	0.075688355
123	0xbe36dce7	-0.17857705
124	0xbdb592ac	-0.08865866
125	0xbdfe0ee9	-0.12405188
126	0xbe2fc40c	-0.1716463
127	0x3d4ee14e	0.050507836
128	0xbf085482	-0.5325395
129	0xbec0beef	-0.3764567
130	0xbdbf7136	-0.09347765
131	0xbe28f6e4	-0.16500431
132	0xbed15f2f	-0.40892932
133	0xbefc6ed3	-0.49303302
134	0xbec62e1d	-0.38707057
135	0xbe08b9e6	-0.13352165
136	0xbe16f45c	-0.14741653
137	0xbe439e0f	-0.19103263
138	0x3dd0671f	0.10175919
139	0xbe2f25f5	-0.17104323
140	0xbdd4b591	-0.103861935
141	0x3ea7adf2	0.32749897
142	0x3ed4f70a	0.41594726
143	0xbd9092c3	-0.070592426
144	0x3eb908fa	0.3613966
145	0x3e8eb246	0.27870387
146	0xbede492e	-0.43415207
147	0x3e318601	0.17336275
148	0x3ebbf882	0.36713034
149	0x3db23195	0.08700863
150	0x3ec51bbe	0.38497728
151	0x3df89bbb	0.12139078
152	0xbeb0cc35	-0.34530798
153	0xbe4a7acb	-0.19773404
154	0xbe1f3d40	-0.15550709
155	0xbe4c4416	-0.19947848
156	0x3cbc9b77	0.02302335
157	0xbea8f298	-0.32997584
158	0xbe80dc4f	-0.25168082
159	0xbe7bfceb	-0.246082
160	0xbe8d3520	-0.27579594
161	0x3e308d53	0.17241411
162	0x3cd06d39	0.025442706
163	0x3e6db59a	0.23213807
164	0x3c8f36a9	0.017482119
165	0xbeb72a25	-0.3577434
166	0x3e43ef82	0.19134334
167	0xbe74cec4	-0.23907
168	0xbdb1c81b	-0.08680745
169	0xbdc8a82e	-0.09797703
170	0x3e3cb948	0.18430054
171	0xbe1a04bf	-0.15040873
172	0x3e711f4f	0.235471
173	0x3e4fb4de	0.20283839
174	0x3e88d4ae	0.26724762
175	0xbd7b5d87	-0.06136849
176	0xbdbda87a	-0.0926065
177	0xbe2510ee	-0.1611974
178	0xbc7b7753	-0.015348273
179	0x3dceead5	0.101033844
180	0xbed2df25	-0.4118587
181	0xbe632d01	-0.22185136
182	0xbe0da80d	-0.13833638
183	0x3e85f12e	0.26160568
184	0x3cd2caa7	0.025731398
185	0xbde5cbb4	-0.11220494
186	0xbcfa89c9	-0.03058328
187	0x3dc28a5c	0.09499046
188	0x3e0c949b	0.13728563
189	0xbde80a52	-0.113300934
190	0xbde198ce	-0.11015473
191	0xbe53bc2a	-0.20677248
192	0x3f1b47f7	0.60656685
193	0xbefbb90e	-0.49164623
194	0xbeb22f5e	-0.34801763
195	0x3d696a50	0.056986153
196	0x3c1393e6	0.00900743
197	0xbe3998f4	-0.18124753
198	0x3e570b10	0.21000314
199	0xbd1f155a	-0.03883872
200	0xbd259bf0	-0.040431917
201	0x3d67700a	0.056503333
202	0xbe00bf4d	-0.12572975
203	0xbde4cb69	-0.1117161
204	0xbec74682	-0.3892098
205	0x3e4a9d11	0.19786479
206	0xbd1377e2	-0.036003
207	0xbe862dbf	-0.26206776
208	0xbe41f54d	-0.18941231
209	0xbe380f94	-0.17974693
210	0x3d8971b9	0.06711144
211	0xbf009a0a	-0.50235045
212	0xbf26e6ba	-0.6519581
213	0xbe0e878d	-0.13918896
214	0xbd1dc29c	-0.038515672
215	0xbdea92c3	-0.11453774
216	0x3c794578	0.015214317
217	0x3d902afc	0.070394486
218	0xbe082110	-0.13293862
219	0x3c597177	0.013271681
220	0xbf0add10	-0.54243565
221	0xbd596775	-0.05307718
222	0xbcec87ac	-0.028873287
223	0x3df56c8f	0.119835965
224	0xbe7a2980	-0.24429893
225	0xbe8e7e4e	-0.27830738
226	0xbdc127f4	-0.094314486
227	0xbe392372	-0.18079928
228	0xbd995b79	-0.0748815
229	0x3d35e19f	0.044404622
230	0xbe93ed3d	-0.28891936
231	0x3eb8b4dc	0.36075485
232	0xbf17ad9b	-0.59249276
233	0xbe71d568	-0.23616564
234	0xbde1f3f5	-0.11032859
235	0xbd7410c8	-0.059586316
236	0xbe6089dd	-0.2192759
237	0xbdc22c99	-0.094811626
238	0xbe5bdc81	-0.21470834
239	0x3e20cb9d	0.15702672
240	0xbdac8317	-0.08423441
241	0x3e1bb351	0.15205123
242	0xbe39ac18	-0.18132055
243	0x3d96f744	0.07371381
244	0xbf049f55	-0.5180562
245	0xbe16c5e4	-0.14723927
246	0xbe0577d2	-0.13033989
247	0xbe367ec7	-0.17821799
248	0xbe63a52b	-0.22230975
249	0x3f0847c3	0.532345
250	0x3dfa9fce	0.122375116
251	0x3de6d4c2	0.11271049
252	0xbef32557	-0.47489426
253	0xbed29bae	-0.411344
254	0xbf04f7bd	-0.5194052
255	0x3e59d934	0.21274263

lstm.bias_ih_l1 f4 [32]
0	0x3ea09771	0.3136554
1	0xbd98f22c	-0.074680656
2	0x3d8d920b	0.06912621
3	0xbed09b3e	-0.4074344
4	0xbe5b5663	-0.21419673
5	0x3ddde4a3	0.108346246
6	0xbe67055e	-0.22560641
7	0xbea36221	-0.31910804
8	0xbec772e8	-0.38954854
9	0x3df37eea	0.11889441
10	0xbea7f18b	-0.3280147
11	0xbdbb744a	-0.0915304
12	0xbefc0cf0	-0.4922862
13	0x3e4984b1	0.19679524
14	0xbe9d05de	-0.3066854
15	0xbe6502a7	-0.22364293
16	0x3dbe1bee	0.09282671
17	0xbd9d658c	-0.07685384
18	0xbe758388	-0.23975956
19	0xbe1f0288	-0.1552831
20	0xbe6fe4ea	-0.23427168
21	0xbd9ebfa4	-0.07751396
22	0x3e567259	0.20942058
23	0x3d804f47	0.06265121
24	0x3e46fec0	0.19433117
25	0xbe6c7a4f	-0.23093532
26	0x3e0770d7	0.13226639
27	0xbceea74c	-0.029132508
28	0xbdcecbfd	-0.100975014
29	0xbd885f86	-0.06658845
30	0xbe16afae	-0.14715454
31	0xbe9d3c8c	-0.30710256

lstm.bias_hh_l1 f4 [32]
0	0x3e690c69	0.2275864
1	0xbe9f7fd9	-0.31152228
2	0x3d64d7ea	0.055869974
3	0xbdbae328	-0.09125358
4	0x3e0580cb	0.13037412
5	0xbe46986b	-0.1939408
6	0xbddf0f9a	-0.10891648
7	0xbf35877f	-0.70909876
8	0xbeb72860	-0.3577299
9	0xbe9a6e32	-0.30162197
10	0x3e8b4804	0.2720338
11	0x3d771dc6	0.06033113
12	0xbe8f6555	-0.28006998
13	0xbd32d271	-0.043657724
14	0xbe48c730	-0.19607234
15	0x3d428b58	0.04749617
16	0x3d0bc810	0.03412634
17	0xbd8d4ea7	-0.06899767
18	0xbe37875f	-0.17922734
19	0x3df1a59c	0.117991656
20	0x3ea59861	0.32342818
21	0x3e18a341	0.14906026
22	0x3ebb774c	0.36614454
23	0xbddb86f4	-0.107191
24	0xbe11747a	-0.14204589
25	0xbf0024b3	-0.50056
26	0x3e25a467	0.16175996
27	0xbe2d1bb1	-0.16905095
28	0x3d9b78bd	0.075913884
29	0xbe99e9f8	-0.30061316
30	0xbea67b05	-0.3251573
31	0xbeba884e	-0.36432117

fc.weight f4 [1, 8]
0	0xbea75bb0	-0.3268714
1	0xbdf5056c	-0.11963925
2	0x3e487ecd	0.1957962
3	0xbd438ff9	-0.047744725
4	0xbe6ef9b5	-0.23337443
5	0xbe608334	-0.2192505
6	0xbe8d0de2	-0.27549654
7	0xbcdd750e	-0.027033355
