models/Mumbai_model.pth (torch, 6135 bytes, 9 tensors)

lstm.weight_ih_l0 f4 [32, 1]
00000000: ba65 4ac0 eaf4 6c3f a95d 1ebf f4fc 173f
00000010: 22b1 cabf 5794 8a3f d290 1040 3858 0a40
00000020: a31a 86c0 9d8a ca3f 0c1e 1a3f 2e8a ed3e
00000030: 5a4d 863e 196b 853f 5f59 fc3f 9519 0d40
00000040: 1968 52c0 f68c 24c0 1f4f 80bf 55e1 cfbe
00000050: 90a1 cd3f 12ff fdbf bb26 f13f 022c 3b40
00000060: b455 4ec0 75b0 ec3f 5626 403f a2a0 743f
00000070: 3512 40bf c9cd 593f 4216 2440 46d3 b93f
-3.162459 0.9256121 -0.61861664 0.5937035 -1.5835307 1.082652 2.2588391 2.1616344
-4.1907516 1.5823551 0.602021 0.46394485 0.2623089 1.0423309 1.9714774 2.2046864
-3.2876036 -2.5711036 -1.0024146 -0.40601602 1.606493 -1.9843466 1.8839945 2.924561
-3.223981 1.849135 0.75058496 0.95557606 -0.7502778 0.8507963 2.5638585 1.45176

lstm.weight_hh_l0 f4 [32, 8]
00000000: f443 8e3f eeeb 48bf a2fc 30bf 1792 4dbf
00000010: cddc a33f f49c 22bf 549c 373f beec 253f
00000020: f78c 433f e6e9 38bf 01f4 debe 7d9f b9be
00000030: 83ac 163f d952 5dbf 1f36 ae3e 9911 0b3f
00000040: 3263 05bf 68c8 b4be 0be7 a0be c557 4cbe
00000050: cb17 45be 1fb2 583e e9fe f9bc f3d3 3cbe
00000060: 3182 72be 7ab9 3f3e 4063 97bd 387e 883e
00000070: 33ae 8abe e6a5 93be de1b 1e3e 4b22 c43d
00000080: 6d65 9cbe f930 cebd ba8c e23b 8949 6abe
00000090: 8a59 6dbe 16fd 5a3e f42c 213d 82e7 96be
000000a0: 0c72 26bf e08f ddbe 82dd 92be c986 b1be
000000b0: 3633 f03d af74 c0be 2e87 f03e 1965 813e
000000c0: 79b5 ce3d 978a 67bd 4584 893e e4b0 1cbe
000000d0: 7a3c b7be 4d51 a2be 6355 afbd 13dd 633e
000000e0: a71a 12be e2a6 dfbe eac2 17bb 2936 043d
000000f0: 7dd4 16be d502 e9be b6cb cebc a0f0 a03e
00000100: a8b3 123f e8fd 9a3e 204d f2bd 33fa 7f3a
00000110: 6568 78bd f733 593e de5c 7bbe e083 5e3d
00000120: cad1 f6bd ce2b e73e d4fa f73d bf73 67be
00000130: 59e0 0abf b9af e4bc a868 c9bd c5ca 94bd
00000140: 919d 4bbe c822 c23e f33c 0d3f 8826 083f
00000150: e133 6cbe 348b 253d 234f 40be 5401 88be
00000160: 6b36 e7bd 9da7 c43e deae 483e 5256 91bd
00000170: 1dec c0be 6ed4 bfbd 1cce 503d a3f4 a4be
00000180: 214d e13e 7be9 0a3e 6c3e 133f 5b66 893e
00000190: 5d17 58be d1b0 be3e fc92 8dbe eb5e 1bbf
000001a0: fbbc 023d c1de 4cbe 300f 1a3e 9898 9ebe
000001b0: b40a 6c3e 81f0 573e a851 213e 5cba ff3d
000001c0: df91 3fbe 1655 8c3d c00c bf3e 32c4 923e
000001d0: 59f1 afbe 47fa 923e 7ef3 113e e040 e7be
000001e0: e978 41be 6094 80be d57a 903e ddd8 d83e
000001f0: 4cc5 c63d eb5c bcbd 947c 40be ec9f a83d
00000200: 5cbd 8bbe d63c eebd 8da7 26bd 2863 dd3d
00000210: a18f 1e3d 10f3 afbe f0b2 89bc 7d70 dabc
00000220: 5a39 67be d466 7bbe 9f18 493e 8da7 303e
00000230: cb54 77be a2fc ba3c 051e 533d 8b7b 54bd
00000240: 828b 91be e33c 95be 2d75 03bf e636 173e
00000250: 5b76 ff3c cc43 5abe 6a53 813e 08d4 05be
00000260: 4dea 5ebe 61d3 72be c52c 3fbc e90d 823d
00000270: 61c0 8b3e 10a5 273e 3f57 1c3e a861 493e
00000280: ffeb 973d 6d0b a53e 5a9e d03e 0fbc b63e
00000290: 360a e93c d2ef 273e 11ca e03d f9d7 e53d
000002a0: bd62 023f 4a41 dc3d 3633 c6be d2ef e83d
000002b0: 7eeb bebe 6c38 4dbd 5b9c 8fbe ba6b 9fbd
000002c0: 7163 a8be a916 adbc d4e2 38be 8d16 c43e
000002d0: bb2a b63c 66dc d73e 2761 a33d f2ff 9cbe
000002e0: f8a5 80be 3033 d9be 862e 5bbd 88c2 1bbe
000002f0: 7fe4 f63d 77d5 a1be c4f7 34be 0bec 293d
00000300: 1029 823f 7812 81bf 2d6f 1fbf 063e 8fbf
00000310: fb40 a43f f3f7 5abf a73e 443f 43b5 753f
00000320: d847 cc3e 963e 0bbf ac74 3dbf 833b a0be
00000330: 370b bc3e d12a e1be 7d11 b83e 261c ab3e
00000340: 2a9c 993d 786e 6fbe 3f7a 3abe 2a24 173e
00000350: 3c12 6c3e 6adb 3bbe eb21 86bd 9d12 a6bd
00000360: 1352 a7be dcaf 3d3e e576 ff3d 6ca2 973e
00000370: d8a2 89be 2d1e 183e 59fe 353e 5879 3d3e
00000380: 6750 8cbd 60a9 8c3e 3223 04bd 6a30 b33e
00000390: 1ef2 01be 8460 803e 02b0 403e 1279 113e
000003a0: 27e4 09bf e9e0 90be 15ee a2be ec6d e7be
000003b0: de97 c83e 69cd 16be 496a 893d 5bd5 aa3d
000003c0: df40 42be faf6 8ebe 539e 48bd a2f0 8dbe
000003d0: 8414 e53d c1bc 57be b8b2 87bb f23e b63e
000003e0: c94e a5be 36f5 813d 6fea d33e a7dd 3b3d
000003f0: cf49 34be 1592 7bbd 0bbf 8cbe 942d 45be
1.1114488 -0.78485 -0.6913549 -0.8030104 1.2801758 -0.6352074 0.7172291 0.64814365
0.7638697 -0.722319 -0.43545535 -0.36254492 0.5885698 -0.8645454 0.34025666 0.54323727
-0.52104485 -0.35309148 -0.31426272 -0.19955356 -0.19247358 0.21161698 -0.030517058 -0.18440227
-0.23682477 0.18723097 -0.07391977 0.26658797 -0.27086028 -0.28837508 0.15440318 0.09576853
-0.30546132 -0.100679345 0.0069137486 -0.22879614 -0.23178688 0.21385607 0.03934951 -0.294735
-0.6501777 -0.4327383 -0.28684622 -0.34673145 0.11728518 -0.37589023 0.46978134 0.25272444
0.10093207 -0.056528654 0.26858726 -0.15301853 -0.35788327 -0.31702653 -0.08561208 0.22252302
-0.1426798 -0.4368201 -0.002315695 0.032278214 -0.14729495 -0.45509973 -0.025243621 0.31433582
0.57305384 0.3027184 -0.11831117 0.00097647606 -0.060646433 0.2121123 -0.24547145 0.054324985
-0.12051733 0.45150608 0.121083885 -0.22602747 -0.5424858 -0.027915822 -0.09834415 -0.07265238
-0.19884326 0.3791716 0.55171126 0.53183794 -0.23066665 0.040415958 -0.18780188 -0.26563513
-0.11289676 0.3840913 0.19597957 -0.070965424 -0.3768014 -0.093666896 0.05097781 -0.32217893
0.44004157 0.13565628 0.57517123 0.26835904 -0.21102662 0.37244275 -0.27651203 -0.6069171
0.031918507 -0.20006849 0.15044856 -0.30975795 0.23050958 0.21087839 0.15753806 0.12486717
-0.18707989 0.06852166 0.37314415 0.2866531 -0.3436382 0.2870657 0.14253041 -0.45166683
-0.1889378 -0.251132 0.28218713 0.42352954 0.097056 -0.0919741 -0.18797523 0.08233628
-0.27292907 -0.11632697 -0.040687133 0.10809928 0.038711194 -0.3436513 -0.016808957 -0.026664967
-0.22580472 -0.24550945 0.19638298 0.17251416 -0.2415344 0.022825543 0.0515423 -0.051875632
-0.2842675 -0.29148015 -0.5135067 0.14767036 0.031184366 -0.21314925 0.25258952 -0.13069165
-0.21769066 -0.23713447 -0.011668389 0.063503094 0.2729521 0.1637156 0.15267657 0.19666159
0.074180596 0.3223528 0.40745813 0.35690352 0.028447252 0.16400078 0.10976041 0.11222834
0.5093191 0.107546404 -0.38710946 0.11373867 -0.3728904 -0.050102636 -0.28048977 -0.07784219
-0.32888368 -0.02112897 -0.18055278 0.38298455 0.022237172 0.42160338 0.07977515 -0.3066402
-0.25126624 -0.42421865 -0.053511165 -0.15210927 0.12055301 -0.31608173 -0.1767264 0.041484874
1.0168781 -1.0083761 -0.62279016 -1.1190803 1.283233 -0.8553459 0.766581 0.9597971
0.39898562 -0.54392374 -0.7400615 -0.31295404 0.36727306 -0.4397798 0.35950842 0.33419913
0.07500489 -0.23381984 -0.18210696 0.14759889 0.23053831 -0.18345419 -0.06549438 -0.08109019
-0.32679805 0.18524116 0.12473849 0.29616106 -0.26882052 0.14855261 0.17772807 0.1850332
-0.06851273 0.27472973 -0.032260127 0.34997874 -0.12690017 0.25073636 0.18817142 0.14206341
-0.5386376 -0.28296593 -0.31822267 -0.4520105 0.39178365 -0.14726795 0.067097254 0.083414756
-0.18970059 -0.27922803 -0.048979115 -0.2772265 0.11185554 -0.21068098 -0.004141178 0.35594898
-0.3228667 0.063455984 0.41389796 0.04586568 -0.1760628 -0.06141861 -0.27489504 -0.19255668

lstm.bias_ih_l0 f4 [32]
00000000: e7b9 fe3e aedb 003f 1275 af3e 0c36 86be
00000010: fb34 07be bfb8 023f c4d2 2b3e 7a04 da3d
00000020: c9ab 7ebe 46bd 013e cee4 b6bd 8351 f7be
00000030: ca06 25bd 23b9 75be 5735 09be 3a92 113d
00000040: be29 a9bd e676 81bd 707a 883e cf35 8cbd
00000050: 9df6 31be b3f8 103e abc8 d03d d0ec 8b3e
00000060: c23e eb3e 4be2 4e3e 4eb0 9b3e 0e97 5c3e
00000070: d234 143e 6758 20be f2e2 1fbe 8301 2c3e
0.49751207 0.50335205 0.34269005 -0.2621311 -0.13203804 0.5106315 0.1677962 0.10645385
-0.24870218 0.12669858 -0.0893036 -0.48304376 -0.040289678 -0.23996405 -0.13399254 0.035539843
-0.08259915 -0.06321506 0.26655912 -0.06846201 -0.17379232 0.14157371 0.101945244 0.2732911
0.45946318 0.20203511 0.30407947 0.21541998 0.14473274 -0.15658723 -0.15613917 0.16797452

lstm.bias_hh_l0 f4 [32]
00000000: 01cf 423f 297f 493f b2ff 523e b427 7cbe
00000010: ee30 36be 0472 e7bd 7a18 acbd e844 7cbd
00000020: cb43 213c 0d0f 3abd 275c 193e f059 5abe
00000030: eca2 84be 750c 343e 5c5d 3a3e 5d2d 4c3d
00000040: f738 4a3e 9911 0b3d 9a17 9ebe c9ef 18be
00000050: bdcf 523e 81c6 43be c894 da3d bf57 493e
00000060: d094 603f 0aea c83e d207 c13e 58b6 a3be
00000070: 02f2 60bb a6a2 d53e c6d6 80bd efd3 86be
0.7609711 0.78709656 0.20605353 -0.2462452 -0.17792103 -0.11301044 -0.08403106 -0.06158915
0.009842823 -0.04542451 0.1497656 -0.21323371 -0.2590555 0.17582877 0.18199676 0.04984795
0.19748293 0.03395233 -0.30877382 -0.14935221 0.20587058 -0.19118692 0.10672909 0.19662379
0.8772707 0.39241058 0.3770128 -0.31975055 -0.0034323935 0.41725653 -0.06290965 -0.26333568

lstm.weight_ih_l1 f4 [32, 8]
00000000: 9ad0 7c3f 1781 9e3f 1ae5 dd3e b7ad 813d
00000010: 5ec2 0ebf ccc7 653f 1df0 0cbf 7a39 fbbe
00000020: d0f9 9ebe 7c80 c0bd 5ead 95be 6be5 f8bc
00000030: f1a8 ae3d 90e5 49be 610c 6f3d a537 023e
00000040: 8130 0e3d b6e0 ae3e cb45 b63e 3067 a53d
00000050: 3774 9dbe 4e7b 473e 25b6 93be c981 31be
00000060: 2afb 073e 8de9 d33e 03a7 1f3f f895 583e
00000070: b955 31bf d736 163f dea9 27be 892f 86be
00000080: bfe1 8fbd 7a66 f83d 2542 3e3e 641d 513d
00000090: 4434 f4be a66e 9b3e ece4 12bf 29f3 7abe
000000a0: f1c5 81be fd3f 683e a057 523d bb13 993e
000000b0: 27b4 babd 7d4b 993e 8b8b 67be 83a3 0f3e
000000c0: 2851 65bd c186 05bf 4f26 8bbf e81d 82be
000000d0: 8b88 fc3e c838 ac3e d163 f5bd affb f9bc
000000e0: eca5 1840 f3cb 20bd 117f 46be c51a 14bf
000000f0: d34d b53d 64df 133d 11e5 a63e a0c0 1e3f
00000100: d53a 20bf 5868 703f 6240 f83e 5f17 143e
00000110: 3181 4cbe 05d3 b33e 50af f8be 83c9 13bf
00000120: 000b bf3e 2e6d 9fbe 6a45 35be c9a6 7a3e
00000130: 170b 8f3d 060b 383e 58df efbe a016 17be
00000140: 601b 763e 0712 343d 1ca1 e3bc 36e8 2bbe
00000150: b017 edbe 8ea7 4f3e c854 6f3e 7a6e 033e
00000160: 7916 a2be 4d0d f33e 8ed0 153f 0f68 fb3d
00000170: f931 aa3d b618 5abd f442 89be 53c5 8cbe
00000180: 2c60 9c3e ecb4 b93e a424 a1ba db84 a73d
00000190: 52a7 003d 91f7 503e 2d91 02bf d2de a1be
000001a0: 5282 a6be 7e5a 893e 170d 623d 1355 b03e
000001b0: 78d7 173e 0e0d 15be be1c 52be 9142 debe
000001c0: 2982 a13e 364b 933e eb72 a83c 00ff 3cbd
000001d0: 230f 30bd fc12 bcbe 77ec 913e f67d df3e
000001e0: d22a 7ebe 6279 d13e 89b0 c43b 437d da3c
000001f0: 6534 8b3d 88c8 6a3f 60cd 06bf 23ef 26be
00000200: 3148 15bf b58b 10bf f5e8 0c3e 3f48 88be
00000210: 2cf0 e03d d5a9 9fbe 2529 d13e ecbe 883e
00000220: 5e4f 383d f308 9fbc caae 6c3e 52d4 00bf
00000230: ec10 75bb ab2a b63d ce6b df3e c238 8e3e
00000240: 84f5 a2be ec62 783e ff46 82be 35b4 02be
00000250: 0f77 8c3e 3523 b8be 505e aabe 75fb 8ebe
00000260: 9457 0ebe bbea 0dbe 7946 dabd faf6 8a3e
00000270: 7509 743d 3b4f ffbb f507 47be 33ca fc3d
00000280: 0777 3c3c a77a 6abc 6d9d 55be f46d eebe
00000290: ca26 a13d f431 db3c 7fc6 2dbd 150a 14be
000002a0: 1495 0abd 5a76 c1bc 2b59 39be 0eae 42be
000002b0: 4960 66be 41f4 f13d 1fb7 a2be 7876 bcbd
000002c0: dc2d d73e f774 0f3d 0b48 673e 55ae 64be
000002d0: b917 883d 5bb8 1b3e b900 0bbd 8d9c 0c3e
000002e0: 1d51 8dbf 3c29 1dbf 36a0 8abe 8752 53be
000002f0: 34db ff3e e072 ae3c 1f86 803c 4c59 773e
00000300: a417 833f e5b1 823f 85d8 2d3f 0467 633e
00000310: 169e 72bf f419 e23e 1697 bebe 981c 9abe
00000320: c38c 12bf 1f00 a7be d46c 05bf 7149 9d3d
00000330: 1d56 563e 52ea ddbe d1ae 743d 95e3 c43e
00000340: 7a06 be3e d7d4 a23e 2f5c a53e 4c26 01be
00000350: bf3f 02bf d2f3 07bd a8c3 283e 239a 02bf
00000360: b132 523e 9956 793c 37b6 b83d 563c 133f
00000370: f8b0 783d b607 1e3e 6d26 8bbd 8527 5ebd
00000380: 89f6 9d3e 3a13 3e3e c76c 893e 3ba4 fb3d
00000390: 4c8b 0dbe 3e80 823e b6c4 a0be bed0 c0bd
000003a0: a054 b43e 84a8 93bd 352c bd3e 50e9 dd3d
000003b0: fd75 b9be e886 8cbe 2f6b 9cbe 667d d1be
000003c0: e0aa 453e 604f ec3d 18b1 fcbe 2e46 57be
000003d0: c1dc 413e cbf9 d53c 03b9 d23e 0dd6 bb3e
000003e0: fa61 0640 00f3 823e cc12 09be dda3 39bd
000003f0: 7fd2 3cbe 8f63 183d 46ba d3bd 87bd 7e3b
0.987558 1.2383145 0.43338853 0.063319616 -0.5576533 0.8975799 -0.55053884 -0.4906729
-0.31049967 -0.093995064 -0.2923383 -0.030382833 0.08528317 -0.19716477 0.058361415 0.12716539
0.034714226 0.34155816 0.35600123 0.08076322 -0.30752727 0.19480631 -0.28849903 -0.17334665
0.13279405 0.41389123 0.62364215 0.21150959 -0.6927143 0.5867743 -0.16373393 -0.2620814
-0.070254795 0.12128921 0.1857992 0.05105342 -0.47696126 0.30357856 -0.5738056 -0.2450682
-0.2534633 0.2268066 0.051353097 0.29897866 -0.091163926 0.29940405 -0.22611825 0.14027219
-0.0559856 -0.52158743 -1.0871066 -0.25413442 0.49322924 0.3363707 -0.11981929 -0.03051552
2.385127 -0.039257 -0.1938441 -0.5785335 0.088527344 0.036101714 0.3259664 0.6201267
-0.6258977 0.93909216 0.4848662 0.1446204 -0.19971158 0.35121933 -0.48571253 -0.5772936
0.3731308 -0.31137985 -0.1770226 0.24477686 0.06984537 0.17972955 -0.46850085 -0.14754725
0.2403388 0.043962505 -0.027786784 -0.167878 -0.46307135 0.20278761 0.23372185 0.12835112
-0.3165777 0.47471085 0.58521354 0.12275707 0.08310313 -0.053246222 -0.26808894 -0.27494296
0.30542123 0.36270845 -0.0012294245 0.08179637 0.03140957 0.20406939 -0.5100277 -0.3161531
-0.32521302 0.26826853 0.055188265 0.34439906 0.14828289 -0.14555761 -0.20518777 -0.4341016
0.31544617 0.2876832 0.02056261 -0.046141624 -0.042983185 -0.36733234 0.2850072 0.43650788
-0.24821022 0.4091292 0.00600249 0.026671058 0.06797103 0.91712236 -0.5265713 -0.16302161
-0.5831328 -0.56463176 0.13760741 -0.2661762 0.10983309 -0.3118426 0.40851703 0.26708162
0.044997565 -0.019413447 0.23113552 -0.50323975 -0.003739412 0.08894857 0.43636936 0.27777678
-0.3182794 0.24256486 -0.2544479 -0.12764056 0.27434584 -0.3596436 -0.3327508 -0.2792622
-0.13900596 -0.13859074 -0.10657973 0.27141553 0.05957933 -0.0077914274 -0.19436629 0.12343254
0.011502988 -0.014311469 -0.20860834 -0.46568263 0.078687266 0.026757218 -0.04242563 -0.14456971
-0.03383358 -0.023616005 -0.18100421 -0.19011709 -0.22497667 0.11814166 -0.31780335 -0.092022836
0.42027175 0.035023656 0.22586076 -0.22332127 0.0664515 0.15207045 -0.033936236 0.13731594
-1.1040379 -0.61391044 -0.27075356 -0.2063695 0.49971926 0.021295011 0.015688954 0.24155158
1.024159 1.0210539 0.6790851 0.22207266 -0.9477247 0.44160426 -0.37224644 -0.3009994
-0.57246035 -0.3261728 -0.52119184 0.076800235 0.20931287 -0.43342835 0.05973703 0.3845488
0.37114316 0.3180301 0.32296893 -0.12612265 -0.5087852 -0.03319151 0.16480887 -0.51016444
0.2052715 0.0152184 0.0901913 0.5751394 0.060715646 0.15432629 -0.067944385 -0.054236908
0.30852154 0.18562022 0.26840803 0.12287184 -0.13822669 0.25488466 -0.3140008 -0.094148144
0.35220814 -0.07209876 0.3694779 0.108355165 -0.3622283 -0.27446675 -0.30550525 -0.40915984
0.19303465 0.11538577 -0.49353862 -0.21022865 0.18931867 0.026120087 0.41156778 0.36686745
2.09973 0.2557602 -0.13386077 -0.045322288 -0.18439673 0.03720432 -0.10338263 0.0038870291

lstm.weight_hh_l1 f4 [32, 8]
00000000: fadb 0bbd 1e8c 65be bdf2 61be dc9a 98bc
00000010: 4f40 113e 254f 11be fbca 3d3f d0bf 52bf
00000020: 625f 49bf cbe5 1ebc 89c2 48bc bcee 94bd
00000030: ada0 9c3e 35a7 5abd 4f99 9abf 2f1d 2abf
00000040: 2a7b 023e 9219 c0be 9a71 043e 34d4 f93e
00000050: 59a8 723e faf3 e8bd 872d 06bf 649f 193e
00000060: 0639 d5bd f887 723d d32d 373c 5fe0 17be
00000070: bea0 433e 550a 303d b3bc f7be e512 70bf
00000080: d452 9ebe ca16 68bd c2d3 d43c ebe1 13bf
00000090: d1c0 833d cdff 473d 1113 e13e e0db 0cbf
000000a0: b99e b43c ac7a b53d 1ff5 2f3e e53d 0dbd
000000b0: 8ee8 4dbe aac8 5ebd da3c 18bf e788 223f
000000c0: 932a 56be abfe 963c 472b 2c3c 9f8a 863e
000000d0: 0589 f73d 3377 c6be c2cc 4bbc a3ce e7bd
000000e0: 516b 23bf d27a 27bf f3ed 81bf c274 4e3e
000000f0: 7f1e 17be b0c6 0cbf 6c7b 0e3f c15c 5abe
00000100: 3533 c9bd 5939 1abd f713 b43e da52 e2be
00000110: 163f f13d 24c7 42be 252b 4dbe 4f3f f1be
00000120: 0682 86bc 9b92 693e e056 28bd 54ce 083e
00000130: 773c dc3e 9454 8d3d 7ef9 133f e0d1 4dbf
00000140: a192 f63d ff37 89be 70eb 023d a1cd 80bd
00000150: 8211 02be 8cf5 37bd 016f 24be 76fd 193f
00000160: 6d1e fcbe 7762 89be 6c4e 263e 9cc0 293e
00000170: f36b 1a3e 6c14 bcbd 0796 163f e12e 64bf
00000180: d3cf 4a3e 69e1 343e 588e d33e 0287 b8bd
00000190: 8754 18be 0ffb 493d a7e6 1ebe 20e3 75bf
000001a0: 13fb eb3c 5ba9 15be 884d f93e 07c9 c43e
000001b0: 58e2 32be d186 b5bd 1dc7 91be c109 0d3e
000001c0: 05d2 ff3e cf45 bebc b91e b13d fb28 733b
000001d0: 661c 51be 25fb a63d 8ed8 fb3d 18c6 31bf
000001e0: 5fed f9bd 31d4 7bbd ee67 453e 7749 83bd
000001f0: 79ea 2c3f f285 833e 4380 953f bd71 92be
00000200: d3fe 28bd 7da1 1c3e b373 96bd e84b 89be
00000210: 716f cb3d 7602 e5be 5f55 7bbe 813f 87bd
00000220: d054 0f3e 8dc7 123e 370f 58bd fad3 123f
00000230: d953 42be 8adc 3fbc 7a3a 80bf d826 d63e
00000240: ac78 a33c 52d3 0b3f b16b 593e 150b 2bbd
00000250: 4dd5 9c3d 5da2 8ebe 086b 823e 2eb0 0dbd
00000260: 6ea2 d7be ddce 503d 3844 9bbd cbda 6ebe
00000270: fc06 283c 051c a93e 7dba 003f 33f2 1fbf
00000280: c7ee 9e3e fb1c b43c 746c c4be 3665 08be
00000290: 54da ba3d b839 78be 9728 523e 2138 823d
000002a0: f0cf 7ebe c6ec 923e 2b8f db3d d31a 053e
000002b0: 2ea8 e2bd 681c 19be 921d 793e f1e6 03bf
000002c0: ffc6 8f3f 6701 543f b5a1 983e f9b6 3dbf
000002d0: 861f 0c3e 1510 97bc 5925 da3e 83d5 033f
000002e0: c0ef bebd 4814 9c3c 7d55 a83e 4044 40be
000002f0: eebe c33e 3f2c b93e 2d67 8ebe 4811 d0be
00000300: b224 253e 11c4 653e 1110 103e 5a99 28be
00000310: d66a 1b3f df68 48be 16b4 0f3f 15f9 44be
00000320: c924 2fbf f064 503e 8893 8fbe 98ad 9b3e
00000330: b36f 1d3e 1580 5a3e 8268 86bf f064 a1be
00000340: 5f0c 503d bb8b 8d3e b16e 403e 323f a13e
00000350: b8f2 bcbe 94d3 763e 19d7 45be f9e8 2d3f
00000360: dca4 d7be 434a b13e 69f2 c33e e59c 00bf
00000370: 6446 1f3f 8f4d 6d3e 6450 17bf 620d c5be
00000380: d368 3c3e 2fa5 093e 88b2 fb39 eeec 6dbd
00000390: 6d11 8c3d 13db 163f 0b6e 153e d86f fbbe
000003a0: 9429 43be 5504 ae3d 1571 9d3e ed40 6b3e
000003b0: 1386 1fbe b600 c43d bbbd 2bbf d8aa 103f
000003c0: bcbc 3b3a d81c 19be 44c8 513a ed30 a33e
000003d0: 3c58 05be b237 c1be 250d d33e fc1f e7be
000003e0: 8d2c 22bf 2e51 28bf 152b 15bf 01a9 b63e
000003f0: afc2 0b3e 46fc 4ebf 00e1 cc3e c574 04be
-0.034145333 -0.22416732 -0.22065254 -0.01862853 0.14184688 -0.14190347 0.7413785 -0.8232393
-0.7866117 -0.009698342 -0.012253412 -0.072720975 0.30591336 -0.053382117 -1.2078036 -0.6645078
0.12742296 -0.3751951 0.1293396 0.4879471 0.23697032 -0.1137466 -0.5241322 0.15002209
-0.10411267 0.0592117 0.011180359 -0.14831685 0.19104287 0.042978603 -0.48386154 -0.9377883
-0.30922568 -0.05666236 0.02597988 -0.577666 0.06433261 0.048827935 0.4395986 -0.55023
0.022048341 0.088612884 0.1718335 -0.034482855 -0.20108244 -0.054390587 -0.5946785 0.63490146
-0.20914678 0.018431982 0.010508365 0.26277635 0.12086681 -0.38762817 -0.012438955 -0.1131871
-0.63835627 -0.65421784 -1.0150741 0.20161727 -0.14757727 -0.54990673 0.55657077 -0.21324445
-0.0982422 -0.037652347 0.35171482 -0.44203836 0.11779611 -0.19021279 -0.2003599 -0.47118613
-0.016419422 0.22809832 -0.041098475 0.13359958 0.4301488 0.069008976 0.5780257 -0.8039837
0.12039686 -0.26800534 0.031962812 -0.062892206 -0.12701991 -0.044911906 -0.1605797 0.60152376
-0.49241963 -0.26832935 0.16240853 0.16577381 0.15080242 -0.09183583 0.58822674 -0.8913403
0.19805841 0.17664112 0.41319537 -0.09010126 -0.14875995 0.049311694 -0.15517674 -0.9604969
0.028806245 -0.14615385 0.48691964 0.38434622 -0.17469156 -0.08863605 -0.28472224 0.13773252
0.4996492 -0.023226647 0.08648438 0.0037103284 -0.2042099 0.08153371 0.12297164 -0.6944289
-0.12203478 -0.06148166 0.19277927 -0.06410497 0.67545277 0.2568813 1.1679767 -0.286024
-0.041258644 0.15295978 -0.073462866 -0.26815724 0.09933365 -0.4472844 -0.24544285 -0.06603909
0.13997197 0.14333935 -0.052748885 0.573547 -0.18977298 -0.011710295 -1.0017846 0.4182651
0.019955002 0.54619324 0.21232487 -0.041758616 0.076578714 -0.27858248 0.25472283 -0.034591846
-0.42116112 0.05097853 -0.07581371 -0.2332565 0.010255571 0.3302919 0.5028456 -0.6247894
0.31041548 0.021986475 -0.38363993 -0.13319859 0.09123674 -0.24240768 0.20523296 0.06358362
-0.2488401 0.2869627 0.107206665 0.12998514 -0.11067234 -0.14952242 0.24327686 -0.51524264
1.1232604 0.8281464 0.29810873 -0.7410732 0.136839 -0.018440286 0.4260662 0.5149767
-0.093230724 0.01905264 0.32877722 -0.18776035 0.38231605 0.3616657 -0.27813092 -0.40638185
0.1612728 0.22438075 0.14068629 -0.16464749 0.60709894 -0.19571255 0.56134164 -0.19235642
-0.68415505 0.20351005 -0.28042245 0.3040588 0.15374641 0.21337922 -1.0500643 -0.31522322
0.050793048 0.27645668 0.18792225 0.31493527 -0.3690393 0.24104148 -0.19320334 0.67933613
-0.42117965 0.3462697 0.38270882 -0.502394 0.6221678 0.23174118 -0.5910704 -0.38486773
0.18399362 0.13441919 0.00048007467 -0.058087282 0.06839261 0.5892803 0.1459276 -0.49108768
-0.1905883 0.0849692 0.30750337 0.22973986 -0.15578489 0.09570448 -0.6708638 0.56510687
0.00071616075 -0.1495241 0.0008002559 0.31873265 -0.1302194 -0.37737805 0.41220966 -0.4514159
-0.6334923 -0.6574887 -0.5826886 0.35675815 0.13648485 -0.8085369 0.4001541 -0.12935169

lstm.bias_ih_l1 f4 [32]
00000000: 4daa cc3e a09c cd3d 3687 e8bd 3553 e83d
00000010: 7adb 1cbf 1073 92be 7224 7dbc af45 2c3f
00000020: 2d63 873d f279 57be cc95 30be 19ff 2f3e
00000030: 600d 1bbf b074 dc3d 3eed 09be 0939 03bf
00000040: 055d 973d d924 12be 2230 4dbe 0384 8a3e
00000050: 1cfa 313e a47c 84be 7c74 acbe 1088 a43d
00000060: a03b de3e 42a7 08be 1b72 dabe 6ea0 6bbe
00000070: 5cb1 cfbe 7a5b c9be 4ea3 033f 6bf6 393f
0.3997368 0.100396395 -0.113539144 0.113439955 -0.61272395 -0.2860341 -0.015450584 0.6729383
0.06610713 -0.21042612 -0.17244643 0.17187156 -0.60567284 0.10764444 -0.13469407 -0.51258904
0.07390789 -0.14271869 -0.20037892 0.27053842 0.17380565 -0.25876343 -0.3368262 0.08033764
0.43404865 -0.13345054 -0.4266518 -0.23010418 -0.40565002 -0.39327604 0.5142106 0.7264163

lstm.bias_hh_l1 f4 [32]
00000000: ebb2 af3e e765 bcbe 0f61 583e 04bc 233e
00000010: 2443 adbe 2c4c a2bd 2659 1e3d bd26 563f
00000020: 6bbb 27be e94b 573e f4a4 573d ba93 13be
00000030: 548c 06bc d5ee 8dbe 1530 ba3e 34b9 07bf
00000040: ef8b 74be d81c ccbc 3a20 313d 144f 24be
00000050: ed66 70be ba37 9fbe 21e0 663e 0c0a 153e
00000060: 4290 cbbc 2440 873d 8b88 e5be 4e83 093e
00000070: d3b4 2dbf fded 3dbe 5119 d33e fae2 b93e
0.3431619 -0.36796495 0.21130775 0.15989691 -0.33840287 -0.07924685 0.038659237 0.8365286
-0.16380088 0.21025051 0.052647546 -0.14411822 -0.008212168 -0.27721277 0.3636481 -0.5301697
-0.23881505 -0.024916098 0.043243624 -0.16045791 -0.23476763 -0.31097203 0.22546436 0.14554614
-0.02484906 0.06604031 -0.44830737 0.13428995 -0.6785404 -0.18547817 0.41230252 0.36305982

fc.weight f4 [1, 8]
00000000: bcd8 c13e 0345 bfbd 182d 4f3e 0863 bc3d
00000010: 6a76 92bd 9952 813e ab06 f7bb e010 5d3e
0.37860668 -0.09339335 0.20232046 0.09198576 -0.07151492 0.2525833 -0.0075386367 0.21588469
