models/Nagercoil_model.pth (torch, 6156 bytes, 9 tensors)

lstm.weight_ih_l0 f4 [32, 1]
0	0xc00e88af	-2.2270925
1	0x3fd0c221	1.6309243
2	0xc027ee98	-2.6239376
3	0x4004f19d	2.077247
4	0x4003bb1f	2.058296
5	0xbdad7f71	-0.08471573
6	0xbca95673	-0.020671105
7	0x3f92d655	1.1471659
8	0xbfee1431	-1.8599912
9	0x3fb15ff9	1.3857414
10	0xc0139ff2	-2.3066373
11	0x402906fb	2.641051
12	0x40080e63	2.125878
13	0x3d9dd844	0.07707265
14	0xbe64c71e	-0.22341582
15	0x3fc3e516	1.5304286
16	0xbfd53cfe	-1.6659238
17	0xc02fc7bf	-2.7465665
18	0x3fefa804	1.8723149
19	0x4035936d	2.8371232
20	0xc02577ee	-2.585445
21	0x40399d4c	2.9002256
22	0x3fa6f800	1.3044434
23	0xbfb283bd	-1.3946453
24	0xc021be27	-2.527231
25	0x3f7cde7f	0.98777
26	0xc0435445	-3.0520184
27	0x401c8e59	2.4461882
28	0x4019492f	2.3950918
29	0x3ecde4d2	0.4021364
30	0x3e038a50	0.12845731
31	0x3fa22a12	1.2669089

lstm.weight_hh_l0 f4 [32, 8]
0	0xbe58a646	-0.21157178
1	0x3eacdaaa	0.33760577
2	0x3e52d563	0.20589213
3	0x3e9babde	0.30404562
4	0xbea55e05	-0.32298294
5	0x3f252a28	0.6451745
6	0x3e9ec53a	0.31009847
7	0x3ca3ebfb	0.020009985
8	0x3ddb5bb7	0.107108526
9	0x3e88bd1a	0.26706773
10	0x3c3c456c	0.011491161
11	0xbe82020c	-0.25392187
12	0xbe855767	-0.26043245
13	0xbe6364ba	-0.22206393
14	0x3e86880c	0.2627567
15	0xbd2d11e3	-0.042253386
16	0xbd096b0e	-0.03354936
17	0x3d503054	0.05082734
18	0x3e4b74e3	0.19868807
19	0x3f27e1fe	0.6557921
20	0xbebbb8ab	-0.36664328
21	0x3e12db46	0.14341459
22	0xbf347b45	-0.70500594
23	0xbd8decb1	-0.06929911
24	0xbce4e238	-0.0279399
25	0xbe67fd27	-0.22655164
26	0xbe5bfd77	-0.21483408
27	0x3e7d142f	0.2471473
28	0xbdc5945d	-0.09647439
29	0x3e66d93c	0.22543806
30	0xbe659ac1	-0.22422315
31	0x3e511e1c	0.20421642
32	0x3e995db3	0.299543
33	0x3df6f2cc	0.120580286
34	0xbdaa3787	-0.08311372
35	0x3ea50b29	0.32235077
36	0x3dd569ab	0.10420545
37	0x3e2f2fff	0.17108153
38	0x3e0c0aa2	0.13675931
39	0xbe0bc110	-0.13647866
40	0x3fa076bd	1.2536236
41	0xbf7b086f	-0.98059744
42	0xbf8a2cf1	-1.0794965
43	0x3f5936de	0.84849346
44	0xbf9b56c1	-1.213585
45	0xbe85ef94	-0.26159346
46	0xbf5e53b3	-0.86846465
47	0xbf94f73a	-1.1637948
48	0xbf01e4bd	-0.5073965
49	0x3dc23059	0.09481878
50	0x3e515a18	0.20444524
51	0x3f439017	0.7639174
52	0xbeaded5b	-0.3397015
53	0x3f9b6cc6	1.214257
54	0x3f2e2e6b	0.6803958
55	0xbd8b806b	-0.06811603
56	0xbe13786c	-0.14401406
57	0xbcbc5972	-0.02299187
58	0x3e1bf167	0.15228806
59	0x3e1f9638	0.15584648
60	0x3db25b68	0.087088406
61	0xbd099dcd	-0.033597756
62	0xbf1b7db4	-0.6073868
63	0xbe35e172	-0.17761782
64	0xbc09adf4	-0.00840329
65	0xbe7579d6	-0.23972258
66	0x3eb05f15	0.34447542
67	0xbe0ec781	-0.13943292
68	0x3eb6fb4c	0.357386
69	0xbe2393be	-0.15974328
70	0x3e364ca3	0.17802672
71	0xbdd95453	-0.10611787
72	0xbe3b7f5c	-0.18310302
73	0xbe3515c3	-0.17684083
74	0x3cde2dec	0.027121507
75	0xbecef33d	-0.4041995
76	0x3d401b5b	0.04690109
77	0xbde1e953	-0.11030831
78	0x3e1758c2	0.14779952
79	0x3e95a4d3	0.29227313
80	0x3c7dc2c9	0.015488335
81	0xbe8255e9	-0.2545617
82	0x3da9f308	0.08298308
83	0xbe105a57	-0.14096962
84	0xbdc8f62f	-0.09812581
85	0xbe2b6d19	-0.16740836
86	0x3e0ac127	0.13550244
87	0x3e515b03	0.20444874
88	0xbe9dfabf	-0.30855367
89	0xbdbb7e37	-0.09154933
90	0xbc0a80c1	-0.008453549
91	0x3e81a942	0.25324446
92	0xbe23631d	-0.15955777
93	0xbe5dc2d8	-0.21656358
94	0xbe322948	-0.1739856
95	0xbcd10b39	-0.025518047
96	0xbd9782c8	-0.073979914
97	0xbe029ca5	-0.12755068
98	0x3e06dc8e	0.13170072
99	0xbec1c61c	-0.37846458
100	0x3e1f6e6d	0.15569468
101	0xbf05fc55	-0.52338153
102	0x3dfcabe9	0.12337477
103	0xbe841069	-0.2579377
104	0x3cca2af5	0.024678687
105	0xbd134f2d	-0.03596418
106	0xbeb74e54	-0.35801947
107	0xbeedac3e	-0.46420473
108	0x3e118c2e	0.1421363
109	0xbf4ae1d7	-0.79250854
110	0x3ed6137d	0.41811743
111	0x3e8c8db1	0.27451852
112	0x3d60f681	0.054922584
113	0x3e8d47c5	0.27593818
114	0x3f18d950	0.5970659
115	0xbeb749f5	-0.35798612
116	0x3e4e574f	0.20150493
117	0xbe849efa	-0.2590254
118	0xbedde525	-0.43338886
119	0x3e114cce	0.14189455
120	0x3eb6e715	0.35723177
121	0x3ebe6d9c	0.37193
122	0xbebe6416	-0.37185735
123	0xbe7afcd5	-0.2451051
124	0xbe01a753	-0.12661485
125	0xbf061b55	-0.52385455
126	0xbe252ce7	-0.1613041
127	0x3e80b29b	0.25136265
128	0x3e5b32b2	0.21406057
129	0xbd22986c	-0.039696142
130	0x3e52d63a	0.20589533
131	0x3d8dd20d	0.0692483
132	0xbe8add98	-0.27122188
133	0x3ec54be4	0.38534462
134	0x3d92a3ac	0.07160124
135	0xbe60a4d0	-0.21937871
136	0x3d8deb81	0.069296844
137	0x3d9fa56d	0.07795224
138	0xbea0c918	-0.31403422
139	0xbe646b06	-0.22306451
140	0x3e6440d6	0.22290358
141	0xbdcd565a	-0.10026236
142	0x3e82ee1e	0.25572294
143	0xbe2d7a6b	-0.1694123
144	0xbe6618cc	-0.22470397
145	0xbd8492a1	-0.0647328
146	0xbe1df320	-0.15424776
147	0xbe63eab6	-0.22257504
148	0xbe5e4e54	-0.21709567
149	0xbe6fd972	-0.23422793
150	0x3f05b192	0.52224076
151	0x3daa8f32	0.083280936
152	0xbd84706f	-0.064667575
153	0xbeadf2ae	-0.33974212
154	0xbdee64f1	-0.11640347
155	0x3eb98bcf	0.36239478
156	0x3df9ee0f	0.12203609
157	0x3efeec81	0.49789813
158	0xbf15eaa1	-0.5856114
159	0xbe2775c4	-0.16353518
160	0xbde0e565	-0.109812535
161	0x3e855d67	0.26047823
162	0x39c7c40f	0.00038102313
163	0xbead1849	-0.3380759
164	0x3e56b090	0.20965791
165	0xbefdebd6	-0.4959399
166	0x3ef1a2f5	0.4719464
167	0xbe0136d2	-0.12618569
168	0xbe9a77cb	-0.3016952
169	0x3cf6b418	0.030115172
170	0xbda8e586	-0.08246903
171	0x3e5cf9e3	0.21579699
172	0xbde5ec70	-0.112267375
173	0xbe7199d7	-0.23593841
174	0x3ed596d4	0.41716635
175	0x3e223358	0.15839899
176	0xbbb82558	-0.005619686
177	0x3e11807a	0.14209166
178	0xbf2ee1b2	-0.68313134
179	0xbde17ea9	-0.11010487
180	0xbdcafe7f	-0.099118225
181	0xbefd3207	-0.4945223
182	0xbec61aa1	-0.3869219
183	0xbe0686f4	-0.13137418
184	0xbe87662e	-0.26445144
185	0x3e7079fe	0.23484036
186	0x3e952d0a	0.29135925
187	0x3e746c69	0.2386948
188	0xbe0b7380	-0.13618279
189	0x3e917aff	0.2841415
190	0xbd94adbe	-0.07259701
191	0x3e48bc63	0.19603114
192	0xbea55eb3	-0.32298812
193	0x3e1754b6	0.14778408
194	0xbc848008	-0.016174331
195	0x3e827491	0.25479558
196	0x3e70304b	0.23455922
197	0x3e83d0f6	0.25745362
198	0xbe32ce98	-0.17461622
199	0x3e4388f9	0.1909522
200	0x3ec86f95	0.3914763
201	0xbe5c6661	-0.2152343
202	0x3e744540	0.23854542
203	0xbdc95bf0	-0.09831989
204	0x3d12ec7b	0.035870057
205	0xbeeefa9e	-0.4667558
206	0x3e42e091	0.19030978
207	0xbdcf8090	-0.10131943
208	0xbe1d7c38	-0.15379417
209	0xbd8133db	-0.06308719
210	0xbe3e2009	-0.18566908
211	0x3e99de46	0.30052394
212	0x3e525254	0.20539218
213	0x3e04beff	0.12963484
214	0xbeaaba24	-0.3334514
215	0xbd1e69d7	-0.038675155
216	0x3ec8ca1f	0.39216706
217	0x3d0f0acf	0.034922417
218	0xbe5959a7	-0.21225606
219	0x3e4dbc73	0.20091419
220	0xbcbe01bf	-0.023194192
221	0xbe7b0fd7	-0.24517761
222	0x3ecb939c	0.39761055
223	0xbe38fc41	-0.18064977
224	0x3e6ae6fe	0.22939679
225	0xbd7f46d5	-0.06232341
226	0xbd6e8dbb	-0.058240633
227	0x3dffd317	0.12491434
228	0x3e499f4c	0.19689673
229	0xbe313e51	-0.17308928
230	0xbd35b683	-0.04436351
231	0x3eab13de	0.33413595
232	0x3f537996	0.826074
233	0xbf6f351e	-0.93440425
234	0xbf97afcd	-1.1850525
235	0x3f47e7b0	0.780879
236	0xbf4ef297	-0.8083891
237	0xbe8d83ac	-0.2763952
238	0xbf10039b	-0.562555
239	0xbefd7b97	-0.49508354
240	0xbeb9aff2	-0.36267048
241	0xbe6e8060	-0.23291159
242	0x3ea5b788	0.32366586
243	0x3ec4cb78	0.38436484
244	0xbf076e05	-0.5290225
245	0x3f751d57	0.95747894
246	0x3e3747d5	0.17898495
247	0x3cbedfdc	0.023300104
248	0x3ea818f4	0.32831538
249	0x3dbc5be3	0.091972135
250	0x3da1739a	0.078833774
251	0x3e962c8a	0.29330856
252	0xbd8f07a5	-0.0698388
253	0xbe6f3bb3	-0.23362617
254	0xbe58750f	-0.21138404
255	0xbdc67d15	-0.09691826

lstm.bias_ih_l0 f4 [32]
0	0x3e3f4d7d	0.18681903
1	0x3e1d2d1c	0.15349239
2	0x3ecf82a3	0.40529355
3	0xbce305a3	-0.027712649
4	0xbe948e18	-0.2901466
5	0x3f90b445	1.1305014
6	0xbe7e2031	-0.24816968
7	0x3e8b2bba	0.27181798
8	0x3e7185f1	0.23586251
9	0xbec5001d	-0.3847665
10	0xbecf8c8b	-0.40536913
11	0x3e9c70f6	0.30554932
12	0x3dc7e792	0.097609654
13	0x3ba65d65	0.0050770515
14	0x3b473ea2	0.0030402322
15	0xbe129480	-0.14314461
16	0x3e26e258	0.16297281
17	0xbe180f0a	-0.14849487
18	0xbe22fb0c	-0.1591608
19	0x3e7ac115	0.24487717
20	0xbe4b0fe2	-0.19830278
21	0x3d638f5b	0.055556636
22	0xbda5cac5	-0.08095316
23	0x3e931392	0.28725868
24	0xbe7713ae	-0.24128601
25	0xbe9471d4	-0.28993094
26	0x3e0631c9	0.13104929
27	0xbe3d212d	-0.18469687
28	0xbe67756b	-0.22603385
29	0x3f7280ed	0.94727975
30	0xbd72c0fa	-0.059266068
31	0xbe8f2d91	-0.27964452

lstm.bias_hh_l0 f4 [32]
0	0x3e385449	0.18000902
1	0xbd1b4cc0	-0.03791499
2	0xbdbbccb6	-0.09169905
3	0xbe05c9ed	-0.1306531
4	0x3ebd627c	0.369892
5	0x3f8564e1	1.0421411
6	0x3e85d972	0.2614246
7	0xbe3ba58a	-0.18324867
8	0xbe9195b9	-0.28434542
9	0xbe49f4d6	-0.19722304
10	0x3e71eb50	0.23624921
11	0xbce7d80f	-0.028301267
12	0xbe185ab6	-0.14878353
13	0xbc7f135a	-0.015568579
14	0xbf1c8bf3	-0.61151046
15	0xbe28d5da	-0.16487828
16	0x3e75346c	0.23945779
17	0xbe393598	-0.1808685
18	0x3e21e028	0.15808165
19	0xbe1324b9	-0.14369477
20	0xbe18342e	-0.14863655
21	0xbcedcd67	-0.029028608
22	0x3d9ee4be	0.07758473
23	0xbeb13340	-0.34609413
24	0xbe77d17c	-0.24201006
25	0xbd706f62	-0.058699973
26	0xbe412943	-0.18863396
27	0xbddbd815	-0.10734574
28	0xbe64b5cc	-0.22334975
29	0x3f857ac4	1.042809
30	0x3db77483	0.0895777
31	0xbe795cf6	-0.24351868

lstm.weight_ih_l1 f4 [32, 8]
0	0xbf14bf3d	-0.58104306
1	0x3e73a8ad	0.23794813
2	0x3d93e0a6	0.07220583
3	0xbf15c557	-0.5850424
4	0x3d25ffc0	0.040527105
5	0xbe01958b	-0.12654702
6	0x3ee7dff0	0.45288038
7	0x3bef9722	0.0073117176
8	0x3f385c7a	0.7201611
9	0xbe3a4936	-0.1819199
10	0xbf8e1f8c	-1.1103377
11	0x3ed93d4a	0.42429572
12	0xbf214420	-0.62994576
13	0xbdbabe3e	-0.09118317
14	0xbf2b99fe	-0.6703185
15	0xbeb2b5ec	-0.3490442
16	0xbe3e08f5	-0.18558104
17	0xbe94b175	-0.2904164
18	0x3ecf1554	0.4044596
19	0x3cb6823a	0.022278894
20	0xbec7eb63	-0.39046773
21	0x3f44229a	0.766153
22	0x3f3f2769	0.7466951
23	0xbe1b5d63	-0.15172343
24	0x3ee832bb	0.45351204
25	0xbea85d68	-0.32883763
26	0x3eab05e3	0.3340293
27	0x3dc91828	0.098190606
28	0xbdb06b26	-0.08614187
29	0x3f4ea86a	0.8072573
30	0x3e88fb34	0.26754153
31	0xbe5aa62b	-0.2135245
32	0xbeac68ee	-0.33673805
33	0x3e9f5a18	0.31123424
34	0x3f08ed0f	0.5348672
35	0xbea0556c	-0.31315172
36	0x3edb8b8c	0.42879903
37	0xbe624b44	-0.22099024
38	0x3e91ea36	0.28499
39	0x3ea1e58c	0.31620443
40	0x3eed00a4	0.4628955
41	0x3e3154bb	0.17317478
42	0xbe8460f3	-0.25855216
43	0xbea2d559	-0.31803396
44	0x3e27ea76	0.16398033
45	0xbf98f33d	-1.194923
46	0xbe947f99	-0.290036
47	0x3ee42388	0.44558358
48	0xbc10eb96	-0.008845231
49	0xbe88f324	-0.26748002
50	0x3e25a3ac	0.16175717
51	0xbc30cce1	-0.010791034
52	0x3e7507c4	0.23928744
53	0xbe41cf95	-0.18926843
54	0x3d18ab23	0.037272584
55	0x3e81b95e	0.25336736
56	0xbf0e1c49	-0.5551191
57	0x3e9ea64f	0.30986258
58	0x3e8f8ea9	0.2803853
59	0xbd6ce45c	-0.057834968
60	0x3ebf91dc	0.3741597
61	0x3f9492af	1.1607264
62	0x3d5b53da	0.053546764
63	0x3cb97086	0.022636663
64	0xbee98592	-0.4560972
65	0x3ed15ab0	0.40889502
66	0x3eda2854	0.42608893
67	0xbeaa4999	-0.33259276
68	0x3f1afb0a	0.60539305
69	0x3b882fd8	0.004156094
70	0xbe71add9	-0.23601474
71	0xbd5d16d1	-0.053976838
72	0xbe8c1edf	-0.27367303
73	0x3eb13f7d	0.3461875
74	0x3eb592d1	0.35463575
75	0xbf4c12dc	-0.7971628
76	0x3f5c3773	0.8602211
77	0xbe971969	-0.29511574
78	0xbca446a3	-0.020053213
79	0x3ea318ed	0.31854954
80	0xbed1c411	-0.409699
81	0x3f0f79b6	0.5604509
82	0xbf397bcc	-0.72454524
83	0xbeca9b22	-0.39571482
84	0x3f23961a	0.6390091
85	0xbf9101be	-1.1328657
86	0x3de9625c	0.11395714
87	0x3f2afc8f	0.66791624
88	0xbea56f06	-0.32311267
89	0x3eaaa985	0.33332458
90	0x3ebbafbc	0.36657512
91	0xbf31d1f4	-0.6946099
92	0x3f488e77	0.78342384
93	0xbf74a3c0	-0.9556236
94	0xbe30da88	-0.17270863
95	0x3e8e0bc5	0.27743354
96	0xbf0e09c0	-0.5548363
97	0x3cb49910	0.022045642
98	0x3e7e6976	0.24844918
99	0xbde3eadd	-0.11128781
100	0x3de42318	0.11139506
101	0xbeded29d	-0.4352006
102	0x3d9fd47d	0.07804201
103	0x3e9efd53	0.31052646
104	0xbedc2ebf	-0.43004414
105	0x3f548dba	0.8302876
106	0x3f313b33	0.69230956
107	0xbf86f000	-1.0541992
108	0x3f6ed9d4	0.9330113
109	0xbf9d6248	-1.2295618
110	0x3dfc41ef	0.12317263
111	0x3f798fdc	0.97485137
112	0xbeab32e4	-0.33437264
113	0xbe082b7e	-0.13297841
114	0xbe42b174	-0.19013005
115	0xbeab4906	-0.3345415
116	0x3e5ea545	0.21742733
117	0x3e4b94c3	0.19880967
118	0x3e5633b5	0.20918162
119	0x3e59eb98	0.21281278
120	0x3df1748d	0.117898084
121	0x3e95fb27	0.29293177
122	0xbe5f431b	-0.21802942
123	0x3e274dba	0.16338244
124	0x3ee923cf	0.45535132
125	0x3f0074d2	0.50178254
126	0xbdea9730	-0.11454618
127	0x3db7f6d4	0.089826256
128	0x3e79db2e	0.24400017
129	0xbe901eba	-0.28148443
130	0x3e5669b0	0.20938754
131	0x3aa0005b	0.0012207137
132	0x3eaac977	0.3335683
133	0x3e00567e	0.12532994
134	0xbe8c4b04	-0.27400982
135	0x3da3347d	0.07968996
136	0x3f178fe8	0.5920396
137	0x3f514ae6	0.8175491
138	0xbf5d0d07	-0.86348003
139	0xbdffeca5	-0.12496308
140	0x3f23b0f4	0.63941884
141	0xbfa4c123	-1.2871441
142	0xbe0acf0b	-0.13555543
143	0x3f391135	0.7229188
144	0x3eaf342d	0.34219494
145	0x3e5c4b97	0.2151321
146	0x3e858921	0.26081184
147	0x3e8b7731	0.27239373
148	0x3e6b408a	0.22973838
149	0x3ed18ee1	0.4092932
150	0xbd519e78	-0.05117652
151	0x3e297b99	0.16551055
152	0xbe4e2ee3	-0.20135073
153	0xbde9959c	-0.11405489
154	0x3e127193	0.14301138
155	0x3dae3973	0.08507051
156	0x3cf2f8d6	0.02965967
157	0xbf027060	-0.5095272
158	0xbeb275eb	-0.3485559
159	0x3dea1e8c	0.114316076
160	0x3e6eb654	0.2331174
161	0xbdd94228	-0.106083214
162	0xbeb9249b	-0.3616074
163	0xbe49077e	-0.19631764
164	0x3da78860	0.08180308
165	0x3e25004d	0.16113396
166	0xbdd19c78	-0.10234922
167	0xbeda8488	-0.42679238
168	0x3ca8486a	0.020542342
169	0xbe6f9c19	-0.2339939
170	0x3e762aa9	0.24039711
171	0x3edae350	0.4275155
172	0xbec4552e	-0.38346237
173	0x3f349d63	0.70552653
174	0xbd576e0e	-0.05259519
175	0xbeb1dc01	-0.34738162
176	0x3da918ff	0.08256721
177	0xbe9c78ec	-0.30561006
178	0xbda8f8a5	-0.0825055
179	0xbcad33a3	-0.021142786
180	0xbe05cd35	-0.13066562
181	0x3f0f713e	0.5603217
182	0xbbeacadd	-0.0071652965
183	0xbe13d521	-0.14436771
184	0x3e9ab65d	0.30217257
185	0x3e914fa8	0.28381085
186	0xbeb9f2a2	-0.36317927
187	0x3ea36cf7	0.3191907
188	0xbe850ccb	-0.25986323
189	0x3e74c2b5	0.239024
190	0x3e369e36	0.1783379
191	0xbe0ed53f	-0.13948534
192	0xbf2b85a3	-0.6700079
193	0x3eb6cde5	0.3570396
194	0x3f1d1071	0.6135321
195	0xbda10f75	-0.07864276
196	0x3f27b4c2	0.6551019
197	0x3e5ac1ca	0.21362987
198	0xbd46a1b4	-0.048494056
199	0x3ddc7680	0.107647896
200	0x3ee9d8fe	0.45673364
201	0xbebfdfae	-0.37475342
202	0xbf899349	-1.0748073
203	0x3ce6dc3b	0.028181186
204	0x3d18c0d6	0.037293278
205	0xbeb5d00e	-0.35510296
206	0xbf2b3ce4	-0.66889787
207	0xbe9fe8cb	-0.31232294
208	0x3cfc703a	0.030815233
209	0xbf0d1233	-0.55105895
210	0x3f1b5c5d	0.6068781
211	0x3ef13f41	0.4711857
212	0xbde6ae47	-0.112637095
213	0x3ef465cd	0.47733918
214	0x3ea0f95f	0.31440255
215	0x3de884f8	0.11353487
216	0x3edd68c0	0.4324398
217	0xbe743273	-0.2384737
218	0x3e708b0a	0.23490539
219	0x3f325050	0.696538
220	0xbe6fd0a1	-0.2341943
221	0x3f301e6a	0.6879641
222	0x3e6251df	0.22101544
223	0xbf135ee1	-0.5756665
224	0xbebdd09c	-0.3707322
225	0x3f1ea5ef	0.61971945
226	0x3e4bc9c4	0.19901186
227	0xbeaef529	-0.34171417
228	0x3eb70a7b	0.35750183
229	0xbf21f0f1	-0.6325827
230	0x3f0d8f91	0.5529719
231	0xbc690478	-0.014222257
232	0x3e2ac104	0.16675192
233	0x3f0d8035	0.55273753
234	0xbe5c4f28	-0.2151457
235	0xbe5d022d	-0.21582861
236	0x3e05bfc0	0.13061428
237	0xbf6817f4	-0.9066155
238	0xbe477740	-0.19479084
239	0x3ee89e66	0.45433348
240	0xbe202044	-0.15637308
241	0x3e9322d3	0.28737506
242	0x3e58f17c	0.21185869
243	0xbe88231c	-0.26589286
244	0x3eac3dc2	0.33640867
245	0x3f4488c2	0.76771176
246	0xbecb84d8	-0.3974979
247	0xbea0e643	-0.31425676
248	0xbde6ac53	-0.11263337
249	0xbd9bd550	-0.076090455
250	0x3e1ae070	0.15124679
251	0xbc357c66	-0.011077022
252	0x3de04ad4	0.10951772
253	0x3f9725f7	1.1808461
254	0x3e553672	0.2082155
255	0xbe3f1a60	-0.18662405

lstm.weight_hh_l1 f4 [32, 8]
0	0xbe105d80	-0.14098167
1	0xbe5cb555	-0.21553548
2	0x3e2a0f3f	0.16607378
3	0x3c71cfc6	0.01475901
4	0x3e3d45e8	0.18483698
5	0x3ebe70b9	0.37195376
6	0xbd846e13	-0.064663075
7	0x3e5e7573	0.21724491
8	0x3e87730a	0.26454955
9	0x3f398296	0.72464883
10	0xbf93e803	-1.1555179
11	0x3f811676	1.008498
12	0xbebecafe	-0.37264246
13	0xbf84dea0	-1.038044
14	0x3ed640f8	0.41846442
15	0xbf522917	-0.8209395
16	0xbe8f457a	-0.27982694
17	0xbf2181c5	-0.6308864
18	0x3da19e03	0.078914665
19	0xbe8699ef	-0.26289317
20	0xbd7c9eac	-0.06167476
21	0x3dd721d5	0.105045
22	0x3f044815	0.5167249
23	0xbf0913c4	-0.53545785
24	0xbda119e4	-0.07866266
25	0xbf5ed76c	-0.8704746
26	0x3e999f37	0.30004284
27	0xbf0f237e	-0.5591353
28	0x3ebded10	0.37094927
29	0x3ef44888	0.47711587
30	0x3d1ce5ce	0.038305096
31	0xbeb924c4	-0.36160862
32	0x3bc275b4	0.0059344415
33	0xbd864941	-0.06556941
34	0xbe1dbece	-0.15404817
35	0xbeb76fca	-0.35827476
36	0xbe2e50f5	-0.1702307
37	0x3d86c54f	0.065806024
38	0xbefcd784	-0.49383175
39	0x3e842583	0.2580987
40	0x3dc8e85e	0.098099455
41	0x3f368b97	0.7130675
42	0xbf780a5f	-0.96890825
43	0x3f1dd0fa	0.61647
44	0x3f2b65e2	0.66952336
45	0xbe53c602	-0.20681003
46	0x3beecb8b	0.007287448
47	0x3d4c8e99	0.04994068
48	0x3ecbbba2	0.3979159
49	0x3e120a31	0.142617
50	0xbe908511	-0.28226522
51	0x3f185fd1	0.59521204
52	0xbe96efe2	-0.2947989
53	0xbef8d52e	-0.48600143
54	0xbe463505	-0.19356163
55	0x3ed38873	0.4131504
56	0xbb599ee0	-0.003320627
57	0xbdac89f3	-0.08424749
58	0x3e445b5c	0.19175476
59	0xbedc68e1	-0.43048766
60	0x3e5a1be9	0.2129971
61	0xbd9c225e	-0.076237425
62	0xbcb4d306	-0.02207328
63	0x3f73f138	0.95289946
64	0xbe89ae8b	-0.26890978
65	0x3d1a28c5	0.037636537
66	0xbd0a3d7f	-0.033750053
67	0x3e95e0bc	0.2927302
68	0x3ea13745	0.3148748
69	0xbe7f0693	-0.24904852
70	0xbce2fb88	-0.02770783
71	0x3ebe59d6	0.37177914
72	0x3e090308	0.13380063
73	0x3eef28a1	0.46710685
74	0x3d4c47c6	0.049873136
75	0xbeaf9d34	-0.34299624
76	0xbe0eb664	-0.13936764
77	0xbe8530b9	-0.26013735
78	0xbed86ead	-0.4227194
79	0x3f438128	0.7636895
80	0x3e4fe8f2	0.20303705
81	0x3f251a38	0.6449313
82	0x3e818777	0.25298664
83	0xbc462902	-0.012094738
84	0xbe07844e	-0.13234064
85	0xbcc06875	-0.023487309
86	0xbe899014	-0.26867735
87	0x3d9f8012	0.07788099
88	0x3e8cef3f	0.2752628
89	0x3e969020	0.29406834
90	0xbd6db387	-0.05803254
91	0x3dd784a6	0.105233476
92	0x3e082ac0	0.13297558
93	0x3e89914c	0.26868665
94	0xbf5abf7b	-0.85448426
95	0x3d8721b4	0.06598225
96	0xbcfd645f	-0.03093165
97	0xbdc1b2a2	-0.094579
98	0x3d8dd785	0.06925873
99	0xbe0e981a	-0.1392521
100	0xbd4784cd	-0.048710633
101	0x3e529583	0.20564847
102	0x3d73d2ad	0.059527088
103	0xbe15b828	-0.14621031
104	0xbe025007	-0.1272584
105	0x3ee26a19	0.4422157
106	0x3dc91911	0.09819234
107	0xbdd18ebc	-0.102323025
108	0x3e462d14	0.19353133
109	0x3ee7cb8b	0.45272478
110	0xbf05838d	-0.52153856
111	0x3ec905ec	0.3926233
112	0x3e175fb4	0.14782602
113	0x3eaca5ff	0.33720395
114	0xbe310b46	-0.17289457
115	0x3ea2d4e6	0.31803054
116	0xbea0c663	-0.31401357
117	0xbf5270ce	-0.82203376
118	0x3d9d9654	0.076946884
119	0xbe5d4e9f	-0.21612023
120	0x3e9bf6f6	0.30461854
121	0xbd2ca6f4	-0.042151406
122	0xbd9a4270	-0.07532203
123	0xbb900100	-0.0043946505
124	0x3ad2dda4	0.0016087783
125	0xbc81eaa5	-0.015858958
126	0xbeb22aae	-0.34798187
127	0x3f13e4eb	0.57771176
128	0xbe33bc9f	-0.17552422
129	0x3d6d1595	0.05788191
130	0x3c5aa1d6	0.013344249
131	0xbbc70b49	-0.0060743433
132	0xbeb2aa65	-0.34895626
133	0xbedf9360	-0.43667126
134	0x3d4d3a14	0.050104216
135	0xbdc41d55	-0.09575907
136	0x3aa53a10	0.0012605805
137	0xbe908f90	-0.2823453
138	0xbe03db27	-0.12876569
139	0x3f113e72	0.5673591
140	0xbcbc1c07	-0.022962583
141	0xbe0279f9	-0.12741841
142	0x3de2423d	0.1104779
143	0xbeae8ec6	-0.34093302
144	0xbe6ac770	-0.22927642
145	0x3f4b9916	0.79530466
146	0xbf2c2c19	-0.6725479
147	0x3e9b7101	0.30359653
148	0x3e7daf56	0.24773917
149	0xbe5dfa21	-0.21677448
150	0xbe918bca	-0.28426963
151	0x3e056fd3	0.13030939
152	0x3e0b8bd6	0.13627562
153	0xbf489fd8	-0.783689
154	0x3f5fb8e8	0.8739152
155	0xbf74b60c	-0.9559028
156	0x3c9c66be	0.01909196
157	0x3f864506	1.0489814
158	0xbcaf6d05	-0.02141429
159	0x3e077842	0.13229468
160	0xbe8b695b	-0.27228817
161	0xbd81a679	-0.0633058
162	0xbef4a668	-0.47783208
163	0x3e9b8da0	0.3038149
164	0xbd964384	-0.07337096
165	0xbe3347b7	-0.17507826
166	0xbcf6052a	-0.03003176
167	0xbeb27bc3	-0.34860048
168	0x3e5e3a97	0.21702038
169	0x3effb84d	0.49945298
170	0xbe32541a	-0.17414895
171	0x3d840ce5	0.06447772
172	0xbe69c7a1	-0.22830059
173	0xbe971bac	-0.295133
174	0xbe9446ae	-0.28960174
175	0xbdb815c4	-0.089885265
176	0xbe8307b8	-0.25591826
177	0x3e1fd133	0.15607147
178	0xbe210bf1	-0.15727212
179	0x3dc6a1e4	0.09698847
180	0xbd8a0af6	-0.06740372
181	0xbe486907	-0.19571315
182	0xbe9f472a	-0.3110898
183	0x3e2dae73	0.16961078
184	0x3e2b0324	0.16700417
185	0xbd925d45	-0.07146696
186	0x3eee5071	0.46545747
187	0xbd24a272	-0.040193982
188	0x3e3d0957	0.18460594
189	0xbd0971dc	-0.03355585
190	0x3db98971	0.09059418
191	0xbf0c6cf7	-0.5485377
192	0xbe169717	-0.14706074
193	0x3e89390c	0.26801336
194	0x3eccab66	0.39974517
195	0xbe816df7	-0.2527921
196	0xbdc852ba	-0.09781404
197	0x3e9cb7a1	0.30608848
198	0xbebf4656	-0.3735835
199	0x3ed9b159	0.42518118
200	0x3edc3fb7	0.4301736
201	0x3f0c0940	0.54701614
202	0xbfbe5fb8	-1.4872961
203	0x3f8707e5	1.0549284
204	0xbe96d741	-0.294611
205	0xbfb7cb4e	-1.4358919
206	0xbc0ed0bf	-0.008716761
207	0xbe6d5125	-0.23175485
208	0xbe8d3c5b	-0.2758511
209	0xbe921cd3	-0.28537616
210	0x3dafd3f8	0.08585352
211	0xbf2bb262	-0.67069066
212	0x3eb32bee	0.34994453
213	0x3ee8b47c	0.454502
214	0x3ebef7c6	0.3729841
215	0xbe1aa640	-0.15102482
216	0xbe8a0dfa	-0.26963788
217	0xbea1f1b5	-0.3162972
218	0xbd4f7c04	-0.05065538
219	0xbf2f28f7	-0.6842188
220	0x3e92959c	0.28629768
221	0x3f189289	0.59598595
222	0x3f1719fd	0.5902403
223	0xbe1cd82c	-0.15316838
224	0xbd969470	-0.07352531
225	0x3eabe35e	0.33571905
226	0x3e95f447	0.2928793
227	0x3e479f63	0.19494395
228	0x3ed6cc15	0.41952577
229	0xbea8b641	-0.3295155
230	0xbf076da5	-0.5290168
231	0x3e6a4fd9	0.22882022
232	0x3ea417ee	0.32049507
233	0x3f53a230	0.82669353
234	0xbf970391	-1.1797963
235	0x3f17c2b1	0.5928145
236	0x3e174577	0.14772592
237	0xbf6f4126	-0.93458784
238	0xbe92b2ca	-0.2865203
239	0x3e9873fc	0.2977599
240	0xbe812dee	-0.25230354
241	0x3f301553	0.6878254
242	0xbf35866c	-0.70908237
243	0x3f124f39	0.57152134
244	0xbecefa83	-0.404255
245	0xbf12aa46	-0.57291067
246	0xbedb21f7	-0.4279935
247	0xbd96137d	-0.07327936
248	0x3ed69728	0.41912198
249	0x3d347353	0.044055294
250	0x3eabefc4	0.33581364
251	0xbf2a162f	-0.664401
252	0xbe8bfd29	-0.27341583
253	0x3e4413af	0.19148134
254	0xbe696b20	-0.22794771
255	0x3edb154f	0.42789695

lstm.bias_ih_l1 f4 [32]
0	0xbf241129	-0.64088684
1	0x3f3fc100	0.7490387
2	0xbdc33fcf	-0.09533655
3	0x3b310f4b	0.0027017172
4	0xbe9db8bf	-0.30805013
5	0xbe713903	-0.23556904
6	0xbe871597	-0.2638366
7	0x3cd303ae	0.02575859
8	0xbf005297	-0.5012602
9	0xbeecc6ff	-0.46245572
10	0xbe5a8425	-0.21339472
11	0xbf80f344	-1.0074239
12	0xbe0f387e	-0.13986394
13	0xbe6093bc	-0.21931356
14	0xbd5a612f	-0.053315338
15	0xbcc0d851	-0.023540648
16	0xbde9c8a4	-0.11415222
17	0x3eae97bd	0.34100142
18	0x3e566ec6	0.20940694
19	0xbe527914	-0.20554
20	0xbe393a58	-0.18088663
21	0xbc083b10	-0.008314863
22	0x3dea18da	0.11430521
23	0xbb9ce7c1	-0.0047883694
24	0xbf747456	-0.95490015
25	0x3f3536be	0.70786655
26	0xbe1ff337	-0.15620123
27	0x3ead731b	0.3387688
28	0xbf092006	-0.5356449
29	0xbee1166e	-0.43962425
30	0x3d97cb44	0.07411817
31	0xbeefe4f3	-0.46854362

lstm.bias_hh_l1 f4 [32]
0	0xbf4f80b6	-0.8105577
1	0x3f683859	0.9071098
2	0xbdac43b5	-0.084113516
3	0x3d5c382c	0.053764507
4	0xbc8811b3	-0.016610002
5	0xbbc1093d	-0.005890994
6	0x3dcd88ae	0.10035835
7	0xbe9b2ba6	-0.3030674
8	0xbe54e749	-0.20791353
9	0xbf32f96b	-0.6991183
10	0xbf1314a1	-0.5745335
11	0xbf9d3dff	-1.2284545
12	0xbc55a5e1	-0.013040037
13	0xbef713cf	-0.482573
14	0x3db86486	0.09003548
15	0xbecd45fc	-0.40092456
16	0x3da8ed61	0.082484014
17	0xbe932e8d	-0.28746453
18	0xbdeae4f1	-0.11469448
19	0x3e4280d6	0.1899446
20	0x3e064eda	0.13116017
21	0xbdbdd479	-0.092690416
22	0x3ebd98c7	0.37030622
23	0xbe36ed20	-0.17863894
24	0xbf734edd	-0.9504221
25	0x3e652b16	0.22379717
26	0xbddd86d3	-0.10816731
27	0x3dd09120	0.101839304
28	0xbeec569f	-0.46159837
29	0x3de61ea4	0.11236313
30	0xbebf87a5	-0.37408176
31	0xbd26c7c0	-0.04071784

fc.weight f4 [1, 8]
0	0xba8b52fa	-0.0010629587
1	0xbdfee345	-0.12445692
2	0x3d676bc8	0.056499273
3	0xbd124158	-0.035706848
4	0x3cd47352	0.025933895
5	0x3e9dc6c1	0.308157
6	0x3e8341cd	0.2563614
7	0xbd2c5152	-0.04206974
