models/Nellore_model.pth (torch, 6142 bytes, 9 tensors)

lstm.weight_ih_l0 f4 [32, 1]
0.07111825 -1.462369 -0.1315927 0.543301 -1.370819 -0.41825053 -2.816864 -2.4399452
-0.5678902 -3.5069094 -0.6150164 0.4176763 -2.9835036 -0.66003376 -2.8695433 -3.7051442
-1.9075284 1.8792082 1.2043811 0.6625983 -2.4273512 -0.2844779 -2.2303214 2.3219197
0.17275432 -2.4470775 0.31116843 0.9044841 -2.1497662 -0.713441 -3.9236746 -3.0624926
00000000: 72a6 913d e82e bbbf 3dc0 06be c615 0b3f
00000010: ff76 afbf ef24 d6be 8047 34c0 1028 1cc0
00000020: 4161 11bf 3471 60c0 b771 1dbf abd9 d53e
00000030: b9f1 3ec0 f9f7 28bf 99a6 37c0 1521 6dc0
00000040: e429 f4bf e589 f03f 2929 9a3f 0ba0 293f
00000050: b959 1bc0 16a7 91be 96bd 0ec0 559a 1440
00000060: 82e6 303e eb9c 1cc0 7851 9f3e 458c 673f
00000070: c595 09c0 12a4 36bf 7c1d 7bc0 e1ff 43c0

lstm.weight_hh_l0 f4 [32, 8]
1.0633597 -2.4865644 -0.6438192 -0.2616079 1.7541666 0.29989564 1.4757092 -1.6112733
1.0414598 -2.3505325 -1.0674706 -0.562829 2.3543484 0.3387799 0.9535726 -1.5087806
0.31456497 -1.6717085 -0.71564114 -0.42954132 1.3046099 -0.056626316 0.4120847 -1.199547
0.48989424 0.14087212 -0.43629363 -0.4330217 -0.07792223 0.06965639 -0.09811893 0.2222198
1.423536 -3.5090618 -1.120197 -0.23925121 2.8450599 1.3081859 2.003507 -2.6181686
-0.29278108 0.31223467 0.05307901 0.242457 -0.1290706 -0.36757675 -0.12573451 0.6191048
1.6912823 -0.50947493 -0.946918 -0.3314191 1.9248707 0.2478391 0.36735407 -1.0036256
2.0757565 -0.88338155 -0.3728762 -0.31707 1.8273547 0.46410927 1.2099286 -1.1666044
1.3378814 -0.6610076 -0.05748066 -0.055160284 0.7843254 -0.19546112 0.8779477 -0.99119675
0.5068878 0.32289696 0.43054518 0.32591584 0.27316335 -0.22533599 0.11194302 -0.2690318
1.0674143 0.06312856 -0.54722327 0.17834407 0.67927027 -0.070233576 -0.33157673 -0.31368294
0.65744245 0.0035565973 -0.70704675 -0.13405943 0.37965775 -0.34302297 0.17855226 0.31417874
0.8460651 0.55262375 -0.042547733 0.2958007 0.4405349 0.009072118 0.29513618 -0.8457959
0.19348381 0.08573833 0.15434223 -0.10735108 -0.72673875 -0.16845255 -0.058476027 0.55989766
0.10147575 0.13819075 -0.11945083 -0.5527415 0.6149293 -0.27512297 0.52596545 -0.566671
1.0183396 -0.251341 0.28034532 0.03898088 1.0309238 0.4763464 0.79233044 -0.49467883
-0.04806132 0.015859554 0.4637288 0.12511471 -0.027346158 0.34214434 -0.33151612 0.7368372
0.51271427 -0.38297722 -0.11460284 -0.21026832 0.59988034 0.28145278 0.09067488 -0.012007454
0.65667814 -0.22782427 -0.28838792 0.08877708 0.2531376 0.10243393 -0.084579736 0.5192753
0.41749403 -0.18671677 -0.29741064 -0.57039773 0.18072745 -0.05347805 -0.64538914 0.618103
0.11675717 0.21908121 0.28219795 0.3242493 -0.37428027 -0.25689235 0.035018384 0.15999922
-0.27799866 0.43476874 0.24490209 -0.25889915 -0.30996722 -0.38966665 -0.110810086 0.7305581
-0.12485281 -0.057913408 0.01522061 -0.2060704 0.25809005 -0.12896948 -0.17075233 -0.048504006
-0.15328716 -0.15251426 0.25508362 0.3868483 -0.4578447 -0.020874923 -0.049390092 0.37549907
0.5259485 -2.1771677 -1.0537184 -0.012837193 1.9024105 0.9016051 1.4891181 -1.7412611
1.3047125 -1.7722023 -1.0605217 -0.37243783 2.465357 0.4437432 1.1507347 -1.2595952
1.0062894 -1.2824844 -0.9701291 -0.7787338 1.4251442 0.004190375 0.58298266 -1.5968837
0.46132886 -0.5714394 -0.77951705 -0.51637757 0.57392186 -0.19576816 -0.34447387 -0.014133913
0.98267627 -3.2397532 -1.0874875 -0.31201306 3.3322263 1.2091371 2.7626703 -2.9607606
-0.41656217 0.12139726 0.42058042 0.43643412 -0.35861367 -0.18717787 -0.6278052 0.3029029
1.4522767 -0.7779606 -0.95420605 -0.43657455 1.9047376 0.3525418 0.30022064 -0.86132747
2.014395 -1.7281609 -0.9840927 -0.8901686 2.7806826 0.6931177 1.4679427 -2.2171185
00000000: 2c1c 883f df23 1fc0 56d1 24bf 78f1 85be
00000010: 8888 e03f ec8b 993e 0ae4 bc3f 343e cebf
00000020: 8e4e 853f 206f 16c0 e0a2 88bf 9015 10bf
00000030: a5ad 1640 8f74 ad3e 551d 743f b91f c1bf
00000040: a90e a13e 8bfa d5bf 4234 37bf d7ec dbbe
00000050: 75fd a63f fff0 67bd c4fc d23e c28a 99bf
00000060: 6bd3 fa3e c840 103e e161 dfbe 05b5 ddbe
00000070: b195 9fbd 02a8 8e3d 94f2 c8bd 968d 633e
00000080: 6d36 b63f 7894 60c0 9e62 8fbf 45fe 74be
00000090: 7615 3640 a372 a73f 7539 0040 1390 27c0
000000a0: 67e7 95be 39dd 9f3e 6069 593d a646 783e
000000b0: 152b 04be 0533 bcbe 8cc0 00be a77d 1e3f
000000c0: f07b d83f f36c 02bf 3869 72bf c4af a9be
000000d0: 2a62 f63f 88c9 7d3e d515 bc3e ce76 80bf
000000e0: 32d9 0440 4b25 62bf a1e9 bebe 0057 a2be
000000f0: c2e6 e93f bb9f ed3e f1de 9a3f 4b53 95bf
00000100: b33f ab3f cb37 29bf d770 6bbd c0ef 61bd
00000110: 8dc9 483f f626 48be 2ec1 603f 12bf 7dbf
00000120: 66c3 013f c052 a53e 6b70 dc3e 71de a63e
00000130: 11dc 8b3e 7abe 66be 6242 e53d 89be 89be
00000140: 08a1 883f 8c49 813d d316 0cbf d49f 363e
00000150: a8e4 2d3f 9fd6 8fbd 6dc4 a9be 0d9b a0be
00000160: 264e 283f cd15 693b 0401 35bf e046 09be
00000170: 8062 c23e b5a0 afbe 67d6 363e 09dc a03e
00000180: b997 583f c078 0d3f 8846 2ebd 3073 973e
00000190: ca8d e13e 39a3 143c 171c 973e 1586 58bf
000001a0: 9f20 463e 9497 af3d e40b 1e3e e2da dbbd
000001b0: 8d0b 3abf d37e 2cbe 8f84 6fbd 7455 0f3f
000001c0: 85d2 cf3d e081 0d3e a3a2 f4bd 7880 0dbf
000001d0: 026c 1d3f ebdc 8cbe aca5 063f 5a11 11bf
000001e0: f458 823f c4af 80be 6c89 8f3e 6aaa 1f3d
000001f0: 50f5 833f ade3 f33e 2bd6 4a3f 8b46 fdbe
00000200: f2db 44bd e5eb 813c dc6d ed3e 121e 003e
00000210: 0d05 e0bc 8b2d af3e 7bbc a9be 5da1 3c3f
00000220: 3e41 033f 9715 c4be e5b4 eabd 9450 57be
00000230: c291 193f 941a 903e c0b3 b93d eaba 44bc
00000240: 0f1c 283f c44a 69be 95a7 93be c2d0 b53d
00000250: 409b 813e e1c8 d13d 2438 adbd 3aef 043f
00000260: c7c1 d53e ae32 3fbe 3546 98be 9605 12bf
00000270: 9e10 393e cd0b 5bbd 3938 25bf 003c 1e3f
00000280: 621e ef3d d356 603e 407c 903e 0104 a63e
00000290: aaa1 bfbe 6587 83be 706f 0f3d d6d6 233e
000002a0: d755 8ebe 029a de3e 9dc7 7a3e 6e8e 84be
000002b0: 06b4 9ebe 6382 c7be 66f0 e2bd db05 3b3f
000002c0: d4b2 ffbd 9c36 6dbd de5f 793c 1e04 53be
000002d0: 6124 843e 9310 04be b3d9 2ebe 23ac 46bd
000002e0: 4ff7 1cbe b32c 1cbe 529a 823e fb10 c63e
000002f0: 9f6a eabe e301 abbc 444d 4abd 6a41 c03e
00000300: 90a4 063f b756 0bc0 3fe0 86bf 1753 52bc
00000310: 3082 f33f 98cf 663f 6c9b be3f a5e1 debf
00000320: d200 a73f 86d7 e2bf 2dbf 87bf 2cb0 bebe
00000330: 69c8 1d40 4f32 e33e 464b 933f 6a3a a1bf
00000340: 17ce 803f 7328 a4bf 615a 78bf 195b 47bf
00000350: 206b b63f 6a4f 893b 5a3e 153f af66 ccbf
00000360: 4c33 ec3e da49 12bf 6e8e 47bf 5231 04bf
00000370: 8bec 123f 7377 48be e15e b0be ee91 67bc
00000380: ac90 7b3f 1e58 4fc0 ca32 8bbf 2dc0 9fbe
00000390: 3243 5540 01c5 9a3f 97cf 3040 1a7d 3dc0
000003a0: a347 d5be 209f f83d 5156 d73e 4b74 df3e
000003b0: 369c b7be 8eab 3fbe d7b7 20bf 1716 9b3e
000003c0: 34e4 b93f 6d28 47bf d946 74bf b386 dfbe
000003d0: 71ce f33f 5c80 b43e 85b6 993e f57f 5cbf
000003e0: d9eb 0040 6034 ddbf 80ed 7bbf 17e2 63bf
000003f0: b4f6 3140 2970 313f 8ce5 bb3f 45e5 0dc0

lstm.bias_ih_l0 f4 [32]
0.25543946 0.5152352 0.18424627 -0.073227726 1.2345934 -0.44120073 0.3288394 0.66984725
-0.2490987 -0.43498877 -0.56232697 -0.20026574 0.0046630017 -0.52012706 0.08437232 -0.13192609
0.116781965 -0.23610726 -0.1497788 0.14965877 0.20447972 0.045130044 -0.0219019 -0.16999128
0.82016414 0.47380644 0.30338642 -0.34735852 0.54767835 -0.40887645 0.117820375 0.49359074
00000000: f6c8 823e 74e6 033f 0eab 3c3e 6bf8 95bd
00000010: 2807 9e3f 10e5 e1be a35d a83e 1c7b 2b3f
00000020: bb13 7fbe d9b6 debe a9f4 0fbf 7612 4dbe
00000030: 18cc 983b 0c27 05bf 65cb ac3d a217 07be
00000040: 622b ef3d 1ac6 71be 9d5f 19be 2640 193e
00000050: 2263 513e 48da 383d 9d6b b3bc 3212 2ebe
00000060: 47f6 513f c296 f23e 7755 9b3e fad8 b1be
00000070: a634 0c3f 4158 d1be cf4b f13d edb7 fc3e

lstm.bias_hh_l0 f4 [32]
0.7857217 0.16292328 -0.05399012 0.06577873 0.8761546 -0.2822247 -0.046548728 0.17367753
0.32749525 -0.46151534 -0.54217213 -0.51315576 -0.22571556 -0.33169383 0.26989576 0.103901155
-0.061969392 0.19096684 0.15704152 -0.1103945 -0.14421773 0.18033002 0.07424416 0.14954005
0.3813133 0.43185842 -0.08848139 -0.46368745 1.0951086 0.09680972 -0.1982568 0.31470168
00000000: 0f25 493f 5cd5 263e be24 5dbd 00b7 863d
00000010: ab4b 603f c27f 90be e1a9 3ebd 86d8 313e
00000020: 75ad a73e bd4b ecbe cbcb 0abf 2d5e 03bf
00000030: fb21 67be c6d3 a9be c72f 8a3e 21ca d43d
00000040: 9ed3 7dbd d08c 433e 7ecf 203e 8316 e2bd
00000050: d0ad 13be 6fa8 383e 520d 983d 0721 193e
00000060: 7f3b c33e 8c1c dd3e bb35 b5bd 7168 edbe
00000070: 852c 8c3f 2d44 c63d d503 4bbe 9420 a13e

lstm.weight_ih_l1 f4 [32, 8]
0.22308156 0.24681842 -0.38013324 -0.26691413 -0.2789081 -0.10194306 -0.48329926 0.36677915
-0.4712221 0.4593436 0.49948356 -0.005520462 -0.34512797 -0.15586641 0.22246665 0.43518138
0.29437155 -0.059314348 -0.2730005 -0.08830653 0.15775193 0.21273439 0.21505088 -0.15709122
-0.5774498 0.43222973 0.14889036 -0.36687163 -0.60675627 -0.30167708 -0.0402755 0.050420575
-0.25593445 -0.11124904 -0.29534137 0.18039745 -0.10493218 0.1752467 0.05742187 0.14517775
0.48464698 0.1382156 0.18771775 0.026657347 -0.12812284 -0.39186338 -0.44219685 -0.14918797
0.20586106 -0.18468091 0.26307327 -0.10941133 0.59905726 0.14553672 0.13580574 -0.6409869
-0.22024181 0.63498956 -0.3399798 -0.16047047 -0.2900465 -0.12529857 -1.0427396 0.7405557
0.46232042 -0.2995867 -0.36219233 0.09280445 -0.015517446 0.024268141 -0.2995822 0.10847471
0.4555754 -0.09604421 -0.19373941 -0.27063775 0.3352304 0.04248274 -0.16016832 0.018068962
0.333874 -0.42441788 -0.34606782 -0.48653033 1.0120765 0.15393992 0.52981436 -0.58833677
0.06188395 0.53387594 -0.09134333 -0.07130044 -0.25542805 -0.06747646 -0.12937993 0.10770081
-0.56838167 -0.036177646 -0.22236653 0.08254778 -0.3877543 -0.06446537 -0.016658872 0.25851926
-0.076121606 0.09625097 -0.22279932 -0.2973595 -0.26928318 -0.07462301 -0.2679524 -0.19735156
1.4795115 -1.3331711 -0.9590408 -0.5815976 1.2414789 0.11286988 0.170851 -0.7260628
0.3277084 -0.052826174 -0.4950346 0.08113319 0.17772235 -0.28714094 -0.9913106 0.72643244
-0.0038657982 -0.4386656 -0.07189069 -0.033200577 -0.3682865 0.037343796 0.40816286 -0.32554314
0.05404034 0.2483409 -0.16225752 -0.24036054 -0.0669582 -0.09777933 0.15274085 0.30713552
0.39443323 -0.2595958 -0.1310972 -0.13253789 0.46504048 -0.2994226 0.21908094 -0.5873918
-0.1489135 -0.44096696 0.27207232 -0.022030767 0.15776995 0.24303894 0.084084414 -0.028653193
-0.07483374 -0.35079488 -0.15358143 0.25137582 -0.49196118 -0.25382107 0.16509101 -0.026947442
-0.26391563 -0.030812208 -0.24958596 0.38752097 0.20796831 0.29206672 0.42988804 0.05779318
-0.39852417 0.3307682 0.27645352 -0.29755488 -0.92803437 -0.3072434 -0.39703116 0.55366635
-0.31667206 0.5654784 0.027777936 -0.1973499 -0.17057113 -0.13507047 -0.28674588 0.3220278
-0.08374522 0.61429006 -0.21338342 -0.010584423 -0.5499022 -0.2936599 0.0028234639 0.20806076
0.20240158 -0.24591045 -0.02764381 0.33138043 0.07019438 0.35261264 -0.21136224 -0.07911304
0.39654142 -0.80380213 -0.57614505 -0.18080454 0.7794173 0.33520722 0.34171045 -1.1066337
-0.3881603 1.0330877 0.6182819 -0.20202643 -0.5484156 -0.20240471 -0.45873725 0.8598352
0.10800907 -0.70432353 -0.04041995 0.017810738 0.68973535 0.29535046 0.2328847 -0.0038188293
-0.34749642 0.50672823 0.11116106 0.10445718 -0.6227003 -0.33891255 -0.04185641 0.14163266
1.5126355 -1.4022988 -0.9263342 -0.39591572 1.2012435 0.32038647 1.08696 -1.1100631
-0.005255713 0.679419 -0.02139223 -0.17700505 -0.5930628 -0.58755726 -0.71046513 0.65731096
00000000: 7e6f 643e f8bd 7c3e d3a0 c2be f8a8 88be
00000010: 0bcd 8ebe 86c7 d0bd 0073 f7be 7aca bb3e
00000020: 0644 f1be 162f eb3e 4fbc ff3e fee4 b4bb
00000030: 9db4 b0be 729b 1fbe 4cce 633e 18d0 de3e
00000040: deb7 963e 9af3 72bd b9c6 8bbe 0eda b4bd
00000050: b989 213e 0bd7 593e 4c36 5c3e 85dc 20be
00000060: c0d3 13bf 374d dd3e b776 183e 99d6 bbbe
00000070: 6154 1bbf 6b75 9abe ecf7 24bd ce85 4e3d
00000080: d709 83be 89d6 e3bd fc36 97be 1cba 383e
00000090: afe6 d6bd df73 333e 3233 6b3d 7aa9 143e
000000a0: a623 f83e 6488 0d3e 1539 403e 8260 da3c
000000b0: a232 03be 51a2 c8be a067 e2be bbc4 18be
000000c0: 3ecd 523e fe1c 3dbe 8ab1 863e 0c13 e0bd
000000d0: d15b 193f 9407 153e a910 0b3e b817 24bf
000000e0: 1287 61be ad8e 223f d511 aebe 5f52 24be
000000f0: fa80 94be 454e 00be 7e78 85bf 0f95 3d3f
00000100: 43b5 ec3e 6e63 99be 4671 b9be 4210 be3d
00000110: e33c 7ebc fbcd c63c d762 99be fd27 de3d
00000120: 2e41 e93e d4b2 c4bd a063 46be 0891 8abe
00000130: 52a3 ab3e 6202 2e3d 2a03 24be 5c05 943c
00000140: 88f1 aa3e 4d4d d9be cd2f b1be 811a f9be
00000150: b98b 813f 6da2 1d3e eaa1 073f 3d9d 16bf
00000160: 067a 7d3d 18ac 083f 3612 bbbd f705 92bd
00000170: 77c7 82be 1931 8abd 2c7c 04be 3e92 dc3d
00000180: 7681 11bf 032f 14bd 0db4 63be cf0e a93d
00000190: bb87 c6be 6b06 84bd 3078 88bc a35c 843e
000001a0: a5e5 9bbd 3b1f c53d 8125 64be 813f 98be
000001b0: 7cdf 89be f3d3 98bd 0f31 89be 8716 4abe
000001c0: a260 bd3f 5aa5 aabf b383 75bf 95e3 14bf
000001d0: c8e8 9e3f 5328 e73d 91f3 2e3e 40df 39bf
000001e0: 65c9 a73e 4260 58bd 2d75 fdbe 2829 a63d
000001f0: d9fc 353e 2304 93be 88c6 7dbf 7af7 393f
00000200: 5559 7dbb c798 e0be 6d3b 93bd 54fd 07bd
00000210: 0c90 bcbe cff5 183d b9fa d03e 97ad a6be
00000220: 6759 5d3d 144d 7e3e d626 26be 1321 76be
00000230: 6121 89bd 8840 c8bd 1968 1c3e de40 9d3e
00000240: 27f3 c93e bee9 84be 583e 06be 03b8 07be
00000250: c919 ee3e eb4d 99be c156 603e 4f5f 16bf
00000260: c87c 18be 6cc6 e1be 104d 8b3e de79 b4bc
00000270: 728e 213e 33df 783e 7334 ac3d 1aba eabc
00000280: 6f42 99bd 639b b3be 7344 1dbe 55b4 803e
00000290: 56e2 fbbe d6f4 81be 9e0d 293e e2c0 dcbc
000002a0: f31f 87be e269 fcbc 7693 7fbe 2669 c63e
000002b0: a5f5 543e c589 953e 491a dc3e 8bb8 6c3d
000002c0: 5c0b ccbe 735a a93e 518b 8d3e 1d59 98be
000002d0: a993 6dbf 024f 9dbe ab47 cbbe 14bd 0d3f
000002e0: d722 a2be 31c3 103f 8e8e e33c 1816 4abe
000002f0: 33aa 2ebe ea4f 0abe 5bd0 92be d4e0 a43e
00000300: 9d82 abbd 1d42 1d3f 2f81 5abe 4a6a 2dbc
00000310: 64c6 0cbf 975a 96be dd09 393b e10d 553e
00000320: 5c42 4f3e f3cf 7bbe 4575 e2bc b2aa a93e
00000330: 12c2 8f3d a589 b43e 586f 58be 0406 a2bd
00000340: 7a07 cb3e fac5 4dbf 3e7e 13bf d324 39be
00000350: e487 473f 48a0 ab3e acf4 ae3e 2ca6 8dbf
00000360: f2bc c6be 383c 843f b947 1e3f 04e0 4ebe
00000370: f764 0cbf 2e43 4fbe 9cdf eabe 291e 5c3f
00000380: dc33 dd3d 8c4e 34bf 648f 25bd d3e7 913c
00000390: 7f92 303f 2d38 973e 5479 6e3e 5345 7abb
000003a0: 0deb b1be f1b8 013f 69a8 e33d a5ed d53d
000003b0: 4969 1fbf f285 adbe a171 2bbd 2708 113e
000003c0: 0a9e c13f 877e b3bf 3d24 6dbf 77b5 cabe
000003d0: 59c2 993f b209 a43e 8121 8b3f 8c16 8ebf
000003e0: 1e38 acbb 67ee 2d3f c23e afbc d040 35be
000003f0: f7d2 17bf 276a 16bf 0be1 35bf 8845 283f

lstm.weight_hh_l1 f4 [32, 8]
-0.0677036 0.2258887 -0.2095157 0.31024987 0.29433593 0.15806136 -0.11745462 -0.080756225
-0.027880445 0.1251204 0.11534086 0.13975824 -0.39938834 0.15403482 0.54007 0.3195357
0.30460757 0.29870555 0.113868564 -0.22688808 -0.12577917 -0.2647507 0.28275743 -0.47331277
0.19758935 0.07341303 0.38853088 0.4757566 0.22501811 0.55696446 -0.47172228 -0.4666806
-0.22495815 0.24660206 -0.1463177 -0.061374497 -0.26351407 -0.31041595 0.028731184 0.2967506
0.20890236 0.051619917 0.36812094 0.28067043 0.17381774 0.23338427 0.01317405 -0.17341591
-0.19399525 -0.5076926 0.81742597 -0.408891 0.59626335 -0.37901852 -0.6119033 -1.351324
0.17325892 -0.14418471 -0.46168742 0.58301467 -0.025228284 0.14275397 0.4743377 -0.047570005
0.14492606 0.34738988 -0.075318776 0.3618812 -0.15979323 0.40083373 -0.53414816 -0.21725704
0.16177835 0.18933603 -0.4266202 0.009656499 -0.40567198 0.13397801 0.7358266 0.0021738275
0.36673772 0.570563 -0.015263796 0.36233747 -0.15832588 0.3190725 0.672609 -0.5257574
0.6803682 0.29876667 0.2291737 0.2770304 -0.3198832 0.41008598 -0.3463928 -0.60141563
0.059643496 0.016095115 -0.43691972 -0.18504846 0.10457656 -0.10769059 0.44472623 0.08164381
-0.022570107 0.25593603 -0.27215394 0.5468733 0.16225791 0.3027034 -0.31746754 -0.07722319
0.18714382 0.09150839 -0.5830198 0.42855343 -0.6511038 0.20397219 0.36665848 -0.49754208
0.5097786 0.1043066 -0.20163032 0.52326417 -0.45560938 0.4558556 0.81639165 -0.36735246
-0.101137765 -0.15299983 -0.12530659 -0.2938115 0.21821888 -0.08524282 0.61653227 0.2219069
-0.22188137 -0.10403633 0.5425457 0.1777727 0.051364392 0.34703636 -0.7981614 0.10265454
-0.314573 0.31911504 -0.22587362 -0.18030645 -0.3743485 0.17277396 0.5251861 -0.035539765
-0.25367576 0.082264684 -0.13911669 -0.4574463 0.2279322 -0.17934655 0.56465214 0.49513337
0.041017372 0.20313928 0.040378723 0.19173783 -0.0062602726 0.077043205 0.55242056 0.08650787
-0.47624597 0.13460219 0.10287038 0.193368 0.2895989 -0.20262237 0.19156416 0.17967567
-0.16407332 0.2400094 0.41684178 -0.26113927 0.21435961 -0.0113574015 -0.32306027 -0.43874764
0.16239855 -0.2313362 0.033616416 0.0066233235 -0.25834996 0.17888586 0.10291238 -0.08472848
0.0325335 0.20121053 0.36063197 0.09313002 0.2195698 -0.016036315 -0.37291813 -0.0661969
0.12536623 0.4189874 -0.47963086 -0.009222809 -0.09393413 -0.14094241 0.48860922 -0.036412828
0.22664048 0.010299593 0.17317936 -0.3124015 0.1810948 0.3513521 0.071978174 -0.13027212
0.25089815 -0.23995021 0.2592456 0.34438124 0.17917773 0.053559452 -0.19709307 -0.23577897
0.27899274 0.22982386 -0.39996874 -0.197857 -0.41763762 -0.15272534 0.7104527 0.27597556
-0.030377641 -0.123662174 -0.08962977 0.25082853 0.045108493 0.009598079 -0.47127944 -0.105380125
0.026797263 -0.61635077 0.7183927 0.20645703 0.1755554 -0.12939438 -0.9876965 -1.3006061
0.38946816 0.37916413 -0.13957499 0.6135783 0.09079862 0.5536225 0.115369625 -0.58585393
00000000: 2fa8 8abd 5e4f 673e 498b 56be 12d9 9e3e
00000010: 33b3 963e d6da 213e 0c8c f0bd 8563 a5bd
00000020: 8865 e4bc 901f 003e d437 ec3d c91c 0f3e
00000030: a17c ccbe 4ebb 1d3e 0742 0a3f 2f9a a33e
00000040: 86f5 9b3e efef 983e ec33 e93d 5955 68be
00000050: 41cc 00be 678d 87be 95c5 903e 0d56 f2be
00000060: dd54 4a3e 9259 963d 85ed c63e 5e96 f33e
00000070: 266b 663e 3995 0e3f 9585 f1be c2f0 eebe
00000080: 6e5b 66be 4085 7c3e 4fd4 15be d363 7bbd
00000090: 51eb 86be d7ee 9ebe a95d eb3c b2ef 973e
000000a0: 80ea 553e 686f 533d 597a bc3e 09b4 8f3e
000000b0: 47fd 313e 49fc 6e3e f8d7 573c f193 31be
000000c0: b1a6 46be 24f8 01bf d442 513f 295a d1be
000000d0: b7a4 183f b70e c2be b2a5 1cbf 2ff8 acbf
000000e0: c96a 313e 28a5 13be 4b62 ecbe 7340 153f
000000f0: 8cab cebc 192e 123e 64dc f23e c4d8 42bd
00000100: 7f67 143e 16dd b13e bb40 9abd 7e48 b93e
00000110: d6a0 23be 143a cd3e efbd 08bf a178 5ebe
00000120: 39a9 253e 4ee1 413e f66d dabe 4b36 1e3c
00000130: 3db4 cfbe 8831 093e 225f 3c3f c676 0e3b
00000140: 0cc5 bb3e 6b10 123f 0015 7abc 4c84 b93e
00000150: 2e20 22be 795d a33e 1a30 2c3f 0998 06bf
00000160: 9c2c 2e3f f2f7 983e 83ac 6a3e eed6 8d3e
00000170: bbc7 a3be caf6 d13e 665a b1be 60f6 19bf
00000180: bd4c 743d e7d9 833c f1b3 dfbe 587d 3dbe
00000190: 3c2c d63d e28c dcbd 28b3 e33e df34 a73d
000001a0: f2e4 b8bc 0c0a 833e c357 8bbe e3ff 0b3f
000001b0: f026 263e f1fb 9a3e 1b8b a2be 3127 9ebd
000001c0: a1a2 3f3e c068 bb3d c940 15bf 5b6b db3e
000001d0: bdae 26bf 16de 503e a9ba bb3e d6bd febe
000001e0: da80 023f b39e d53d 2e78 4ebe a4f4 053f
000001f0: a245 e9be e865 e93e 0bff 503f 9f15 bcbe
00000200: 5121 cfbd fdab 1cbe 5f50 00be 766e 96be
00000210: c574 5f3e ca93 aebd 0fd5 1d3f 903b 633e
00000220: df34 63be 0011 d5bd 46e4 0a3f 0c0a 363e
00000230: 7863 523d c0ae b13e 4e54 4cbf 8b3c d23d
00000240: b60f a1be 0c63 a33e 6a4b 67be 41a2 38be
00000250: 9baa bfbe a8eb 303e 9972 063f 2592 11bd
00000260: cae1 81be 637a a83d 9b74 0ebe 6736 eabe
00000270: 0f67 693e 9fa6 37be 0b8d 103f 1f82 fd3e
00000280: d501 283d be03 503e 2964 253d ec56 443e
00000290: f922 cdbb d4c8 9d3d 6f6b 0d3f 0a2b b13d
000002a0: 83d6 f3be 28d5 093e b5ad d23d 4302 463e
000002b0: 4f46 943e 3d7c 4fbe 6529 443e e6fc 373e
000002c0: d602 28be 06c5 753e 496c d53e 0cb4 85be
000002d0: 1681 5b3e 6514 3abc 2868 a5be 88a3 e0be
000002e0: ce4b 263e 66e3 6cbe 5eb1 093d 7708 d93b
000002f0: 7246 84be db2d 373e bac3 d23d 2086 adbd
00000300: d941 053d 220a 4e3e c1a4 b83e f4ba be3d
00000310: e8d6 603e 975e 83bc 20ef bebe 3e92 87bd
00000320: 0160 003e 8485 d63e 2d92 f5be 441b 17bc
00000330: 8a60 c0bd 3553 10be fd2a fa3e 9e25 15bd
00000340: 7114 683e a0bf 283c ee55 313e 17f3 9fbe
00000350: ea70 393e 6ce4 b33e 4b69 933d 0e66 05be
00000360: b975 803e 82b5 75be d7bb 843e bd52 b03e
00000370: 5e7a 373e 2861 5b3d c4d2 49be 0b70 71be
00000380: 23d8 8e3e f256 6b3e b4c8 ccbe 079b 4abe
00000390: 99d4 d5be 0864 1cbe 3ae0 353f ab4c 8d3e
000003a0: 88da f8bc 9842 fdbd d08f b7bd 996c 803e
000003b0: afc3 383d 4341 1d3c 8a4b f1be 89d1 d7bd
000003c0: ef85 db3c 2ac9 1dbf 96e8 373f 7969 533e
000003d0: cbc4 333e f67f 04be aed9 7cbf 437a a6bf
000003e0: 5f68 c73e cd21 c23e bfec 0ebe 7813 1d3f
000003f0: a0f4 b93d 34ba 0d3f e946 ec3d 86fa 15bf

lstm.bias_ih_l1 f4 [32]
0.11652179 -0.38365537 -0.3839107 0.18703891 -0.092368774 -0.14843522 0.5036258 0.054964304
-0.024292551 -0.12752438 -0.09974998 -0.40466192 0.18277526 -0.027619231 -0.18697745 -0.08390911
0.034610543 -0.21652086 0.1225902 0.05464838 0.14583439 -0.30935195 -0.35429987 0.19797535
0.21024801 -0.17619969 -0.33989754 -0.323232 -0.033865277 -0.13856842 0.46127602 0.051765554
00000000: faa2 ee3d 7a6e c4be f18f c4be 2187 3f3e
00000010: d72b bdbd 67ff 17be 9fed 003f 4022 613d
00000020: 2c01 c7bc c095 02be b849 ccbd d92f cfbe
00000030: 7029 3b3e ba41 e2bc 0477 3fbe 8ad8 abbd
00000040: c9c3 0d3d a5b7 5dbe 9210 fb3d fbd6 5f3d
00000050: 9c55 153e 6163 9ebe cb66 b5be 0dba 4a3e
00000060: 414b 573e b16d 34be 0d07 aebe aa7e a5be
00000070: 51b6 0abd e1e4 0dbe 5f2c ec3e 1e08 543d

lstm.bias_hh_l1 f4 [32]
-0.0775353 0.032948572 -0.1532275 -0.23112512 -0.025183644 -0.10954583 0.15527076 -0.52488303
-0.21525286 -0.1232802 -0.057183962 -0.3261818 0.20403577 0.03442559 -0.11976506 -0.624352
-0.19553362 -0.0005591588 0.19743478 -0.11493599 0.26034307 -0.28087142 0.15286434 -0.09623883
-0.3641574 -0.019154694 0.262428 -0.2631261 -0.29367414 -0.23700857 0.4926739 -0.11913561
00000000: d4ca 9ebd 15f5 063d abe7 1cbe 10ac 6cbe
00000010: ee4d cebc 9059 e0bd 4cff 1e3e bc5e 06bf
00000020: 3f6b 5cbe 547a fcbd bb39 6abd 4d01 a7be
00000030: c1ee 503e d901 0d3d 6247 f5bd 88d5 1fbf
00000040: f739 48be 8394 12ba 582c 4a3e 8f63 ebbd
00000050: b04b 853e 61ce 8fbe 7888 1c3e dd18 c5bd
00000060: d772 babe 4eea 9cbc f65c 863e 77b8 86be
00000070: 755c 96be 60b2 72be c13f fc3e 5ffd f3bd

fc.weight f4 [1, 8]
-0.27979618 0.11013884 -0.18013372 -0.08735764 -0.07582248 -0.12216495 0.21122311 0.04390366
00000000: 7241 8fbe 7990 e13d f974 38be 90e8 b2bd
00000010: d148 9bbd 9e31 fabd df4a 583e 53d4 333d
