models/Thiruvananthapuram_model.pth (torch, 6283 bytes, 9 tensors)

lstm.weight_ih_l0 f4 [32, 1]
00000000: 86c6 fa3e 0d6b 943f a1ea 90c0 eaa5 bb3f
00000010: 09b7 e73f 7cdc 44c0 a56f 583f 972e 2dc0
00000020: 5f5a e93e 1ed1 5e3f ce80 7fc0 0976 51bf
00000030: ba4a db3e 6226 08c0 8c0e 653f 1802 ecbf
00000040: 3cfc 2b40 8e90 833f 77c5 2940 3e85 1d3f
00000050: 800a 833f 3168 03c0 e3cf a53f 1504 de3f
00000060: 7df8 8b3f cc60 b83f 23b9 8ac0 37e2 d63f
00000070: cd07 df3f 35c0 4ec0 8c90 5e3f 9c3b 4fc0
0.48979586 1.1595169 -4.528641 1.4660008 1.8102733 -3.0759573 0.84545356 -2.7059686
0.4557676 0.8703784 -3.9922366 -0.8182073 0.4283045 -2.1273427 0.8947532 -1.8438139
2.6872702 1.027849 2.6526773 0.61531436 1.0237579 -2.0532343 1.2954067 1.7344996
1.0935208 1.440454 -4.3350997 1.6787785 1.7424256 -3.2304814 0.8693931 -3.2380133

lstm.weight_hh_l0 f4 [32, 8]
00000000: a1aa 0fbe 17e8 f53e 9cc9 b1bf f6c0 8ebc
00000010: 297b 853e b1ac b23f b4bc 783f a53e bdbf
00000020: c4f6 19bf 0542 65bd 913e 2f3e 3f2f bb3e
00000030: 6754 593e a5aa 903e b6b5 8bbe 4a7c d33e
00000040: 8af6 d6bd c6b0 123f ba13 61bf 6ff6 e03e
00000050: 446e 29be 9690 a13e 0aac 243f d6d9 52bf
00000060: 973a 9b3f 8e7a 0c3f 2e31 6e3f 1567 18bf
00000070: b55d 033f b32e acbe b2c2 193f 6a2d 91bd
00000080: 251b 5fbe 1441 c8be 7044 95be d06b cb3e
00000090: 5657 08be 3af6 083f b146 8ebe ada2 703e
000000a0: 2707 a0bd 399a 58bc 08d8 40bf 738d 4ebf
000000b0: afd0 ecbe 329c ec3e 5ae5 d33e 2fa1 0cbf
000000c0: 3a2e 7b3e 34a5 9b3e 8497 113f 2ed4 91bf
000000d0: 1a29 c4be 4ffd 9a3d dcb6 5e3e 7024 12b9
000000e0: 3f26 0c3f 1a43 fa3e d74a ed3d 9769 c7be
000000f0: 9ffe e2be cc3a 02bf 0b3a af3e aaef 2b3e
00000100: d9d0 82bf 0c55 3dbf c705 7dbf aac9 ae3f
00000110: b1ab a93e 33db 723f 9b4f 47be cbbc 273e
00000120: e567 2abf 0172 05bf db2a e63c cbaf d13b
00000130: cc0a 2abe 55b4 963d 7cf3 be3d 3fcc c6bd
00000140: f218 4fbf 9246 5abe d20e eebd 6fff 833f
00000150: d4cd 3f3e 57cc e83e abc5 973d 2906 063e
00000160: 3755 a23d b1e6 1a3d a846 6a3f 97cd 26c0
00000170: 9f46 99bf 4997 1abf 2273 d2bd 5332 c43d
00000180: 515e 0dbf f420 debe a4ec 10bf f6c5 21bf
00000190: 6cbb 04bf 86ac 7e3e 2817 e0be c619 333d
000001a0: 7a9c d1be eb2a 453e ed43 9c3e 1983 39be
000001b0: ca62 84be ea38 e0be 9c9e 683e 9ddd e4bd
000001c0: 266c 813e 5451 b33c 30e6 413f f84b 70bf
000001d0: 92b2 0abf ddc6 48bf c795 b03d 91ee 6abe
000001e0: 5f38 89be 4a9a 5ebd 9b36 723e 1367 51bf
000001f0: 4e08 b7be fdaa 2b3e 5917 e93e a539 e83d
00000200: 1b2a 2a3e 06ca 3a3d 8b3a 863e 79a7 4f3e
00000210: c29c a1be 1189 bd3c 3836 9d3e f1e2 7ebe
00000220: 2b8e 803c a0b7 06bf 2281 9b3e 7cb3 b5be
00000230: fca2 febd ca05 c53d f01a c53d 8e82 06be
00000240: 6c93 353c b276 1ebe b9f9 fd3d b64a dcbe
00000250: f2f8 543e 0c1b cd3e 67e8 d3be 5714 0d3e
00000260: 3eea 30bf 6648 23be ca4c 84be 859f 17bf
00000270: 6b2b 96be 3299 203d 9550 a5be 02c8 c53d
00000280: 3fd4 e9be 04d5 1dbe 9291 babe d744 d93d
00000290: 10b8 e7be aa9b 7e3e 1c54 93be f9e1 1bbe
000002a0: 5fa1 2fbe 2218 ac3e 07b8 91be 97f7 f1be
000002b0: 84ac d6bd 2627 76be 5ba8 733e 7f7a 1b3e
000002c0: b40d 013d 58e4 99bd 59e1 183f 4743 5dbf
000002d0: ba7f c8be ab0a 8bbe 6ad0 6ebe d733 c63e
000002e0: 3c70 dfbe c035 933d a261 93be ddb4 41bd
000002f0: 5969 ab3d 8e1a 6e3d a179 abbe 4594 b2be
00000300: acc9 8f3d aa26 4d3e 24d5 dcbf 8bd6 703f
00000310: e150 a93b 8ec7 323f 1e25 053f 3587 b0bf
00000320: 2bd8 c2be 2318 83be ddcf 53be c347 0f3f
00000330: 3320 713e ebb3 913d 391d 953d 7a91 10bd
00000340: 16aa 06bf ee51 a63e b2b9 50bf a9d7 9e3d
00000350: b321 3dbd c438 853e 3bfc 143f 8c9b c4be
00000360: 961e 953f 17a7 b13e 680b 00bc 55db 55bf
00000370: 5768 423f 20b7 8d3e 2bcd b53d f7af d7be
00000380: ac3c 44bf 1b63 39bf 0f39 02bf 0916 483c
00000390: 9119 9ebe 2e1c 993e ad3c 98be 67dd 6cbe
000003a0: 5623 f6bd fd44 2b3f 8b4e b4be 373d dd3e
000003b0: 57f3 6d3e 6788 0b3f 61b2 9d3e 59e0 87bf
000003c0: 96dd acbe dd52 ccbc 11e4 9c3e 46ad 553d
000003d0: 8b14 78be 2d22 ba3d 18c3 5e3e 3317 993e
000003e0: ff25 72be bed7 963e c0f5 48be b825 6cbf
000003f0: 5626 9bbe 5819 ca3d caab 9bbd 118f a6be
-0.14029934 0.48028633 -1.3889651 -0.017425995 0.26070526 1.3958951 0.9716294 -1.4784743
-0.6014216 -0.055971164 0.17113711 0.36559483 0.21223603 0.2825519 -0.27287072 0.41305763
-0.10496242 0.57300985 -0.87920725 0.43938014 -0.16545969 0.31555623 0.6432501 -0.8236364
1.2127255 0.54874504 0.9304379 -0.5953229 0.5131486 -0.3362938 0.60062706 -0.0708874
-0.21787699 -0.3911215 -0.29153776 0.39730692 -0.13314566 0.5350071 -0.27788308 0.23499556
-0.07813864 -0.013220363 -0.7532964 -0.80684584 -0.46252963 0.46212918 0.4138592 -0.54933447
0.24529353 0.30399477 0.5687182 -1.1392877 -0.38312608 0.07567846 0.21749443 -0.00013937219
0.5474586 0.4887932 0.1158654 -0.38947746 -0.44334885 -0.50870967 0.3422397 0.16790643
-1.0219985 -0.73957896 -0.9883694 1.3655293 0.33138803 0.9486572 -0.19463961 0.16380613
-0.6656478 -0.5212708 0.028096607 0.00639913 -0.16605681 0.07358614 0.09323785 -0.097069256
-0.8089744 -0.21315983 -0.116239205 1.0312327 0.18730861 0.454684 0.07410749 0.13088287
0.0792641 0.03781766 0.9151406 -2.6062982 -1.1974677 -0.6038709 -0.10275866 0.09579911
-0.5522204 -0.43384516 -0.56611085 -0.6319269 -0.51848483 0.248705 -0.43767667 0.04372575
-0.40939695 0.19254653 0.30520573 -0.18116416 -0.2585662 -0.43793422 0.22716755 -0.11175082
0.25277823 0.021889366 0.75741863 -0.9386592 -0.54178727 -0.7842844 0.08622318 -0.22942568
-0.2680082 -0.05434636 0.23653643 -0.81797904 -0.35748523 0.16764446 0.45525625 0.1133912
0.16617624 0.04560282 0.2621654 0.2027873 -0.3156491 0.023136647 0.30705428 -0.24891259
0.015692791 -0.5262394 0.30371958 -0.35488498 -0.124334306 0.09620245 0.096242785 -0.1313574
0.011082511 -0.15474966 0.124011464 -0.4302575 0.2079809 0.40059698 -0.41388246 0.1377729
-0.69107425 -0.15945587 -0.25839835 -0.5922778 -0.2933 0.0392086 -0.32288042 0.09657289
-0.45669743 -0.1541329 -0.36439186 0.10608833 -0.45257616 0.24864069 -0.28775108 -0.1522292
-0.17151402 0.33612162 -0.28460714 -0.4725921 -0.104821235 -0.24038371 0.23794691 0.15183447
0.03150721 -0.07514256 0.59718853 -0.8643078 -0.39159948 -0.27156577 -0.23321691 0.38711426
-0.43640316 0.071879864 -0.28785425 -0.047291625 0.08369703 0.058130793 -0.33491233 -0.34878746
0.07020888 0.2003428 -1.7252545 0.94077367 0.005167112 0.69835746 0.5200976 -1.3791262
-0.38055548 -0.25604352 -0.20684762 0.55968875 0.2354744 0.07114395 0.072809644 -0.035294987
-0.5260328 0.32484382 -0.8153335 0.07755978 -0.046174716 0.2601987 0.58197373 -0.38399923
1.1649959 0.34697792 -0.007815219 -0.835378 0.7594046 0.27678776 0.08877023 -0.42126438
-0.7665508 -0.7241685 -0.50868315 0.012212285 -0.3087888 0.29904312 -0.29733792 -0.23131333
-0.120184585 0.6690214 -0.35216174 0.43210766 0.23237358 0.5450501 0.30800155 -1.061534
-0.33762807 -0.024941856 0.3064275 0.0521672 -0.24226587 0.0908855 0.2175411 0.29900512
-0.23647307 0.29461473 -0.19624996 -0.92245054 -0.30302685 0.09868115 -0.076011255 -0.32531026

lstm.bias_ih_l0 f4 [32]
00000000: 82f6 373f 087d 17bc 9598 af3e c30b 193f
00000010: b5af fcbd 2ca9 433f 6c4f 093d 1485 c13e
00000020: ccf9 0bbe 299a b0be bb46 46be 9609 ebbe
00000030: 3866 eebe b44c 88be 4001 11be 37aa dcbd
00000040: 1d03 e0bd 0a62 d93d 138f 5a3e 5853 bf3d
00000050: 2d55 193e 3d84 3dbe c2a4 05be 7d2f 04bd
00000060: ae30 3f3f 23f9 a6be dc1d 473e 64b6 3d3f
00000070: 38ac 3fbe 5228 f83e fd2b 703e 3117 ccbd
0.71860516 -0.009246118 0.34296098 0.5978357 -0.12338201 0.7643001 0.03352301 0.37796843
-0.13669509 -0.34492615 -0.19362919 -0.4590575 -0.46562362 -0.2662102 -0.14160633 -0.107746534
-0.10938094 0.106144026 0.21343641 0.093420684 0.14973898 -0.18507476 -0.13051131 -0.03227185
0.74683654 -0.3261195 0.19444984 0.7410643 -0.1871804 0.48468262 0.2345428 -0.09965361

lstm.bias_hh_l0 f4 [32]
00000000: 5888 7b3f 5c5f 1e3e 539b d93d 13a4 603e
00000010: 4828 97be 18bc 903e 5adc 3bbe 8b15 39be
00000020: 0b55 34be 3163 cabe 4087 18be 421b ccbe
00000030: 7170 c3be 634e 92bd af35 ae3e d56a 953e
00000040: d8f3 d43d 54cb ccbd dd97 92be ce60 0abd
00000050: c905 1fbe f0fe 4d3e 7598 3c3e fa9e 28bd
00000060: 7dd2 1b3f c02b c6be e9b3 013f 3849 803e
00000070: 1346 7b3e 1add bb3e ee21 5f3e d58d 41be
0.9825492 0.15466064 0.10625329 0.2193759 -0.2952292 0.28268504 -0.18345776 -0.18074624
-0.17610566 -0.39528802 -0.14895344 -0.39864546 -0.38171723 -0.07143857 0.34025332 0.2918307
0.10398072 -0.09999719 -0.28631487 -0.033783726 -0.1552955 0.20116782 0.18417533 -0.041167237
0.60868055 -0.38705254 0.50665146 0.2505586 0.2453845 0.36692125 0.21790287 -0.18901761

lstm.weight_ih_l1 f4 [32, 8]
00000000: ca47 9cbf a708 3d3e eae5 72bf 83c1 08bf
00000010: 648f bebe b9c3 ca3f c617 80be ef94 2bbf
00000020: 23d0 cbbf 0eb7 893e 53ac e0bf f0d9 25bf
00000030: 4d7a 87be 8002 803f 8341 dabd 470b 36bf
00000040: 5208 803d 6618 b13e 2de8 4f3d 6147 2c3f
00000050: 5ee3 fdbd dfd4 7c3e 91d9 1a3e 37a8 ba3e
00000060: 31e4 4c3e 9912 1b3f b5ab c6be b728 f13f
00000070: 689f 493f 9448 093f 229f 39be 83be 4a3e
00000080: 1e34 4ebf 1797 733e 4e10 3438 e476 363d
00000090: da3d 3b3e 311d fd3e d29d 173e 915e aabe
000000a0: 1b72 213f 5097 9f3e d5b5 a9bf af9e 913f
000000b0: b6cf 223f 2707 ec3e 2e55 dc3d b550 03bf
000000c0: 3195 5e3f a51c 463d 3458 ac3f dd32 bbbf
000000d0: 5f77 44be d78b 21bf cd92 09be 2f97 d63e
000000e0: dfdf 29bf 77c9 53bd 021f a2bf 765f 98be
000000f0: 20fd 283e 761b 1f3f 8994 4dbd a434 e9be
00000100: 38e9 5cbf a3fe 7e3d c0e7 2cbf 61de 0ebf
00000110: a568 6fbe 29d5 4b3f ee85 26be bab5 963d
00000120: 1383 bcbf 5b18 463c a20c 5ebe 6200 b33e
00000130: bee0 1fbf 812c a93e 860f bebe e000 343e
00000140: a15c ce3d 7131 013e 40fa 933e 1b8d fe3e
00000150: 74c2 09bf 451b ecbd 77f4 8e3e d32e 313d
00000160: f070 02bf 1a24 36be 3bf1 1ebd 1948 adbd
00000170: 4b53 26bf 759d b93e a2b0 06bf 890e b53e
00000180: dd2a 0fbf 6793 d8be b0ed a53b bdf1 6abc
00000190: a588 7e3e 6a2d d33c 2594 84be e4a5 bebd
000001a0: 97a8 04bf 099f 83be d1ba 2dbd 9dee a43f
000001b0: 785d 74bf d984 423f da40 c4be eda5 a6bd
000001c0: 3db5 8c3e f0bb 193f 2210 333f 9ae3 98bf
000001d0: 12f7 7cbf d5f3 79be 7e45 0b3e 5a96 e8be
000001e0: dc53 88bf 2d30 f3be aa1f 6dbe baae 703c
000001f0: da6e d2be b319 683f 252f b73b 955e ffbe
00000200: 91c4 24bf b178 4c3e e910 01bf d121 1ebf
00000210: 2ddb 2cbe fdaf a63e 6515 4abe 0ff3 d2be
00000220: 4281 0f3f c180 8c3e cdf7 103f 5fc8 153e
00000230: 018f 2e3d 0704 fdbe c0db 6b3d 5efd 043f
00000240: 14d5 9f3e fd48 e63d f7aa 0e3f 9859 233f
00000250: 16a5 a03e 9c1f cdbe 28f0 33be 59c5 8d3e
00000260: 481c 8ebe b125 ffbe c12d 84bd 30c3 80bf
00000270: 1a83 37bf 8e38 4f3e e327 96bd 7971 86bd
00000280: bf17 c93e 8dde 8fbd a4cf 273e 3e91 9a3e
00000290: 9d62 283e e0f2 64be c9d0 8a3e b161 b43e
000002a0: 82bb 2cbf fce1 40be a8b4 14bf e971 19bf
000002b0: 8296 50be 8bec 983d 63b6 46bd 291e 54be
000002c0: aa8a c5be 67b8 243d daa6 2bbe 1f25 5d3e
000002d0: 8d7c 1a3e c0f0 483e 2845 b83b 81f9 99be
000002e0: 28e1 d9be cf69 b33d 1f41 f1be b2d3 e3be
000002f0: e3b2 cabe f61e b13e e7f5 cfbe baa8 e3bc
00000300: c44b 0ec0 261d a7be a37c d3bf 7293 aabf
00000310: 8924 4cbe bda4 b13f 050c 92be 6cea c7be
00000320: f642 fabf f71b 86bd 95bc ffbf 6891 f8bd
00000330: e71d 05bf bef4 9a3f e5e7 dabb a345 49bf
00000340: 91e6 c53e 836a e43e 6001 ba3e b01c 5c3f
00000350: 1590 433d 09ec 73be 3189 273c 51d5 1a3f
00000360: ec37 cc3e d058 2b3f 5eef 09bf be1b db3f
00000370: d7a8 823f 56f4 453e 2372 89bd deb1 d33d
00000380: 2732 89bf d39a 8c3d a15e f4be 993a bebe
00000390: e781 86bd bde8 f23e c37f 39be 1c7d 5dbe
000003a0: 86c5 5a3f bc30 1d3f 6551 71bf 8ee2 dc3f
000003b0: 906b 853e 3955 833f f23e 053f fa5d 04be
000003c0: d167 533f ca2e 073e 7036 a13f 1be0 95bf
000003d0: 0648 59be ba79 1fbf 12bf d5be 1be8 5d3d
000003e0: 8776 99bf f35b 6cbe 4464 f7bf e8e0 94be
000003f0: 397e 66be 11e3 7c3f 4e78 9cbe bdad 51bf
-1.2209408 0.18460332 -0.9488207 -0.53420275 -0.37218773 1.584098 -0.25018138 -0.6702413
-1.5922893 0.26897472 -1.7552589 -0.6478567 -0.26460496 1.0000763 -0.106570266 -0.7111096
0.06251587 0.34588927 0.05075853 0.67296416 -0.123968825 0.24690579 0.15122057 0.36456463
0.20008923 0.6057525 -0.38802877 1.884055 0.7875886 0.5362637 -0.1812711 0.19799237
-0.80548275 0.23788105 4.293053e-05 0.044546977 0.18285313 0.49436334 0.14806297 -0.33275273
0.63064736 0.3117013 -1.3258616 1.1376551 0.6359819 0.46099207 0.10758434 -0.51295024
0.869464 0.04836716 1.3464417 -1.4624897 -0.19186161 -0.63104004 -0.13434906 0.4191222
-0.66357225 -0.051705804 -1.2665713 -0.2976033 0.1650281 0.6215128 -0.050190482 -0.45547974
-0.86293364 0.06225456 -0.6754112 -0.55808073 -0.23379762 0.7962213 -0.16262028 0.0735888
-1.4727501 0.012090768 -0.21684507 0.3496123 -0.62452304 0.33041766 -0.37121218 0.17578459
0.10076261 0.12616517 0.28901863 0.4971703 -0.53812337 -0.11528639 0.27920887 0.043257546
-0.5095358 -0.17787209 -0.038804274 -0.08461017 -0.64970845 0.36252943 -0.5261327 0.35362652
-0.5592478 -0.4229996 0.005063735 -0.014339861 0.24856813 0.025778491 -0.25894275 -0.09308985
-0.5181975 -0.25707272 -0.04241449 1.2885319 -0.9545512 0.7598396 -0.38330728 -0.081371166
0.27482024 0.60052395 0.6994649 -1.1944458 -0.988145 -0.24409421 0.13600728 -0.4542721
-1.0650592 -0.47497693 -0.2315661 0.014690096 -0.41100198 0.90664214 0.005590337 -0.49876848
-0.64362437 0.19967915 -0.5041643 -0.6177035 -0.16880484 0.32556143 -0.19734724 -0.41201064
0.56056607 0.2744198 0.56628114 0.14627217 0.042616848 -0.49417135 0.057582617 0.5194911
0.31217253 0.1124439 0.5572962 0.63808584 0.3137595 -0.4006318 -0.17572081 0.27689627
-0.27755952 -0.49833444 -0.06454039 -1.0059566 -0.7168442 0.20236418 -0.073318265 -0.06564612
0.3927593 -0.0702487 0.16387802 0.30188936 0.16443868 -0.22358274 0.27112415 0.35230783
-0.67473614 -0.18836206 -0.5808816 -0.5993944 -0.20369914 0.07466992 -0.04851378 -0.2071463
-0.38582355 0.040214922 -0.16762868 0.21596192 0.15086575 0.19623089 0.0056234784 -0.3007317
-0.42554593 0.08760416 -0.47119996 -0.44497448 -0.39589605 0.34593934 -0.40617296 -0.027790416
-2.2233744 -0.32639426 -1.6522411 -1.3326247 -0.19935812 1.3878399 -0.28524795 -0.39046037
-1.9551685 -0.065483026 -1.9979426 -0.12137109 -0.5199875 1.2105939 -0.006680476 -0.7862188
0.3865247 0.44612512 0.36329174 0.85981274 0.04774483 -0.23820509 0.01022558 0.60481745
0.39886415 0.6693239 -0.5388087 1.7117841 1.0207776 0.19331488 -0.06711223 0.1033666
-1.071843 0.06865468 -0.47728446 -0.3715408 -0.06567746 0.4744319 -0.18115143 -0.21629757
0.85457647 0.6140249 -0.94264823 1.7256639 0.26058626 1.0260383 0.5204917 -0.12926474
0.82580286 0.13201442 1.2594738 -1.1709017 -0.21218881 -0.62295115 -0.41747338 0.05417643
-1.1989297 -0.23081951 -1.9327474 -0.2907784 -0.22509088 0.98783976 -0.30560535 -0.8190573

lstm.weight_hh_l1 f4 [32, 8]
00000000: 45b0 da3c 0bda 093c 2677 07be e328 723e
00000010: 1006 683e a8e8 aa3e ba43 e5bd f7f7 273e
00000020: d854 2c3e a492 b8bd d8fe 4dbe 6562 853f
00000030: 99ac c73d 2c98 d83e e66e c1be 4109 6d3f
00000040: 0a2d 76be 10fe e6be fa7f 29bf 71f1 763f
00000050: 6238 c93e f6f4 4b3f 37b3 06be df6b 173f
00000060: be38 0c3f bec7 9abf c927 25be f8c6 c83e
00000070: d1b5 0abf 7d4b 953f 1da6 f93d 4f03 b93f
00000080: 3b45 dabc 025e 6a3e 03d5 01be 626b 50bc
00000090: 34e3 383d 6606 183e ce95 df3d d2b9 e2bd
000000a0: 4271 51bd 7908 cbbe 8a51 c7bd 8508 ce3f
000000b0: 838d e9bd 5d85 3d3f b28c 37be 8f08 a83f
000000c0: 3678 61bf a156 773f d0e6 143e 394d 55bf
000000d0: 3927 9b3e 4131 7fbf 0d2c 24be cc9b 98bf
000000e0: 4678 973e 02dc 95be 9b33 e5be b2e2 803e
000000f0: b5e2 84bd c96a e03e df38 ebbe a000 093e
00000100: 4d52 86be 3999 123f 8313 d2be 3caa 4ebd
00000110: d87d e93e 6ee9 8b3e 705a 293e 8264 dfbe
00000120: 850d bcbe d98f cc3e f56a d6be e077 123f
00000130: d816 533d ff6e 1b3f eaf5 ad3d 79e7 0b3d
00000140: 0188 ebbe 95bb e3bd 65c9 723d 958a 3d3f
00000150: be74 643e f689 913e 1786 1c3e 8a5f b5bd
00000160: e319 60be 712f 9bbe 851f cbbc a8e0 5a3e
00000170: 528a b53e 9f27 e13e 5b80 233e e61e b63e
00000180: e7e6 9ebd c3f7 943d f323 053e 1d23 c4be
00000190: e555 323e 7e74 db3d 49f9 3e3e 9153 11bd
000001a0: 270b 263e b0d6 5fbe ba87 c8be 88d0 b43f
000001b0: 1790 0d3f 2a86 1d3f ee5e a53e 751d 3c3e
000001c0: 3a4d 31be b671 6d3f 93de c33e 8356 6d3f
000001d0: d361 013f f165 9cbe 24f3 d6be 43be f2be
000001e0: 96f3 7ebd b061 093f 40dd 04bf 50e5 7f3f
000001f0: 11fd 813e 01df 1a3e 1a8c 9fbe 4142 af3e
00000200: 82e3 a9be 1669 d83e e090 20be 587b 5abd
00000210: 5286 783e 57c0 bebe 2e74 743e d1d2 86be
00000220: dd6c 9d3e 0d3e f8be 23ea b7be f130 153e
00000230: cea8 e43d 7f06 d93e f9b9 c63e 706d 403e
00000240: dc3c 76be 4d0f 83be 7a48 b9bd 9285 0f3f
00000250: 8e2f f13e a645 9a3e 49bd a5be 3b75 e33e
00000260: 39a0 01bf 1ecf 1f3f cd60 86be d053 fbbe
00000270: 29de 873e b208 3bbe 47a8 c0be b353 eabc
00000280: 6094 28bd f251 b63d d4ed 833d f09a 413e
00000290: 6e67 243e 1bce f33e da6f 4cbe 72ba 423d
000002a0: ed97 9dbe 6260 b03e 9eca 4f3e 59dc b5be
000002b0: 5336 a03e 4297 7fbe b473 98be b1fd b6be
000002c0: 2608 243e d0fc 33bf 1c8f d3be 7d48 c23e
000002d0: 554f f3be d749 633e 9865 24be 9335 033f
000002e0: e6cc b3be 9df8 e43e 20a3 d53e 6338 cfbe
000002f0: 1b0a 8c3e 4c62 21bf 51f6 f6be 2258 c4be
00000300: 1604 01bf 1edd dfbd 6f2f 97be db33 b0bd
00000310: 1b62 21bd 35e2 d73d c23f 823e 6df4 a33e
00000320: 75ef 5dbe 49df d5bb b46f cebe 2344 7f3f
00000330: 485b bdbc 7ef8 5e3f 8f64 7dbe 664d cb3e
00000340: 1a89 d13d 649b 1abe d034 9fbe 241d b03e
00000350: dc37 803e 3346 c43e 0e54 2e3e e9e7 ff3c
00000360: b7fb f53e 82f8 8cbf e78a 44bf 334d 533f
00000370: f3f9 3abf 220a c33f 5d80 433d efa0 843f
00000380: 748b 8cbe a2ad 1a3e ecdf 64be 8bd4 99bd
00000390: 9fa3 b53d af73 33bd 7f24 013e d78e 2abc
000003a0: fc0f 113e aadf c7be 6b6f 08be 0ec5 a53f
000003b0: c9ce 693d c5c5 113f 72bb 24bf 9773 463f
000003c0: 2a99 11bf e7ea 523f 4533 6b3e 06fe 8cbf
000003d0: 358b 373f 3c53 a5bf a2f9 f1bd 7789 78bf
000003e0: e55a 29bd 8806 a6bc d3ca 8b3d 82d5 4d3f
000003f0: a5b6 243e a83d 583f 9251 24be c569 e23e
0.02669538 0.008413802 -0.13229045 0.2364841 0.22658563 0.33380628 -0.111945584 0.16403185
0.1682924 -0.090123445 -0.20116746 1.0420653 0.09749717 0.42303598 -0.3777992 0.92592245
-0.24040619 -0.4511571 -0.662109 0.9646216 0.3930083 0.79670656 -0.13154303 0.59148973
0.5477408 -1.2092206 -0.16128458 0.392143 -0.5418368 1.1663662 0.12189887 1.4454135
-0.02664434 0.22887424 -0.12678914 -0.012720915 0.045138553 0.14846191 0.10917245 -0.11070599
-0.0511334 -0.39654902 -0.09732349 1.609635 -0.11403944 0.7403162 -0.17924765 1.3127612
-0.8807405 0.9661656 0.14541173 -0.8332096 0.30303362 -0.9968453 -0.16032429 -1.1922545
0.2958395 -0.29269415 -0.44765934 0.25172955 -0.064885534 0.4383147 -0.45941827 0.13379145
-0.26234666 0.5726505 -0.4103051 -0.050455317 0.45603824 0.2732653 0.16538405 -0.4363137
-0.36729065 0.39953497 -0.41878477 0.57214165 0.051535457 0.6071624 0.0849417 0.034156296
-0.460022 -0.11119763 0.059274096 0.74039584 0.22310159 0.28425568 0.15285526 -0.08856113
-0.21884875 -0.30309632 -0.024795303 0.21374762 0.35457093 0.4397554 0.15966932 0.3557045
-0.07758885 0.07273819 0.13001995 -0.3830804 0.17415579 0.107155785 0.18649782 -0.035480086
0.16215192 -0.2185924 -0.3916605 1.4126139 0.5529799 0.61532843 0.32298988 0.18370612
-0.17314616 0.92751634 0.38255748 0.9271013 0.5053989 -0.30546525 -0.41982377 -0.47410783
-0.06224402 0.53664684 -0.519001 0.9995928 0.25388387 0.15124132 -0.31161577 0.34230235
-0.33181387 0.42267674 -0.15680265 -0.053340286 0.24269989 -0.3725612 0.23872444 -0.26332715
0.3074712 -0.4848484 -0.3592082 0.14569451 0.111650094 0.4238777 0.3881376 0.18791747
-0.24046654 -0.2559761 -0.09047027 0.5606319 0.47106594 0.30131263 -0.32370976 0.44425377
-0.50635105 0.6242541 -0.26245728 -0.4908738 0.26536682 -0.18265036 -0.37628385 -0.028604364
-0.041157126 0.089023486 0.064418465 0.1890676 0.1605508 0.47618183 -0.19964543 0.04754109
-0.30779973 0.34448534 0.20292136 -0.35519674 0.31291446 -0.24960044 -0.29775774 -0.35740426
0.16018733 -0.70307636 -0.4132012 0.3794593 -0.47521463 0.22196136 -0.1605438 0.5125362
-0.35117263 0.44720927 0.41726017 -0.40472707 0.2735146 -0.63040614 -0.482348 -0.3834849
-0.5039686 -0.10930847 -0.29528376 -0.08603641 -0.0394002 0.105411924 0.25439268 0.3202242
-0.21673377 -0.006526862 -0.40319598 0.99713343 -0.023114815 0.8709792 -0.24745391 0.39707488
0.10231228 -0.1509834 -0.3109498 0.34397233 0.25042617 0.38334808 0.17024252 0.031238513
0.48043606 -1.1013339 -0.7677445 0.8253967 -0.7303764 1.5237467 0.04772984 1.0361613
-0.27450144 0.15105298 -0.22351044 -0.075112425 0.08869099 -0.043811496 0.12611578 -0.010410032
0.14166254 -0.3903783 -0.13323753 1.2950761 0.05708197 0.569424 -0.6434852 0.77520126
-0.56874335 0.8238968 0.22968777 -1.1015022 0.7169679 -1.2916026 -0.11815192 -0.97084755
-0.04134645 -0.020266786 0.06825795 0.8040391 0.16085298 0.8446908 -0.16046742 0.4422132

lstm.bias_ih_l1 f4 [32]
00000000: bade 95be 98fe 593d d923 c8be 2a29 b93e
00000010: 2517 ffbc abcf 323d a28c e9be f7f1 96be
00000020: 7ee6 803d e4d9 0e3c 52a9 b2be 6e03 edbe
00000030: f069 12be b23f d4be 6e1a 8ebe ece3 1ebe
00000040: 52ee 913b 1bed 953d 8e70 64bd 9f57 783d
00000050: 3a0b 09be c79f 38be caea 9a3d 4227 43be
00000060: 16ac afbe a2e3 433d 0f7e 2c3d bbc7 bf3e
00000070: 75bc bdbe dcbf 7a3e ce07 19be e1d8 563e
-0.2927149 0.053221315 -0.3908985 0.36164218 -0.031138966 0.04365508 -0.45615107 -0.2948148
0.06293963 0.008718941 -0.34894806 -0.4629168 -0.14298224 -0.41454846 -0.2775454 -0.15516633
0.004453459 0.07320615 -0.055771403 0.060630437 -0.13383189 -0.180297 0.07564314 -0.19057944
-0.3431098 0.04782451 0.042112406 0.3745707 -0.37057844 0.24487251 -0.14944384 0.2098117

lstm.bias_hh_l1 f4 [32]
00000000: d148 9ebe 2709 61be 77c7 28be b17e 19be
00000010: b529 d8bc 13f4 103e 7d09 92be 88c6 b03e
00000020: fa6e d0bd 267e d6be 4bf7 09bf 3711 35bf
00000030: 342e 7dbe 4934 13bf e667 8cbe 6713 dbbe
00000040: 2ff8 583d 7d8a adbd 4161 8e3d 65c0 5a3c
00000050: 29f9 cdbc 1fc7 723e 7121 c9bd b925 763e
00000060: ae04 82bd f43b ad3d 159a 2abe 8b95 59be
00000070: 30fe 373e 6e07 843e 4e9c 4dbe 1e1f abbe
-0.3091493 -0.21976148 -0.1648234 -0.14989735 -0.026387075 0.14155607 -0.28522864 0.34526467
-0.10177417 -0.4189312 -0.53892964 -0.7072939 -0.24724656 -0.57501656 -0.27423018 -0.4278824
0.05297106 -0.0847368 0.069521435 0.0133515345 -0.025143223 0.23708771 -0.098208316 0.24037828
-0.06348549 0.08458701 -0.1666034 -0.21248452 0.17968059 0.25786918 -0.20079157 -0.33422178

fc.weight f4 [1, 8]
00000000: fafe d9bd bbe7 a03e e0a5 673d 3924 76bd
00000010: 9aea f53d ffd7 80be 896d c9bc 31ae f2bd
-0.10644336 0.31426796 0.056554675 -0.06009314 0.12007637 -0.25164792 -0.024588363 -0.118496306
