models/Thoothukudi_model.pth (torch, 6170 bytes, 9 tensors)

lstm.weight_ih_l0 f4 [32, 1]
0.9446609 1.8735572 2.3379948 1.3642331 0.9466735 -1.8767861 1.1455375 0.98348314
1.7153618 1.6831168 1.7640513 1.8278699 1.316622 -2.4736297 1.2723707 1.2405231
2.620545 2.6290603 -3.96225 -3.2300327 -2.5776205 -3.296855 -1.656349 1.8821636
1.3369464 2.0511978 2.1699083 1.9446651 1.1642026 -3.1014388 1.7660396 1.4738698
00000000: 4cd5 713f b9d0 ef3f b5a1 1540 319f ae3f
00000010: 3259 723f 873a f0bf f9a0 923f 8dc5 7b3f
00000020: fa90 db3f 5f70 d73f 6fcc e13f a4f7 e93f
00000030: 1287 a83f f34f 1ec0 0bdd a23f 76c9 9e3f
00000040: 02b7 2740 8642 2840 8195 7dc0 dbb8 4ec0
00000050: bcf7 24c0 acff 52c0 3e03 d4bf bdea f03f
00000060: 0f21 ab3f d346 0340 c7df 0a40 c9ea f83f
00000070: 9704 953f f97d 46c0 960d e23f c4a7 bc3f

lstm.weight_hh_l0 f4 [32, 8]
-0.021500686 0.0012669262 -0.12511317 -0.16856211 0.042345237 0.22294606 0.099782966 0.2634166
0.30300742 0.27915457 0.001561643 0.056311823 0.20321393 -0.22869763 -0.04443895 -0.25206983
0.93971854 0.78457797 -0.7263932 -0.7123116 -0.6139551 0.9066047 -0.6025051 0.7912805
0.27439085 -0.074009165 -0.026494116 -0.3799089 0.17769398 0.38224143 -0.4393153 0.3367048
-0.11945982 -0.18727705 0.131904 -0.013193047 -0.01292617 0.09177631 0.22654463 0.21979265
0.6638602 0.85835725 -0.26525536 -0.9086738 -0.8955267 0.3162099 -0.7111355 0.50152314
0.3738249 -0.15727846 0.19279093 -0.07700933 0.32704112 0.52329165 0.15649395 0.0455666
0.2788516 -0.22006835 0.08598435 0.32994163 0.246951 0.31470507 0.1591307 0.1842027
0.09838083 0.11413788 0.13479102 0.28119916 0.12800804 0.37628347 0.25526097 -0.032309983
0.16558468 -0.052379813 0.06314824 0.37886462 -0.017028172 0.33013806 0.24588811 -0.27316025
-0.061411835 -0.13132554 0.09457923 0.3405571 0.265493 0.19718315 0.58133656 0.029851604
-0.37599817 -0.35340768 0.18630947 0.2387005 -0.15989941 0.08780207 0.4209703 0.21746537
0.16059269 -0.15474164 0.51895714 -0.051189665 0.46301642 0.15575717 0.47748852 -0.2619724
-0.15229331 0.36144355 -0.45539615 -0.55081356 -0.21320257 -0.46603334 0.10123971 0.34618706
-0.5106429 -0.45326257 0.16885161 0.53853744 0.40437195 0.46156186 0.3227238 -0.06625617
-0.34619445 -0.09686023 0.34863177 0.3537425 0.028637432 0.35599852 0.32577455 0.051890705
0.22468269 0.28121015 -0.31891763 -0.13255118 -0.101068504 -0.2236799 0.34626004 -0.32468048
0.37261596 0.005835068 0.20259885 -0.07869908 -0.19545534 -0.048843145 -0.248502 0.2511748
0.12763298 0.2954822 0.13691373 -0.16439652 0.07975255 -0.27904943 -0.26122674 -0.054060683
0.18496504 -0.2669203 -0.12556984 -0.15192835 0.06615251 0.2868544 0.041943736 -0.16342704
0.18218365 0.31870636 0.09468082 0.0005548489 0.096953645 -0.009472552 -0.22414091 0.27608582
0.1869332 0.11863538 -0.068062656 0.0066020894 -0.080842406 -0.40497136 0.5724759 -0.30119812
0.44976085 0.22955988 -0.40029642 -0.58566713 0.0015000872 -0.2746216 -0.18320778 0.19507287
-0.29210505 0.1308915 0.0050042626 0.15118274 0.062247973 0.4263232 0.1328166 -0.25181293
0.019978799 -0.050500486 0.24871334 0.16117527 -0.056564495 -0.06322621 0.42729515 -0.2600059
0.21125631 -0.14234743 0.29398 -0.26917517 -0.017932972 0.35983124 0.40357864 -0.21314016
0.7527664 0.72038734 -0.21251282 -0.42178285 -0.2943228 0.8616229 -0.06784811 0.64002734
-0.003255188 -0.042394497 0.27042967 -0.17408282 -0.11089136 0.0275112 0.006702945 -0.21827497
-0.0944983 -0.023418711 0.31775656 0.10250831 -0.23807596 0.120011896 -0.04562088 0.14744744
0.33042926 0.3415895 -0.029189073 -0.4403393 -0.72942704 0.52676034 -0.48244393 0.87593985
-0.33313248 -0.09739937 0.2141286 0.015491968 0.575445 0.9789464 0.15270013 -0.0019921465
0.10430762 -0.2796474 -0.12486922 0.031990673 0.3262085 0.07636421 -0.03483433 -0.2061299
00000000: 3522 b0bc fd0e a63a ab1d 00be 8c9b 2cbe
00000010: 3372 2d3d f94b 643e 035b cc3d 8ade 863e
00000020: ca23 9b3e 59ed 8e3e 0bb0 cc3a 3aa7 663d
00000030: 5017 503e b62f 6abe 9e05 36bd 4c0f 81be
00000040: 6591 703f 1ada 483f e8f4 39bf 0e5a 36bf
00000050: 292c 1dbf 3f17 683f c63d 1abf 5c91 4a3f
00000060: f57c 8c3e 1e92 97bd 300a d9bc 6b83 c2be
00000070: 69f5 353e 26b5 c33e efed e0be 9264 ac3e
00000080: 5aa7 f4bd 8ec5 3fbe d811 073e a627 58bc
00000090: 49c8 53bc 38f5 bb3d 51fb 673e 5311 613e
000000a0: bef2 293f 4dbd 5b3f 8dcf 87be d99e 68bf
000000b0: 3d41 65bf 44e6 a13e fa0c 36bf d263 003f
000000c0: fa65 bf3e 9b0d 21be fc6a 453e 11b7 9dbd
000000d0: ef71 a73e 71f6 053f f33f 203e 0ba4 3a3d
000000e0: a3c5 8e3e 9959 61be 9018 b03d 1cee a83e
000000f0: b9e0 7c3e 0621 a13e 29f3 223e a29f 3c3e
00000100: e37b c93d 1fc1 e93d a806 0a3e 56f9 8f3e
00000110: 8a14 033e 3aa8 c03e 91b1 823e 7957 04bd
00000120: 088f 293e 378c 56bd dd53 813d 8bfa c13e
00000130: aa7e 8bbc db07 a93e 18ca 7b3e a9db 8bbe
00000140: fa8a 7bbd 347a 06be c1b2 c13d 805d ae3e
00000150: b3ee 873e 61ea 493e 79d2 143f 5a8b f43c
00000160: d582 c0be daf1 b4be e9c7 3e3e e76d 743e
00000170: acbc 23be 92d1 b33d 6b89 d73e 3eaf 5e3e
00000180: 6972 243e 9874 1ebe 60da 043f 41ac 51bd
00000190: 7d10 ed3e cf7e 1f3e 6079 f43e 3f21 86be
000001a0: c7f2 1bbe 210f b93e af29 e9be 1e02 0dbf
000001b0: c651 5abe ec9b eebe c456 cf3d 6e3f b13e
000001c0: 7eb9 02bf 0812 e8be 70e7 2c3e 97dd 093f
000001d0: d709 cf3e d651 ec3e 0e3c a53e 51b1 87bd
000001e0: 6640 b1be a85e c6bd dd7f b23e bd1d b53e
000001f0: 0c99 ea3c 7045 b63e eccb a63e 598b 543d
00000200: 3813 663e c7fa 8f3e 2c49 a3be 7fbb 07be
00000210: 01fd cebd 580c 65be ff48 b13e 853c a6be
00000220: 85c7 be3e 1934 bf3b 1376 4f3e fc2c a1bd
00000230: 7225 48be c00f 48bd 4f77 7ebe fc99 803e
00000240: 38b2 023e 7149 973e 1d33 0c3e 9057 28be
00000250: 4e55 a33d 91df 8ebe 83bf 85be bc6e 5dbd
00000260: 7a67 3d3e c7a9 88be 6195 00be 1b93 1bbe
00000270: f87a 873d 94de 923e 32cd 2b3d 6b59 27be
00000280: 5a8e 3a3e 7b2d a33e 05e8 c13d 4873 113a
00000290: a28f c63d c332 1bbc 3285 65be 1f5b 8d3e
000002a0: 6b6b 3f3e 1bf7 f23d 6f64 8bbd 5756 d83b
000002b0: b490 a5bd 6858 cfbe c88d 123f a436 9abe
000002c0: 0e47 e63e bf11 6b3e a7f3 ccbe 48ee 15bf
000002d0: 939e c43a 349b 8cbe d29a 3bbe 2fc1 473e
000002e0: cb8e 95be 6c08 063e ccfa a33b a6cf 1a3e
000002f0: bbf7 7e3d 0947 da3e 1301 083e a0ed 80be
00000300: 94aa a33c 99d9 4ebd b6ae 7e3e 210b 253e
00000310: 2cb0 67bd be7c 81bd 6ec6 da3e 7e1f 85be
00000320: 9353 583e 86c3 11be 8c84 963e 54d1 89be
00000330: 2be8 92bc cd3b b83e dca1 ce3e 6a41 5abe
00000340: 4cb5 403f 4e6b 383f f69c 59be ecf3 d7be
00000350: 7ab1 96be 5293 5c3f f3f3 8abd d5d8 233f
00000360: fe54 55bb daa5 2dbd c275 8a3e c442 32be
00000370: 021b e3bd 2b5f e13c 61a4 db3b 7983 5fbe
00000380: 5388 c1bd 99d8 bfbc fdb0 a23e e0ef d13d
00000390: 2fca 73be ccc8 f53d f6dc 3abd 76fc 163e
000003a0: 062e a93e d2e4 ae3e ec1d efbc 2774 e1be
000003b0: bbbb 3abf c4d9 063f e402 f7be 983d 603f
000003c0: 5790 aabe 5279 c7bd 8744 5b3e 06d2 7d3c
000003d0: 5d50 133f 3b9c 7a3f 6c5d 1c3e ac8e 02bb
000003e0: 3c9f d53d f22d 8fbe 6fbb ffbd a708 033d
000003f0: cd04 a73e d764 9c3d 71ae 0ebd b713 53be

lstm.bias_ih_l0 f4 [32]
0.027711714 0.22268625 0.5687964 -0.061063588 -0.08007423 0.7175014 0.23138951 -0.0462847
-0.19708496 -0.15930887 -0.1346741 0.2353883 -0.35356542 0.034492258 0.11112518 -0.03316986
0.026420474 -0.13065591 -0.025787806 -0.13588685 -0.21348387 0.05475945 -0.26449752 0.30199394
0.08072202 0.32966802 0.8278917 0.46867052 -0.0028369462 0.9269861 0.2568859 -0.29830456
00000000: ad03 e33c dd07 643e a49c 113f d01d 7abd
00000010: f5fd a3bd 2cae 373f 5ff1 6c3e 0795 3dbd
00000020: a4d0 49be dd21 23be 02e8 09be a109 713e
00000030: 8706 b5be c147 0d3d 9995 e33d 1edd 07bd
00000040: c06f d83c aaca 05be f340 d3bc ec25 0bbe
00000050: 849b 5abe 724b 603d 386c 87be f39e 9a3e
00000060: 9651 a53d 3fca a83e b6f0 533f 95f5 ef3e
00000070: 0fec 39bb f64e 6d3f 8c86 833e 60bb 98be

lstm.bias_hh_l0 f4 [32]
-0.18713734 0.24014185 0.40739056 0.49832153 -0.15482132 0.4500082 0.4065031 -0.013457851
0.10080531 0.3392586 -0.21031055 -0.29047382 -0.019266943 -0.01523015 -0.21018738 0.1885774
0.27447575 0.27342746 -0.20552994 0.018253412 -0.0952161 -0.010224332 -0.21088593 0.10791978
-0.027357737 0.29411557 0.6012739 0.14882994 -0.036618985 0.3868864 0.13467404 -0.0900072
00000000: eea0 3fbe bfe7 753e 7f95 d03e 0024 ff3e
00000010: 7b89 1ebe 7a67 e63e 2d21 d03e 517e 5cbc
00000020: 0473 ce3d 4eb3 ad3e a65b 57be fcb8 94be
00000030: b5d5 9dbc e187 79bc 5c3b 57be 6f1a 413e
00000040: 1688 8c3e affe 8b3e 7176 52be 2e88 953c
00000050: a900 c3bd f583 27bc 7bf2 57be 0c05 dd3d
00000060: 551d e0bc 5196 963e 16ed 193f e066 183e
00000070: cafd 15bd f915 c63e fee7 093e b255 b8bd

lstm.weight_ih_l1 f4 [32, 8]
0.2516987 0.33764803 0.087168545 0.21917646 -0.20898499 -0.50337297 0.02918748 -0.35802007
0.26706037 0.20617671 0.30029926 -0.13378087 0.20383513 1.7829279 -0.32375228 0.47201878
-0.12697318 -0.3240004 0.33483195 0.1517226 0.34937486 -0.27427536 -0.33971107 -0.27281412
-0.06569125 -0.12437222 0.7825346 0.23726964 0.13862038 0.16250132 0.4513309 -0.3321389
0.12618753 -0.1839238 0.10586005 -0.055416137 -0.2753321 -0.030612366 -0.2745692 -0.035293065
0.13389878 -0.0084354095 -0.27797475 -0.34959945 0.1867431 -0.48336747 -0.1724443 -0.26683685
0.039839406 -0.21290468 0.32841915 0.616483 0.56098676 1.0452931 0.08269842 -0.16108733
0.31221884 0.04757937 -0.22104345 -0.052032303 -0.19768873 -0.24280058 -0.05969582 -0.26880234
-0.56405735 -0.53731203 0.5220245 0.04790314 0.19223693 0.59821796 0.5037727 -0.5338138
-0.088281795 -0.4186052 0.7507567 0.5800484 0.8454468 0.26852566 0.61639285 -0.5301319
0.07071633 -0.39374515 0.20624065 0.08613191 0.0025342025 0.113888144 -0.16404861 -0.4383451
-0.04744849 0.086388975 0.1438174 0.15761194 0.16961907 0.015302125 0.040511437 -0.1511894
0.3175062 0.06527857 -0.08222118 0.04293196 -0.06894527 0.095581494 -0.2071144 0.3256079
-0.124197185 -0.072049215 0.053043276 0.4978637 0.441679 0.46302542 0.554593 -0.26763037
-0.42381305 -0.3129744 0.47435507 -0.0053960127 -0.000940473 -0.07346514 0.15611823 -0.25355175
-0.42346513 -0.19703569 0.14116749 -0.25295863 0.16987145 -0.02591007 -0.081532806 0.15850295
0.32884344 -0.14070413 0.018512132 0.04114295 -0.3789219 -0.024348106 -0.042495206 0.44982538
0.33164933 0.48949412 -0.98082125 -0.08659724 -0.35198063 -0.9355022 -0.31067088 -0.03955939
-0.08414381 0.11271808 0.27981433 -0.1836067 -0.36365527 -0.16463873 0.022773365 0.07130852
-0.4178175 -0.014657127 0.18842794 0.11676323 -0.09311231 0.023289258 -0.08662086 -0.31132853
0.1386386 0.4264069 -0.23464407 -0.098648496 0.031716533 -0.06457304 -0.38199168 0.05803611
-0.3786036 -0.23671031 0.09470349 0.084280245 -0.23311801 -0.2239049 0.08257013 0.15183838
-0.083981775 -0.28999248 0.61561453 0.47277477 0.27010357 0.46139643 -0.09800289 -0.201893
0.120452575 0.0863055 -0.6145154 -0.5481849 0.0866898 -0.8296696 -0.3981522 0.026867958
-0.34812325 -0.23941718 -0.20141426 0.028614247 -0.26081276 -0.6117901 0.33384344 0.019583385
0.05476795 0.24558169 0.34083942 0.25596428 0.12408694 1.6206015 -0.32381183 0.020169111
-0.2850466 -0.059856743 -0.152594 0.3864388 0.3352503 0.042793456 0.14586206 -0.01288593
-0.6604471 -0.736677 1.0151248 0.79636234 0.35234973 0.5559892 0.34365332 -0.35236314
-0.12259571 0.13190469 -0.3949914 -0.014709645 -0.41878217 -0.2176741 -0.116534896 0.118217655
0.3924084 0.4031009 -0.04395355 0.13981101 -0.09773666 -0.042538743 -0.05310228 0.3524965
-0.14250551 -0.5762951 0.42146328 0.4312559 0.4931992 1.4318148 0.49204057 -0.14026614
-0.11030759 -0.059313633 -0.8123389 -0.06060503 -0.49782312 -0.4005721 -0.29828182 0.19977623
00000000: a7de 803e 34e0 ac3e 6c85 b23d cb6f 603e
00000010: 2900 56be 0ddd 00bf 951a ef3c 684e b7be
00000020: 23bc 883e fd1f 533e d3c0 993e dafd 08be
00000030: 28ba 503e fb36 e43f dcc2 a5be 72ac f13e
00000040: 4205 02be 61e3 a5be 186f ab3e 2b5d 1b3e
00000050: 43e1 b23e d26d 8cbe 9cee adbe 4bae 8bbe
00000060: 2289 86bd ddb6 febd 3054 483f d0f6 723e
00000070: 80f2 0d3e bf66 263e d814 e73e 1c0e aabe
00000080: 4e37 013e 8556 3cbe 27cd d83d 08fc 62bd
00000090: 54f8 8cbe c9c6 fabc 5694 8cbe 768f 10bd
000000a0: c31c 093e ac34 0abc b552 8ebe b3fe b2be
000000b0: 9539 3f3e f17b f7be 3d95 30be d79e 88be
000000c0: a52e 233d af03 5abe 8e26 a83e d4d1 1d3f
000000d0: d49c 0f3f 2acc 853f ca5d a93d 14f4 24be
000000e0: 26db 9f3e 96e2 423d 3759 62be d31f 55bd
000000f0: ea6e 4abe b7a0 78be 9b83 74bd 76a0 89be
00000100: 1066 10bf 488d 09bf 66a3 053f 1536 443d
00000110: c2d9 443e d024 193f 3ff7 003f 05a8 08bf
00000120: 16cd b4bd 6c53 d6be 9731 403f 0d7e 143f
00000130: 346f 583f 327c 893e eccb 1d3f b9b6 07bf
00000140: b9d3 903d f798 c9be c030 533e ed65 b03d
00000150: dd14 263b 303e e93d 5cfc 27be c56e e0be
00000160: 5959 42bd b4ec b03d de44 133e 0665 213e
00000170: 9fb0 2d3e c4b5 7a3c 52ef 253d 65d1 1abe
00000180: 2c90 a23e c5b0 853d 9463 a8bd 6cd9 2f3d
00000190: 2d33 8dbd 3bc0 c33d cc15 54be 14b6 a63e
000001a0: 185b febd 8a8e 93bd e843 593d fee7 fe3e
000001b0: c023 e23e ab11 ed3e cff9 0d3f d906 89be
000001c0: 06fe d8be 2e3e a0be abde f23e 09d1 b0bb
000001d0: 138a 76ba e474 96bd 75dd 1f3e 89d1 81be
000001e0: 6cd0 d8be b9c3 49be 368e 103e cb83 81be
000001f0: c8f2 2d3e 5b41 d4bc acfa a6bd 994e 223e
00000200: 2b5e a83e be14 10be c1a6 973c 8385 283d
00000210: 0d02 c2be ae75 c7bc 740f 2ebd 834f e63e
00000220: f1cd a93e f99e fa3e 1a17 7bbf e559 b1bd
00000230: ce36 b4be 127d 6fbf 4110 9fbe 0709 22bd
00000240: 9753 acbd bdd8 e63d d343 8f3e 6503 3cbe
00000250: 0631 babe 0e97 28be 358f ba3c 340a 923d
00000260: 2dec d5be 7224 70bc 41f3 403e 8f21 ef3d
00000270: abb1 bebd 1dc9 be3c 4766 b1bd 7466 9fbe
00000280: 47f7 0d3e 0152 da3e 8946 70be 3908 cabd
00000290: 32e9 013d df3e 84bd 6a94 c3be 46b7 6d3d
000002a0: 55d8 c1be 3064 72be e7f3 c13d 1f9b ac3d
000002b0: 7db6 6ebe 5347 65be 871a a93d 857b 1b3e
000002c0: a3fe abbd e579 94be ea98 1d3f 890f f23e
000002d0: 044b 8a3e 273c ec3e bdb5 c8bd 0abd 4ebe
000002e0: d7af f63d f0c0 b03d e250 1dbf d855 0cbf
000002f0: 6c8a b13d 3a65 54bf 9bda cbbe 311a dc3c
00000300: 363d b2be c729 75be 8a3f 4ebe 6d68 ea3c
00000310: 4089 85be 479e 1cbf 87ed aa3e 566d a03c
00000320: 5c54 603d c479 7b3e 8182 ae3e c00d 833e
00000330: 4b21 fe3d df6f cf3f aaca a5be b139 a53c
00000340: a1f1 91be 582c 75bd 9a41 1cbe 4edb c53e
00000350: eda5 ab3e 3148 2f3d dd5c 153e 821f 53bc
00000360: 1013 29bf dd96 3cbf 9cef 813f 67de 4b3f
00000370: 2f67 b43e 4f55 0e3f 54f3 af3e f168 b4be
00000380: 7613 fbbd 0612 073e 503c cabe b900 71bc
00000390: 9e6a d6be f6e5 5ebe d9a9 eebd 191c f23d
000003a0: c1e9 c83e 3e63 ce3e a308 34bd 9e2a 0f3e
000003b0: 282a c8bd 1b3d 2ebd c781 59bd 6c7a b43e
000003c0: f7ec 11be 1388 13bf 09ca d73e 93cd dc3e
000003d0: 9b84 fc3e b545 b73f beec fb3e eda1 0fbe
000003e0: f2e8 e1bd daf2 72bd 71f5 4fbf fb3c 78bd
000003f0: ace2 febe c917 cdbe 65b8 98be 2492 4c3e

lstm.weight_hh_l1 f4 [32, 8]
0.4285457 0.40143493 0.5219315 -0.4535505 0.23790097 -0.08056945 -0.09249007 0.19875716
-0.48164272 -0.9357538 -0.47043264 0.91223615 0.30230865 0.27712592 0.6218369 0.20097774
-0.008846764 -0.03502744 0.17726374 0.15003349 -0.3463335 0.0450226 0.48464745 -0.52083886
0.40356603 -0.1503062 0.07880445 0.20716953 -0.31992424 0.025928907 -0.3308887 -0.0948655
-0.6776687 0.054823346 -0.18677633 0.29113472 -0.043601077 0.728407 0.07428853 -0.0027784172
-0.20465259 -0.73348063 0.049729742 -0.11851967 -0.006005782 -0.0065984325 0.8875274 -0.24392541
-0.0627177 -0.5233365 0.1975612 0.11488635 -0.2840036 0.5865977 -0.30948022 -0.38068607
-0.5625356 -0.4298 0.030567994 0.065616906 -0.19467795 0.34338334 0.6472225 -0.20159487
-0.16563389 -0.21381117 0.40809005 0.16381828 -0.0908829 0.08220883 -0.24141178 -0.15697736
0.22932188 0.1629425 0.36332977 -0.3543535 -0.6286423 -0.06789295 0.29609412 -0.6808941
-0.0033962827 -0.28555366 0.040690795 -0.17527206 -0.23277612 -0.15565187 0.10720175 -0.6019925
-0.09007278 0.2536678 0.05216693 -0.26601833 -0.38926053 -0.022957105 -0.23425236 -0.36527598
-0.45660028 -0.5513483 0.21340233 -0.04422716 -0.23885861 0.16897687 -0.15526676 0.23825456
-0.33501163 -0.9420783 0.04668674 0.22226931 -0.500639 0.006790575 1.0543886 -0.2777142
-0.077851966 -0.1800871 0.18070626 -0.26962903 -0.5820967 0.88001883 -0.33997467 -0.1056946
-0.31034857 -0.8855726 0.42094317 -0.15386888 -0.26430157 0.8166992 0.39544415 -0.571209
-0.22346532 -0.5714651 -0.47068563 0.23513728 -0.049250767 -0.14483388 0.26422524 -0.32227212
0.9063269 -0.47836438 -0.36930138 0.60930103 0.11698493 -0.6932769 0.46723166 -0.0792305
0.117683314 0.09102886 -0.1674589 -0.034477804 -0.1742559 -0.5172351 0.091150336 0.0042784535
-0.02365804 -0.1210841 0.21693735 -0.5195147 0.12580931 -0.4012387 -0.0049864626 -0.0043059164
-0.2041169 -0.34107164 -0.15275589 -0.13217475 0.381956 0.4135752 -0.16253978 0.3540926
0.15395899 0.6445467 -0.081961274 -0.012419456 0.190616 -0.27263272 -0.39427993 0.23709418
0.29881692 -0.10966384 -0.20152712 -0.42606354 0.12657605 -0.15563124 0.00719071 0.30989212
-0.38879883 -0.0525231 0.26910987 -0.3090652 -0.121458605 0.47474238 0.4982255 -0.17772509
0.50225264 0.13055831 -0.084351994 -0.18797901 0.15489803 -0.20631184 0.21973476 -0.2821918
-0.6175786 -1.3014884 -0.63322484 0.542144 -0.048605807 0.17633747 0.7860635 0.16949967
-0.14988795 -0.45730665 0.04965242 -0.28546247 -0.5945196 -0.0639799 0.5615091 -0.31730765
0.03455805 -0.3597155 -0.2863097 0.13123527 -0.42946896 0.3407482 0.1679161 -0.29135442
-0.10111544 -0.16559516 -0.09664588 -0.015461608 -0.40011147 0.01211261 0.21052088 -0.2864547
0.060332693 -0.3366404 0.00228268 0.3722149 -0.28398722 0.434295 0.8413902 0.24193603
-0.037235968 -0.6348035 -0.32944027 0.13897473 -0.14126036 0.66956073 -0.29527313 -0.07657201
-0.4668034 -0.36092252 -0.21680367 0.10585803 0.17538184 0.5515572 0.15662366 -0.080632254
00000000: 586a db3e e188 cd3e 4e9d 053f c537 e8be
00000010: 509c 733e 9901 a5bd 6f6b bdbd ff86 4b3e
00000020: e099 f6be 908d 6fbf 8cdc f0be 4f88 693f
00000030: 33c8 9a3e 73e3 8d3e b430 1f3f 1ccd 4d3e
00000040: 05f2 10bc ef78 0fbd a084 353e 61a2 193e
00000050: a052 b1be 9e69 383d b623 f83e b255 05bf
00000060: 35a0 ce3e dee9 19be 3a64 a13d 4024 543e
00000070: 1ccd a3be dc68 d43c 3e6a a9be d848 c2bd
00000080: b27b 2dbf 728e 603d 4b42 3fbe 9c0f 953e
00000090: 0b97 32bd e278 3a3f 9624 983d 1b16 36bb
000000a0: 7390 51be 63c5 3bbf 6ab1 4b3d 71ba f2bd
000000b0: 27cc c4bb aa37 d8bb ff34 633f 95c7 79be
000000c0: 2372 80bd 62f9 05bf 7c4d 4a3e 8949 eb3d
000000d0: eb68 91be 442b 163f 3174 9ebe 49e9 c2be
000000e0: 5502 10bf bf0e dcbe bb69 fa3c 2862 863d
000000f0: a859 47be f1cf af3e 60b0 253f e36e 4ebe
00000100: ee9b 29be 51f1 5abe 2ef1 d03e fbbf 273e
00000110: d020 babd 1a5d a83d a634 77be acbe 20be
00000120: 5bd3 6a3e 66da 263e 5c06 ba3e d26d b5be
00000130: b4ee 20bf 750b 8bbd a699 973e 134f 2ebf
00000140: 2b94 5ebb 1734 92be 64ab 263d 857a 33be
00000150: dd5c 6ebe 3463 1fbe 978c db3d 2e1c 1abf
00000160: 1478 b8bd bfe0 813e feac 553d 8e33 88be
00000170: 284d c7be 8a10 bcbc dadf 6fbe 7405 bbbe
00000180: 83c7 e9be 2a25 0dbf 2486 5a3e 8a27 35bd
00000190: 5a97 74be 4608 2d3e 40fe 1ebe 01f9 733e
000001a0: a586 abbe 0b2c 71bf 983a 3f3d 919a 633e
000001b0: e129 00bf 7983 de3b 35f6 863f 8e30 8ebe
000001c0: da70 9fbd c168 38be 100b 393e d10c 8abe
000001d0: 4a04 15bf ea48 613f 2911 aebe 6976 d8bd
000001e0: 02e6 9ebe e3b4 62bf dd85 d73e ce8f 1dbe
000001f0: 8952 87be 3313 513f a877 ca3e c13a 12bf
00000200: 18d4 64be 894b 12bf b5fd f0be d4c7 703e
00000210: 2cbb 49bd 554f 14be 8848 873e da00 a5be
00000220: 0a05 683f 2dec f4be 1215 bdbe 27fb 1b3f
00000230: cc95 ef3d 987a 31bf fd38 ef3e 9a43 a2bd
00000240: f303 f13d 576d ba3d 597a 2bbe 9938 0dbd
00000250: 2370 32be 8569 04bf 07ad ba3d 4532 8c3b
00000260: 82ce c1bc f1fa f7bd d324 5e3e eafe 04bf
00000270: 28d4 003e 296f cdbe 7b65 a3bb a518 8dbb
00000280: 0504 51be f1a0 aebe 0a6c 1cbe d158 07be
00000290: bd8f c33e 21c0 d33e d470 26be a04b b53e
000002a0: 6da7 1d3e 0301 253f 50db a7bd f97a 4bbc
000002b0: d730 433e 8496 8bbe 0fdf c9be d1c8 723e
000002c0: 88fe 983e 6f97 e0bd 205d 4ebe 0025 dabe
000002d0: 279d 013e cc5d 1fbe 0ca0 eb3b 2eaa 9e3e
000002e0: a410 c7be 7622 57bd c5c8 893e cb3d 9ebe
000002f0: 4abf f8bd 6f11 f33e 6a17 ff3e 91fd 35be
00000300: a193 003f 14b1 053e bdc0 acbd 927d 40be
00000310: 979d 1e3e 6943 53be 2602 613e 727b 90be
00000320: a219 1ebf 2c97 a6bf 061b 22bf f3c9 0a3f
00000330: e216 47bd cf91 343e 753b 493f 5291 2d3e
00000340: 3a7c 19be 1924 eabe 5660 4b3d 2328 92be
00000350: 7032 18bf e507 83bd 0fbf 0f3f 2676 a2be
00000360: be8c 0d3d a12c b8be 2f97 92be 8a62 063e
00000370: 5be3 dbbe 8c76 ae3e 33f2 2b3e 682c 95be
00000380: 9d15 cfbd c791 29be 46ee c5bd af52 7dbc
00000390: 69db ccbe f873 463c c992 573e 31aa 92be
000003a0: 6a1f 773d 215c acbe 0499 153b f492 be3e
000003b0: c666 91be ea5b de3e 5965 573f 14be 773e
000003c0: be84 18bd 7b82 22bf 65ac a8be 644f 0e3e
000003d0: 8ea6 10be 5568 2b3f 0a2e 97be c9d1 9cbd
000003e0: db00 efbe d6ca b8be c801 5ebe 18cc d83d
000003f0: 4c97 333e da32 0d3f f461 203e 8622 a5bd

lstm.bias_ih_l1 f4 [32]
-0.22980332 0.74560547 -0.5063986 -0.15864153 -0.07208981 0.2080883 0.38742355 -0.12678248
0.056008622 -0.52865607 -0.22490898 -0.2090498 0.0055480828 -0.24490382 -0.15656348 -0.42585593
0.24525245 -0.21391565 -0.16021775 -0.013720139 0.4129903 0.12765883 0.08625538 0.18059887
0.006077517 0.35074556 -0.34961677 -0.43419632 -0.06163167 0.0076541584 0.3362491 -0.14420694
00000000: 9051 6bbe 00e0 3e3f 57a3 01bf ed72 22be
00000010: d3a3 93bd 1915 553e 615c c63e 44d3 01be
00000020: 4c69 653d 0156 07bf 8a4e 66be 2711 56be
00000030: b1cc b53b 11c8 7abe 2d52 20be ca09 dabe
00000040: 7523 7b3e b40c 5bbe 1f10 24be 6fca 60bc
00000050: 7773 d33e ffb8 023e a9a6 b03d e9ee 383e
00000060: e825 c73b ec94 b33e f800 b3be fb4e debe
00000070: 7d71 7cbd bccf fa3b d828 ac3e fcaa 13be

lstm.bias_hh_l1 f4 [32]
-0.13887487 0.8331017 -0.42678413 -0.46588755 0.18277524 -0.045410797 0.068402275 0.037516247
-0.2824498 -0.3408745 -0.35007465 0.15655944 -0.25722805 0.002297179 -0.19171312 -0.4424129
-0.2267469 -0.1559166 0.20595193 0.11886524 0.12602088 -0.14996772 0.03807196 0.1663213
-0.0001217208 0.13327019 -0.37284237 0.024898674 0.23060997 -0.25506777 0.30813777 0.06706745
00000000: 3735 0ebe 2746 553f 7383 dabe d088 eebe
00000010: 6f29 3b3e ac00 3abd 7e16 8c3d a3aa 193d
00000020: 439d 90be 1a87 aebe fc3c b3be 1e51 203e
00000030: 65b3 83be 458c 163b 7250 44be f283 e2be
00000040: 5730 68be 9aa8 1fbe 10e5 523e 9e6f f33d
00000050: 9e0b 013e 2391 19be 58f1 1b3d 2250 2a3e
00000060: 5b44 ffb8 fb77 083e 32e5 bebe 4ef8 cb3c
00000070: 0525 6c3e 3e98 82be 3cc4 9d3e a95a 893d

fc.weight f4 [1, 8]
0.06100151 0.11299398 -0.0038993214 -0.062903844 0.29777187 -0.09488796 -0.27190143 0.07656488
00000000: b8dc 793d 6369 e73d c28b 7fbb bbd3 80bd
00000010: 8e75 983e 9e54 c2bd aa36 8bbe 0cce 9c3d
