models/Udupi_model.pth (torch, 6128 bytes, 9 tensors)

lstm.weight_ih_l0 f4 [32, 1]
00000000: 335e c73f 435e fb3d a5cb b9bf c68c 093f
00000010: b9d2 5e3f aca1 e0bf 2bde 403e 6e5c bebd
00000020: 1ba3 b33f ad67 443e c16c c4bf 8d89 463f
00000030: 38fb 9f3d 8710 b2bf d856 693f c392 13bf
00000040: 120f 01c0 0139 b2bd 7469 e9bf 4557 063f
00000050: 996c 3b3f 3c10 fa3f eb78 0fbf b77e 203e
00000060: 58fb 0840 083b 0e3f 7bf1 03bf a9d9 903f
00000070: adc9 f33e 21ed 21bf dc28 3d3f 217a 99be
1.5575622 0.12273838 -1.4515272 0.5373043 0.8704029 -1.7549338 0.1883475 -0.09294973
1.4034151 0.19180174 -1.5345689 0.77553636 0.07811588 -1.3911294 0.9114814 -0.57645816
-2.0165448 -0.08702279 -1.8235307 0.5247691 0.7321258 1.9536204 -0.5604388 0.15673338
2.1403408 0.55558825 -0.51540345 1.1316425 0.47614804 -0.63252455 0.7389047 -0.2997599

lstm.weight_hh_l0 f4 [32, 8]
00000000: 6f69 cbbe 5783 11bf 7678 453e 08f4 173f
00000010: a43e cf3e 5a22 15bf 5789 5fbe bc21 efbd
00000020: dacb 083e f5d7 8e3e 9743 433d e9c9 893e
00000030: 700a e13e e308 7f3e fdec ac3e e8e7 913e
00000040: baad 963d 57ac 89be 9c26 313f 25e3 b83e
00000050: b15b 693f 28f2 0abe 7741 8ebe 4043 26be
00000060: ee6f 9f3e a096 153e 4c88 143d f6f6 8abe
00000070: 3040 dd3e a21f 8e3e b57a 0e3e 8d31 823c
00000080: 501e c5bd a1b4 773e 9713 8cbd 2a34 a83d
00000090: fdbc b9bd 05ec c8be d7a2 6a3e 1c48 cc3c
000000a0: 7561 353e 1766 17be c393 ac3f e499 91bc
000000b0: 9e87 8e3e dc27 34bf 418d 65be 1329 c5be
000000c0: 98a0 eabd 76f7 a93e 5790 043f 5835 85be
000000d0: 7e7a 6f3e 46a1 acbe 7952 153e 9b50 613d
000000e0: f6f7 0a3f 4a29 353f 36b5 b93c 1018 44bf
000000f0: a36f 43be e673 69be c5dd f13e 783a 173c
00000100: f7fd 07be 9142 273e 4449 943f 8c36 313e
00000110: 3abe ae3e 3055 1abf 6fba 9c3e 5e8b e63c
00000120: 9d64 523e 691b 47be c53a c73d ab66 89be
00000130: d449 cd3d aba8 673e db6e 0dbe f581 16be
00000140: 160b 863f 6eb8 31bd bac7 e53f d290 e4be
00000150: 1072 c53d bb71 b5bf f089 453f af12 27bf
00000160: 5c5f 763d 2567 9a3e 3a1e a1be 5697 ebbe
00000170: d6d1 5a3d 1260 aabd 3965 d83d a4f2 0fbe
00000180: 9441 cf3e 9147 ce3c bd19 ff3e 56ba 63be
00000190: 180c 04bf fdc6 6ebc f8bf 083f aaf8 5c3d
000001a0: 85b9 9d3e 7808 83bd 289e db3f ce70 af3d
000001b0: e0d3 db3d f286 95bf 4615 95bd cf7a 70bd
000001c0: 00ef e63e ecca 223e 6c70 e13e e822 903e
000001d0: 706d 30be e3e1 78bd 8973 c53e fc63 75be
000001e0: 83e1 b73e 656d 663e a41a 333e 4793 1bbf
000001f0: 1e4e e33d 1860 633d beff 133f 8f3c f63d
00000200: f46b acbe 1d34 c23e 5b56 3abf 94c4 5b3e
00000210: 4c51 dabd 4536 c53e e5af 873e 96ac a83e
00000220: d9ba 93bc af04 f7bd 7d9b 8abd a601 383c
00000230: c174 cdbe 3087 35bf 3140 b7be 988f 583d
00000240: 0095 563e 0d90 1bbe 532f d8be 6ba1 ae3b
00000250: 77d9 7d3e 47f8 693e 7d14 543e 6e17 263e
00000260: b078 98bc a1c2 30be f477 2a3e 9c3b 903d
00000270: 1885 a2bd ade6 bb3e 57cf 503e 0b8a 94be
00000280: d6e4 4d3e 617f a23e ea09 1e3c acfd 95be
00000290: 3072 37bf 1873 d03e c233 623e 9f54 203e
000002a0: 4e90 773e b7fb 103e 437b 3fbe b51c 5fbe
000002b0: a194 3b3e 580a f63d 76e0 a43d ba59 113e
000002c0: 4848 a23e 7f3e 583d 838d 2fbe 5498 babe
000002d0: 28c1 5ebe b368 76be c94b 923e 6032 7ebe
000002e0: 59a5 b2be d631 92be e863 cd3d 43c3 b13e
000002f0: 84df ecbe b5fc 8bbd d3d2 88be 3189 e0be
00000300: 6aef 84bd 3385 96be 94c5 6b3f 256d 8b3e
00000310: ceda fe3c d014 b9be ca85 ebbe 9d04 4fbe
00000320: 6baa ce3d 49d8 4abe bcdd 0fbd 4a85 c7bd
00000330: bb02 d4bd 58ad e13d 312e 523e 5a5c 2c3d
00000340: 90d8 32bf 8d7c 3dbf b447 833f 430f aa3e
00000350: c88d 6e3f 5564 1d3c 07b0 3abf ac67 943d
00000360: f391 8d3e 7190 9d3e a0db 90be f29a 81be
00000370: 2822 9cbd 522c 3b3f 2b64 033d 0170 56be
00000380: 57a0 8abe d14e 8d3e 171a 5bbf 591f f33d
00000390: b0fe 5ebe ab99 97bd d4cf e43e 7daa b0bc
000003a0: b92d 91be 8509 2dbf f78c ce3f 6a5b c83e
000003b0: 9a7a 7b3e 6937 debe 9c91 f5be b300 1fbf
000003c0: 9658 b93c 99f7 ab3e 5c36 7e3f e39c 2dbe
000003d0: 4101 b23d 8271 0abf a7f0 e6bd e151 2fbe
000003e0: 087a 383f ecb1 f53e f19d 1c3f 5faf 21bf
000003f0: a9e4 4bbc a93f 28be 2480 383f 6ea0 e63e
-0.39728877 -0.56841034 0.19284233 0.5935674 0.40477479 -0.5825554 -0.21829735 -0.11676356
0.13359013 0.27899137 0.04767188 0.26911858 0.43953276 0.24905734 0.33774558 0.28497243
0.073573545 -0.26889297 0.6919954 0.36110798 0.91155535 -0.13568938 -0.2778432 -0.16236591
0.31140083 0.1460824 0.036262795 -0.2714154 0.43213034 0.2775851 0.13913997 0.015892768
-0.09624922 0.24189998 -0.06839674 0.082130745 -0.0906925 -0.3924257 0.22913681 0.024936728
0.17712958 -0.14785038 1.3482593 -0.017773576 0.27837843 -0.7037332 -0.22417165 -0.385079
-0.11456412 0.3319661 0.51782745 -0.2601726 0.23386571 -0.33716792 0.14582242 0.055008512
0.5428461 0.7076613 0.022669416 -0.76599216 -0.19085555 -0.22798118 0.4723951 0.009230249
-0.13280474 0.16333987 1.1584859 0.17305964 0.34129506 -0.60286236 0.30610988 0.028142627
0.20546193 -0.1944405 0.09728006 -0.26836142 0.10023847 0.22622935 -0.1381182 -0.14698012
1.0472133 -0.043388776 1.7951577 -0.4464174 0.09640896 -1.4175333 0.771636 -0.65262884
0.060149536 0.30156818 -0.31468374 -0.46013898 0.05342277 -0.08319105 0.10566182 -0.14057404
0.4047972 0.02518061 0.49824324 -0.2223905 -0.51580954 -0.01457381 0.5341792 0.053948082
0.30805603 -0.063981 1.715764 0.08566438 0.10733771 -1.1681807 -0.07279448 -0.05871087
0.45104218 0.15897721 0.44031084 0.2815163 -0.17229247 -0.060762297 0.3856471 -0.23963922
0.3591424 0.22502668 0.17490631 -0.607716 0.11098884 0.055511564 0.57812107 0.120232694
-0.33676112 0.37930384 -0.7278802 0.21461707 -0.106600374 0.38517967 0.26501384 0.32944173
-0.018033432 -0.1206144 -0.06767938 0.011230862 -0.4012814 -0.70909405 -0.35791162 0.052871317
0.20955276 -0.1519167 -0.42223606 0.005329301 0.24789988 0.22848617 0.2071094 0.16219875
-0.018612236 -0.17261745 0.16647321 0.070426196 -0.07935542 0.3669943 0.20391594 -0.29011568
0.20106825 0.31737807 0.009645918 -0.292951 -0.7165861 0.4071281 0.22090057 0.1565728
0.24176142 0.14158522 -0.18699364 -0.21788295 0.18318416 0.12013692 0.08050625 0.14194384
0.3169577 0.052793976 -0.17143826 -0.36444342 -0.21753371 -0.24063377 0.28573444 -0.24823904
-0.34891775 -0.28553647 0.10028821 0.34719285 -0.4626428 -0.068353094 -0.26723346 -0.4385467
-0.06490977 -0.29398498 0.92098355 0.27231708 0.031110194 -0.3614869 -0.4600051 -0.20216604
0.100910984 -0.19809069 -0.03512357 -0.0974222 -0.10352083 0.11019391 0.20525433 0.04208026
-0.698617 -0.74018174 1.0256257 0.3321477 0.9318509 0.009606441 -0.72924846 0.07246336
0.27650413 0.30774263 -0.2829256 -0.25313526 -0.07623702 0.731145 0.03207795 -0.20941164
-0.27075455 0.27599195 -0.85586685 0.118712135 -0.21776843 -0.07402357 0.4468981 -0.02156567
-0.28355196 -0.6759265 1.6136769 0.39132243 0.24558488 -0.4340165 -0.47962654 -0.6211044
0.022625249 0.3358734 0.99301696 -0.16954379 0.086916454 -0.5407945 -0.112763695 -0.17121078
0.72061205 0.47987306 0.611785 -0.6315822 -0.012444654 -0.16430534 0.7207053 0.45044273

lstm.bias_ih_l0 f4 [32]
00000000: f91f 913e 31b6 543e fe86 183f 6d3d f33d
00000010: eabd dcbe 9f5e 263f 1f53 1bbe de20 27bf
00000020: f620 95be fc1d 9a3d d016 97be 4157 2d3c
00000030: a62e aebb 4b57 a33e 5441 b6be c58b efbe
00000040: a08e a9be 522c bcbe 4e0e 42be e0f7 3f3e
00000050: be15 8d3c 0530 1dbc 11b9 6bbe bb79 24be
00000060: a2c3 71bc 9277 1a3e 318b 5c3f 9fec d6bc
00000070: 89ca adbe 4cce cf3e d81c de3d 40a1 70be
0.28344706 0.20772626 0.5958098 0.118769504 -0.43113643 0.6498813 -0.15168427 -0.65284526
-0.2912671 0.0752525 -0.29509592 0.010579885 -0.0053156195 0.31902537 -0.35596716 -0.46786323
-0.33116627 -0.36752564 -0.1895077 0.187469 0.017222282 -0.009593968 -0.23019816 -0.16062061
-0.014756115 0.15084675 0.8614989 -0.026235877 -0.33943585 0.4058708 0.10845345 -0.23499012

lstm.bias_hh_l0 f4 [32]
00000000: 93bf 373d 5309 51bd 08af f83e 6e9c d13d
00000010: 861c 0cbe 78d0 093f 9c4f 693e 3e71 70be
00000020: 984f 9ebe 97ed 4d3e 32b3 863e b36d 8abd
00000030: 10a6 d2bd fc23 1b3e 88fe d7bd 315b 3fbf
00000040: ef21 73bd 1fa6 8cbe 1c1a 493e d306 803e
00000050: edd3 213e 77e3 073e b227 4f3e 965d bebd
00000060: db44 813e 9ce9 663d d560 003f 771e b2be
00000070: 7336 b8bc 1461 e53e c329 b63c c943 51be
0.044860434 -0.051034283 0.48571038 0.10234915 -0.13682756 0.53833723 0.22784275 -0.23480698
-0.309201 0.20110165 0.2630859 -0.06759205 -0.1028558 0.15150446 -0.10546595 -0.7474852
-0.059358533 -0.2747049 0.19638866 0.25005206 0.158035 0.13270365 0.20229986 -0.09295194
0.25247845 0.05637513 0.50147754 -0.34788868 -0.0224869 0.44800627 0.02223671 -0.20436014

lstm.weight_ih_l1 f4 [32, 8]
00000000: 1c05 513e 56c7 3a3e 53a5 313f b007 3c3e
00000010: 5da9 c5be eafd 8e3b e25e 11bd abd2 823e
00000020: 12b9 bb3e 85ca df3d b0fa 853d 92a6 46be
00000030: 1004 9fbe c1b5 393d c0a6 d83e 503f e0bd
00000040: a6e1 fdbd 566b a83d 2fae bebd 3be2 9a3e
00000050: e876 b7be 28dd b2bd f1c5 07bd 0ce7 633e
00000060: 4d6c edbe e352 27bf 699f 7bbf 6aea d83e
00000070: e02b 323f 7c19 673f ee7f 45bf ced4 08bf
00000080: 16ee 303f 9c4b 2d3f e3f9 a43c 3e4c 7cbe
00000090: a8b5 78be 000d ccbe 7f8f d03e aa4b 3d3e
000000a0: e822 973e 8830 1f3f ef8d 693f 36fe c3bd
000000b0: 6537 04be 1e01 40bf 6e2e 1a3d 07a1 aa3e
000000c0: 15cf ad3e 6e6f 35be 248c 0b3e 2257 05be
000000d0: 5192 6bbd 8bc5 933e 3bb8 9c3d d144 8a3e
000000e0: 1605 f03d 042d f4bd 1000 d2bd 3bb6 f0bd
000000f0: 039b fb3d 6b67 ff3e 83d0 80be 7cc9 f03d
00000100: c09b e83b 8129 a63d 27a7 f0bd 96e8 bdbe
00000110: a5fb d5be 187a e03d 145e f83e 890e e93d
00000120: 014f 1ebe 5ccd b63e 962a 873e 3efa 37be
00000130: b55d 64bd f20c db3e ca17 803e 7c4d 92be
00000140: 936b 3e3e 4bf2 603e 2b1d 753e ee81 01bc
00000150: 7548 0b3a 5759 7d3d 363a 83be 08a1 963d
00000160: 3c7f cf3d 4620 f43e f6b4 81bf add1 dcbe
00000170: 9630 b9be 29fc 393f 2a8c ae3e d604 8d3d
00000180: 3922 da3d 7efc c03e eab1 0b3d 21ed 49be
00000190: 01f3 10be 6765 33bf 43ca ab3e 3991 cbbd
000001a0: 4914 873d 44a7 f73e 2f0a 4e3e 2341 05bf
000001b0: 1d69 99be 8b79 ecbe dad1 a83e 623d a33e
000001c0: 9235 b33d 0f90 3e3e 35a9 ef3e 7ae3 eb3d
000001d0: af8f da3d ea06 323e f1e4 fc3e 75d5 2ebe
000001e0: 7a39 b23e 0a61 c93c 4f3c 813d 4ba3 afbe
000001f0: 54d7 d93d 4fcb ec3c 5cd4 cc3e bf9a cfbd
00000200: 0d4b d23e 10b9 1a3e 953a 6a3e 91af 8f3d
00000210: 4cb9 823d 22f9 cdbe b855 383e 5adf 4b3e
00000220: f3d4 3abe e1b1 68be a60b 513e a240 78be
00000230: be44 fabd 70fb ccbd 1a16 923e 71ce 6fbe
00000240: 57f8 83be 9461 5ebe fe04 66bd 4e04 8f3e
00000250: 0485 a0bd 76b4 133f 3fda 97be 1d78 89be
00000260: 9791 633f ef55 fc3d 6e4e b43f caef 7fbe
00000270: 0f6a 76bd 18a2 6abf 5529 593e 903f 82bc
00000280: ea5c 813e 1a8c 6ebe 6b9c a33e 3a91 973e
00000290: 3155 0f3d 854d 4e3e 4683 c33d d37d 01bf
000002a0: a57f 50be 78be cebe a015 47be 0ce9 933e
000002b0: bb1f 413d e659 b53e 18b4 23be 87ab 84bd
000002c0: 7b54 993d c000 93bb 9303 3b3e bd38 59be
000002d0: 9d14 563e cae1 753d cd62 233e a60b 643e
000002e0: e8cf f9bd ffbb a93e ea83 c9bd b9c8 6b3e
000002f0: 8cbe 7b3e 410d 9d3e 6d56 803e 6ef0 84be
00000300: 6f77 cdba 1961 5f3e c775 d43d 09d3 e9bc
00000310: 8266 e33d 9f6d 093f 5f12 623d 2ad7 33bd
00000320: 54e7 783e 50cc 643c 1d83 c0bd 4875 9b3d
00000330: 228b afbd 82bf 1f3f 8466 b93e 6f75 293d
00000340: bb4a ad3e a308 b3bd 96f0 b73e c328 a93d
00000350: 6568 113d 405e e53e 6d53 923e dec9 243e
00000360: 4fdd 80bf 8f0f 88bd 8166 08c0 a436 073f
00000370: 046b ff3d 3242 dc3f 9018 12bf a1c7 2abe
00000380: 5d94 2a3d 41d4 f43e 2ebd 76bd 747c 0abf
00000390: 57b2 c8be a91e efbe dc8c bb3b 244f 31be
000003a0: 25b6 2e3e 613d 9c3e 354c 9c3f b189 a3be
000003b0: 6ed5 79be 137f fcbe eacf de3e 5dd9 5fbe
000003c0: ce0f 6cbd 9896 ba3e c721 c43d 4b19 4dbd
000003d0: a4ca 16be 774b c1bc 7725 f53e e5b3 b8be
000003e0: 4e3e aabe d72e 9b3e e875 d9be 733a 4b3e
000003f0: 6710 bcbe 8757 353f ed58 613e 79a2 3abc
0.20412105 0.18240103 0.6939289 0.18362308 -0.38605776 0.004363765 -0.035490878 0.25551352
0.36664635 0.109272994 0.065419555 -0.19399479 -0.31057787 0.04533935 0.4231472 -0.10949576
-0.12396555 0.08223598 -0.09310567 0.30250725 -0.35832906 -0.087335885 -0.033147756 0.22256106
-0.4637169 -0.6536085 -0.98290116 0.42366344 0.695982 0.9027326 -0.7714833 -0.53449714
0.6911329 0.67693496 0.020138687 -0.24638459 -0.24288046 -0.39853668 0.4073448 0.18485895
0.2951882 0.6218343 0.912322 -0.09569971 -0.12911756 -0.75001705 0.037641935 0.3332598
0.33947054 -0.17718288 0.13627678 -0.1302152 -0.057512585 0.2886165 0.07652327 0.27005628
0.1171972 -0.119226485 -0.10253918 -0.11753508 0.122854255 0.4988359 -0.25159082 0.1175718
0.007098645 0.08113385 -0.11750632 -0.3709151 -0.41793552 0.109607875 0.48509276 0.113797255
-0.15459825 0.35703552 0.26399678 -0.17966554 -0.05575343 0.42783314 0.2501815 -0.2857474
0.18595724 0.21967427 0.23936908 -0.007904513 0.0005313226 0.06185278 -0.2563035 0.07354933
0.1013169 0.47680873 -1.013335 -0.4312872 -0.3616988 0.7265039 0.34091312 0.06885688
0.10651059 0.37692636 0.03410522 -0.19719364 -0.14155199 -0.700766 0.3355275 -0.099398084
0.06595666 0.483698 0.20121072 -0.52052516 -0.29963008 -0.4618648 0.32972604 0.3188277
0.08750452 0.18609641 0.46808782 0.11517997 0.10671937 0.1738545 0.49393418 -0.17073615
0.34809476 0.024582405 0.06310331 -0.3430427 0.10636774 0.028905539 0.40005767 -0.10136937
0.41072884 0.15109658 0.2287391 0.070159085 0.06382999 -0.40229136 0.18001449 0.1990942
-0.18245296 -0.22724105 0.204146 -0.24243405 -0.12220143 -0.100088954 0.28532487 -0.23418595
-0.25775406 -0.2171691 -0.056157105 0.27932972 -0.07837871 0.57697237 -0.29658696 -0.26849452
0.8889403 0.12321078 1.4086435 -0.24993816 -0.06015974 -0.91653585 0.21207173 -0.01589945
0.252662 -0.23295632 0.31955275 0.29602987 0.034993354 0.20146759 0.09546523 -0.5058262
-0.20361193 -0.4037969 -0.19441843 0.28888738 0.0471494 0.3542015 -0.15986669 -0.06478029
0.074868165 -0.0044861734 0.18263082 -0.2121305 0.20906301 0.060029782 0.15955658 0.22270069
-0.12197858 0.33151242 -0.09839614 0.23025788 0.24584407 0.30674174 0.25065938 -0.25964683
-0.0015675853 0.21814384 0.10374027 -0.028543012 0.11103536 0.53682894 0.0551933 -0.04390637
0.24306995 0.0139647275 -0.09400008 0.07590729 -0.08571459 0.6240159 0.36211026 0.04137176
0.33846077 -0.08741882 0.3592574 0.08259728 0.03549995 0.4479847 0.28579274 0.16092631
-1.0067538 -0.066435926 -2.1312563 0.5281775 0.124715835 1.7207701 -0.5706873 -0.16677715
0.041645397 0.47818187 -0.06023901 -0.5409615 -0.39198563 -0.4670308 0.005723579 -0.17315346
0.1706167 0.30515578 1.2210757 -0.31940988 -0.24397823 -0.493157 0.43518 -0.21860261
-0.05763226 0.3644302 0.09576755 -0.05007295 -0.14725739 -0.023595555 0.47880146 -0.3607475
-0.3325066 0.30309173 -0.42472768 0.19846515 -0.36731264 0.7083668 0.22006579 -0.011391276

lstm.weight_hh_l1 f4 [32, 8]
00000000: d3b5 103e 01be 70bd 11ff 5abe 0c27 f6bb
00000010: 7a80 a23e 2176 0a3e 8fc5 073e 113f 3e3e
00000020: d1eb a03e 3d37 a9bc 9a54 e7be 5e43 8a3d
00000030: d7c5 55be 05e0 80bd 8c9f 783e f80a 8c3e
00000040: 57c8 40be 98f7 0dbe 84b1 70be 1512 d43e
00000050: 4fd3 d0bd 95e0 c4be ca67 013c f803 62be
00000060: 65ad 5f3c 9332 0fbf 794a 7e3e 606f 733e
00000070: f13a 0fbf 5b46 d5be 932f d6be b272 3f3d
00000080: 4b0b 333f 0d12 253f 49d2 d3be e041 723e
00000090: 313c d03e b2fb 093e 23e4 23be ed5d 093f
000000a0: 0e23 c03e b26f af3e ac56 b1be a820 6ebe
000000b0: f7b1 adbc 6c41 f83d 5254 553e 6576 2f3e
000000c0: a7b8 c23d b04a 913d 97c3 87be 9aa9 dd3d
000000d0: 1f82 783e 636c 3dbd 214d d83e d53b e13e
000000e0: 7387 02be 8480 d43e beba 93bd 5187 fc3e
000000f0: 795d c73e 78e2 923e 4ed8 fdbd 7703 ce3e
00000100: f3ea 0bbe 99e1 8b3e fbe7 eebd 56d2 ba3e
00000110: 77c7 ca3d d2de 84be 02f4 c73d 8098 a53d
00000120: 2b95 f03e 7485 363e 0bc2 07be 65bd 673d
00000130: 2a76 fe3d 76e4 493e b3f1 ee3d 72b9 80bb
00000140: aff2 c7bc f7c0 ba3e fc1b 083d 7c32 c3bd
00000150: 83d8 f5bd d285 2dbc f8bc 00be f3a9 253e
00000160: 83fc 5f3e 6716 f63e 24c3 1fbe a42b 783f
00000170: 9996 093f 730a cfbe 95ec 483f aa8b 283f
00000180: 5c60 ec3e faa9 983e c0b5 2dbf 6fdd d13e
00000190: 2b6d 5abd ed7f 7c3e 7ed3 2cbe efc0 373e
000001a0: fcea feba d678 f33e 7042 68be f83d d5bd
000001b0: eeb2 eabd 61a3 b6bc 6ee7 363e 2d89 b8bd
000001c0: 86e2 46bd d2ff 8a3e 62bd d2be cd64 a93e
000001d0: f580 d13e 01c4 c4bd 9a99 da3e a0d0 b43e
000001e0: be11 fabd bdb6 c2bd 08f9 db3d 805e 803d
000001f0: 8b86 203d 9704 d43c 68f7 083f a975 a83e
00000200: 3ad5 2dbe e327 45bd a619 cf3d 9374 eebd
00000210: 826f f03c 2803 38bd c282 333e c79f a0bd
00000220: 0c10 313d c844 8dbe 829d a3be 7789 553c
00000230: 7dfc 093e f4e0 50be 22fb 12bd 9e89 e8be
00000240: 1b05 e63d a12c 3dbe aa3f 8e3e 038d 743e
00000250: d3c4 863d 3dbd 703e b534 a63e 9e22 25bd
00000260: e37e f53d 0af4 403d 42f2 0cbe 6f74 93bd
00000270: 9d46 1d3e 1cff 0c3f d90c 5ebe 6344 b43e
00000280: b548 a73d 85ef d03a a9c6 19be 85b5 1fbe
00000290: 763d 7cbe 3892 893d 5870 79be 2aa6 1dbe
000002a0: 791f 133d cd35 39be 3c77 f3bc 824e b53e
000002b0: 73e4 6fbd c9df 11be 491f 5e3d 4b2d bcbe
000002c0: 1af3 3abd 6e42 5cbe 961e 1fbe e940 cfbe
000002d0: 4183 a8be d4e4 abbd dd4f c83d d025 9d3d
000002e0: 4f44 83be 2a17 073e f98a 81be 6ba7 9abe
000002f0: 69d9 2abe 519f f13e f8f6 393e 64b2 473e
00000300: f1eb 523e acb2 753d e8ae d4bd 4270 b23e
00000310: 7fc5 de3d b38e 78bd b866 083f d802 253e
00000320: 5910 d53d b702 86bd 7027 fc3d 2be7 a63e
00000330: 06ac 693e ae45 1c3e 8c7b 6f3d 19ce bb3e
00000340: add2 483e dd51 95bd 31ae 87bc 5466 f13c
00000350: d140 1d3c 438e e4bd cb48 673e d5b6 383d
00000360: 590f 60be 945e dcbd 11ff ea3e 2932 c73e
00000370: 97ec ebbe 4713 06bf 809d 26be 4bfb 063e
00000380: f338 c03c 472d 6c3d 8d77 56be 9c52 823e
00000390: 85d1 0c3e 9e61 e5bc 5658 47be 63de 093f
000003a0: ef31 22be a5a6 f13e 7724 c1bd d105 833d
000003b0: 84e0 16be 6693 a63d 1f97 11be 2015 8bbd
000003c0: 279a b63e 595b 733e 4efb d7be 4601 533e
000003d0: 0c44 06be 16e8 a83d f0c5 903d 5bd0 723e
000003e0: bb79 fe3e c295 443e 08a7 c0bd a051 db3e
000003f0: 228e d63e 0aa8 c8bc 64ee a13d 0969 ee3d
0.1413186 -0.05877495 -0.21386363 -0.007511979 0.31738645 0.13521625 0.13258956 0.18578745
0.31429914 -0.020656222 -0.45181733 0.067511305 -0.20876251 -0.06292728 0.24279612 0.27352118
-0.18826424 -0.13863981 -0.23505217 0.41420045 -0.10196554 -0.38452592 0.00789828 -0.22071826
0.01365218 -0.55936545 0.24833097 0.23772955 -0.5594931 -0.4165524 -0.4183317 0.04674024
0.69939107 0.6448067 -0.41371372 0.23657942 0.40670922 0.1347492 -0.16004996 0.53658944
0.37526745 0.34264904 -0.34636438 -0.23254645 -0.021203024 0.12121853 0.20832947 0.17135008
0.09507876 0.07094324 -0.2651641 0.108233646 0.24268387 -0.046245944 0.42246345 0.4399096
-0.12746982 0.415043 -0.072133526 0.49321988 0.389385 0.28688407 -0.123947725 0.40237018
-0.13663845 0.27320555 -0.116653405 0.364886 0.09901326 -0.25951248 0.09763338 0.08085728
0.46988806 0.17824346 -0.13257615 0.056577105 0.12424882 0.19716057 0.11667194 -0.003928357
-0.024407713 0.36475345 0.033229813 -0.095311135 -0.12004187 -0.010590987 -0.12572086 0.16178112
0.2187367 0.48063967 -0.15601784 0.9694159 0.5374542 -0.4043766 0.78485996 0.6583811
0.46167266 0.29817182 -0.67855453 0.40989253 -0.053326767 0.24658175 -0.16877553 0.17944692
-0.0019448693 0.47553128 -0.22681594 -0.1041221 -0.114599094 -0.022294702 0.17861721 -0.09010539
-0.048555873 0.271483 -0.41160113 0.33084717 0.409187 -0.09607697 0.42695314 0.35315418
-0.12210415 -0.09507511 0.10740858 0.062680244 0.03919081 0.025881095 0.5350251 0.32902268
-0.1697587 -0.048133742 0.10112314 -0.116433285 0.029350046 -0.044924885 0.17530349 -0.07842975
0.043228194 -0.27591538 -0.31956106 0.013033262 0.13475223 -0.20398313 -0.03588403 -0.45417494
0.112314425 -0.18474056 0.27782947 0.23881917 0.0658051 0.23509689 0.32462087 -0.040316217
0.11987092 0.047107734 -0.13764289 -0.07199942 0.15358968 0.55076766 -0.21684588 0.35208425
0.08168165 0.0015940523 -0.15017189 -0.15596588 -0.2463282 0.06717342 -0.24359262 -0.15395418
0.035918687 -0.1808693 -0.029719941 0.3541146 -0.058567476 -0.14245524 0.054229055 -0.36753306
-0.045641996 -0.21509716 -0.15539011 -0.4047921 -0.3291264 -0.08393255 0.09780858 0.07673228
-0.25638053 0.1319243 -0.2530134 -0.30205855 -0.16684498 0.4719186 0.18160617 0.19501644
0.20597817 0.059984848 -0.10384923 0.3485127 0.10877513 -0.060682964 0.53281736 0.16114366
0.10403509 -0.065434866 0.123122096 0.32598242 0.22819528 0.15260956 0.058467433 0.36680678
0.19611616 -0.07291005 -0.016562553 0.02946774 0.009597973 -0.11159947 0.22586362 0.045096237
-0.21880855 -0.10760227 0.45897725 0.38905457 -0.4607894 -0.52373165 -0.16271019 0.13181798
0.023464656 0.057660367 -0.20944043 0.2545365 0.137518 -0.028000649 -0.19467291 0.5385496
-0.1583936 0.47197452 -0.09430783 0.06397594 -0.14734083 0.08133583 -0.14217804 -0.06791139
0.35664484 0.23765315 -0.42183918 0.20605955 -0.13111895 0.08247392 0.070690036 0.23712294
0.49702248 0.19197753 -0.09406859 0.42835712 0.41905314 -0.02449419 0.079067975 0.116411276

lstm.bias_ih_l1 f4 [32]
00000000: 3392 93be 9645 90be cfe4 9f3d 27c2 2c3f
00000010: 1d93 3dbf e642 8cbe 49ec f93d d8ef 9e3e
00000020: 8164 0c3e 024a 5bbe fdb0 e13c 50c0 9bbe
00000030: 2b2d 5dbe 9fe2 083c 6683 8ebe 7663 26ba
00000040: 6bec 39be a7b5 bdbe b8f1 b83e 5c08 57bd
00000050: d2d6 5ebd 2492 823c 0220 d4bd 3940 5abe
00000060: 1351 233d 60e2 d2be 2206 90bd 2354 d03e
00000070: be55 7bbe 6a03 8cbc 423f 163d dab9 8dbd
-0.2882248 -0.2817809 0.07807314 0.6748375 -0.740526 -0.2739479 0.12203271 0.3104236
0.13710214 -0.2141495 0.027550215 -0.3042016 -0.21599261 0.008354812 -0.27834624 -0.00063472183
-0.18156593 -0.37052652 0.36121917 -0.052498206 -0.054404087 0.015938826 -0.103576675 -0.21313561
0.03987224 -0.41188335 -0.0703242 0.4068919 -0.24544427 -0.017091472 0.03668142 -0.06920214

lstm.bias_hh_l1 f4 [32]
00000000: 6370 36be cff3 34bd 2650 033e c097 643e
00000010: d367 3dbf 50cd 8dbd 1cbf 95be 084d 47be
00000020: 60b3 4abe 75ae 17be 9307 df3d 9a7f 27be
00000030: 06b1 0abf f000 a9be 07bd 82be 5d08 42bc
00000040: 9586 e7bd 4f26 15bd a361 0a3e a7bf 913d
00000050: 6a25 82bc 8419 3fbe 1e48 07bc 295d 70bd
00000060: c4c7 2dbe b26d acbe 8f39 d83c be5c 70bb
00000070: 263f 6fbf 654d 983d 41cf bebe 64ee cabe
-0.1781631 -0.044177826 0.12823543 0.22323513 -0.7398655 -0.06923926 -0.29247367 -0.19462979
-0.19794989 -0.14812644 0.108901165 -0.1635727 -0.54176366 -0.33008528 -0.2553484 -0.011842814
-0.11304966 -0.036413487 0.13513808 0.07116633 -0.015886981 -0.18662077 -0.00825694 -0.058682594
-0.16970736 -0.3367744 0.026394634 -0.0036676372 -0.9345573 0.07436637 -0.37267497 -0.39635003

fc.weight f4 [1, 8]
00000000: 8613 95be 081e 18be bf81 223e 8528 c3be
00000010: 5841 873b 724e 063e e1fa 20be 5a24 7cbe
-0.29116458 -0.14855206 0.15869807 -0.3811685 0.0041276626 0.13115862 -0.15720703 -0.24623242
