models/Visakhapatnam_model.pth (torch, 6184 bytes, 9 tensors)

lstm.weight_ih_l0 f4 [32, 1]
1.5022999 -5.0558944 0.18602632 0.84327716 0.0796212 2.128779 1.6815479 -0.77195734
2.3387237 -2.6157146 1.4982407 1.5884954 -2.3154361 0.037684266 0.8427763 -3.5276937
-2.4308372 2.708705 -2.2597895 -2.7568197 -1.377901 1.8152775 -1.1953514 -1.9464463
0.98428446 -3.6974547 0.3723269 1.6999108 0.51109236 2.0478165 1.9991071 -0.92918295
00000000: 5d4b c03f e3c9 a1c0 af7d 3e3e 03e1 573f
00000010: 7110 a33d ea3d 0840 f63c d73f ff9e 45bf
00000020: a6ad 1540 de67 27c0 5ac6 bf3f d153 cb3f
00000030: 1b30 14c0 d15a 1a3d 30c0 573f bcc5 61c0
00000040: d692 1bc0 6c5b 2d40 64a0 10c0 bc6f 30c0
00000050: 0f5f b0bf 035b e83f 4601 99bf 2725 f9bf
00000060: 11fa 7b3f 19a3 6cc0 a2a1 be3e ad96 d93f
00000070: f3d6 023f 6d0f 0340 bee2 ff3f efde 6dbf

lstm.weight_hh_l0 f4 [32, 8]
-0.50867116 0.038809985 -0.28419352 -0.59016025 8.638036e-05 0.1497225 0.386807 0.5415292
-0.056915946 -0.16421494 0.28495768 0.26020437 0.42363322 -0.46641707 -0.26367888 0.13492215
0.003682418 -0.5101173 0.056464422 -0.22395651 0.13249609 0.19576521 -0.33522022 0.36339748
-0.16053006 -0.08224462 -0.1510784 0.014459062 0.34442514 0.050241444 -0.19614454 0.18882103
-0.07289413 -0.3552423 0.5086582 0.15028313 0.23788197 -0.40418693 0.6487013 1.2027613
0.0019580806 -0.3244552 -0.05821657 0.017749244 -0.25940555 -0.61269194 0.5931716 1.3968513
-0.87006074 -0.159741 -0.36916777 -0.2614696 -0.5460744 0.08098288 -1.2787104 0.42867482
-0.4279718 -1.4796417 -0.7827706 -1.108379 1.4743752 -0.57546705 -0.6177901 1.5423197
-0.41069278 0.31574622 -0.37530708 0.0078085614 -0.3013271 0.2556844 0.14176798 -0.06540593
-0.17134807 -0.2122013 0.09356541 0.14380716 0.012836143 -0.25147632 -0.2010085 0.15552703
-0.09493208 0.034767225 0.09750574 0.38947162 -0.088272646 0.025312081 0.4985815 -0.30672798
-0.3575941 -0.24759243 -0.07124275 -0.37057185 0.44751227 0.21037781 -0.12611398 0.16029522
0.3101895 0.7816014 0.21149349 -0.035372365 -0.42621407 0.14380719 0.6763373 0.14518121
0.122662865 1.1604646 0.4399218 0.1917339 -0.5438892 -0.24778011 0.5712147 0.81891036
0.17267334 0.08291554 0.9353883 0.23931323 0.43902424 -1.1335987 1.4031563 1.4167802
0.04452366 -0.05719453 0.19513981 0.25237682 0.38089502 -1.022238 1.1237423 0.2512118
-0.12863702 -0.43994066 -0.002485385 0.39575493 0.16180652 0.29992527 -0.4914383 -0.017669847
-0.07665621 0.10729185 0.004156662 -0.38672268 -0.26621276 0.43715245 0.23366177 0.06802737
-0.31138474 0.10480293 0.2063489 -0.15360154 0.008096229 0.1278667 0.121047355 0.2294042
0.2867112 -0.2690138 -0.18765323 0.44692218 -0.035518095 0.115952715 0.18610848 -0.27241164
0.26656592 -0.14567076 -0.05770446 0.33672762 -0.32042602 0.45111164 0.11884364 -0.28188974
-0.019325959 0.30592418 0.03244732 0.09972312 -0.18502918 -0.30167845 -0.12006988 -0.24486098
-0.34315315 0.35959372 -0.7388579 -0.57437384 0.19735973 0.49960372 -0.44951248 0.07342919
-0.5329815 0.24288748 -0.05798394 -0.14701773 -0.78274214 0.5158096 -0.034639936 -0.5722052
0.06818449 0.14449088 0.01430245 -0.36359528 0.4000892 -0.5205494 -0.19731256 0.5982051
-0.20010002 -0.5743569 -0.27949014 0.22777742 0.28721026 -0.8741376 0.13164401 0.18029614
-0.53307134 0.08950887 -0.46083456 -0.22811899 -0.026364842 0.3300326 0.10338655 -0.24692884
-0.36303014 0.1331867 -0.06620247 -0.29075843 0.2704984 -0.2167766 0.37233162 0.1516657
0.17865819 -0.1159262 0.052334566 0.23455665 0.21332988 -0.6621717 0.5587301 0.67814684
-0.0805996 -0.2963302 0.18814957 -0.30593076 -0.22571632 -0.58187705 -0.14193141 0.99473804
-0.21589623 -0.47786623 0.3210678 -0.49120247 -0.49000072 -0.22525068 -1.2315738 0.45231488
-0.6057283 -2.1345723 -0.78450596 -0.407275 1.7990193 -1.0470833 -0.22266689 1.4828739
00000000: 4638 02bf 38f7 1e3d d081 91be be14 17bf
00000010: 1a27 b538 db50 193e 910b c63e a8a1 0a3f
00000020: b220 69bd f627 28be f9e5 913e 8239 853e
00000030: 74e6 d83e 38ce eebe eb00 87be 0829 0a3e
00000040: b954 713b 0c97 02bf 3d47 673d db54 65be
00000050: 0ead 073e ad76 483e fca1 abbe 3c0f ba3e
00000060: fe61 24be de6f a8bd 4cb4 1abe b4e5 6c3c
00000070: 7e58 b03e f9c9 4d3d 1dda 48be 4d5a 413e
00000080: 8549 95bd 52e2 b5be 6c37 023f d2e3 193e
00000090: 5597 733e 97f1 cebe 4a11 263f 15f4 993f
000000a0: 2453 003b fe1e a6be 8074 6ebd dd66 913c
000000b0: ced0 84be 61d9 1cbf 18da 173f 06cc b23f
000000c0: 4dbc 5ebf 2593 23be 8f03 bdbe 58df 85be
000000d0: 88cb 0bbf 5ada a53d c8ac a3bf 447b db3e
000000e0: 1f1f dbbe e664 bdbf a763 48bf 5ddf 8dbf
000000f0: 54b8 bc3f cf51 13bf 7e27 1ebf bb6a c53f
00000100: 5346 d2be 7da9 a13e 4028 c0be f6de ff3b
00000110: 8c47 9abe 11e9 823e a02b 113e 8bf3 85bd
00000120: de75 2fbe 4c4b 59be 399f bf3d 2f42 133e
00000130: b04e 523c 81c1 80be 2cd5 4dbe 7a42 1f3e
00000140: c06b c2bd 1468 0e3d 17b1 c73d d368 c73e
00000150: 4ac8 b4bd 485b cf3c 1346 ff3e 730b 9dbe
00000160: 9316 b7be df88 7dbe b8e7 91bd 98bb bdbe
00000170: 5420 e53e 486d 573e 0624 01be 6e24 243e
00000180: 28d1 9e3e 0817 483f c091 583e 9de2 10bd
00000190: bb38 dabe 3142 133e 7124 2d3f 62aa 143e
000001a0: ab36 fb3d 1b8a 943f 6e3d e13e e455 443e
000001b0: 533c 0bbf 12ba 7dbe 203b 123f 1ca4 513f
000001c0: 48d1 303e 9fcf a93d 9c75 6f3f 870e 753e
000001d0: c9c7 e03e c319 91bf a09a b33f 0e59 b53f
000001e0: 715e 363d d044 6abd bbd2 473e 8937 813e
000001f0: ac04 c33e b2d8 82bf cad6 8f3f d59e 803e
00000200: 6cb9 03be e73f e1be d7e1 22bb 64a0 ca3e
00000210: 9cb0 253e ce8f 993e cd9d fbbe 5bc0 90bc
00000220: eefd 9cbd d4bb db3d 9c34 883b 8400 c6be
00000230: 0a4d 88be 72d2 df3e 0845 6f3e ef51 8b3d
00000240: d26d 9fbe eba2 d63d 204d 533e b949 1dbe
00000250: 0ca6 043c 7def 023e ade7 f73d efe8 6a3e
00000260: cfcb 923e 2dbc 89be 2b28 40be fcd2 e43e
00000270: 6c7b 11bd 9e78 ed3d 3993 3e3e 8a79 8bbe
00000280: 547b 883e b72a 15be 835b 6cbd 9067 ac3e
00000290: e10e a4be 1bf8 e63e 4b64 f33d da53 90be
000002a0: 7951 9ebc 18a2 9c3e 7be7 043d a33b cc3d
000002b0: 4a78 3dbe 9975 9abe 32e7 f5bd d6bc 7abe
000002c0: c5b1 afbe ab1c b83e cb25 3dbf 2a0a 13bf
000002d0: ab18 4a3e 0fcc ff3e 8026 e6be 0b62 963d
000002e0: 7a71 08bf 7fb7 783e 9180 6dbd d18b 16be
000002f0: ca61 48bf 190c 043f 9be2 0dbd 0a7c 12bf
00000300: 4fa4 8b3d 6bf5 133e d354 6a3c 2929 babe
00000310: 7ed8 cc3e ba42 05bf 4e0c 4abe f823 193f
00000320: 05e7 4cbe 0e09 13bf 5519 8fbe 7c3e 693e
00000330: 390d 933e 7bc7 5fbf b0cd 063e 8d9f 383e
00000340: 5d77 08bf 6d50 b73d 82f2 ebbe 0698 69be
00000350: 15fb d7bc 08fa a83e 54bc d33d eada 7cbe
00000360: 16df b9be 1862 083e 2995 87bd 4ade 94be
00000370: c47e 8a3e affa 5dbe 40a2 be3e 414e 1b3e
00000380: 2cf2 363e b76a edbd c55c 563d 9e2f 703e
00000390: 2673 5a3e 1684 29bf f008 0f3f 089b 2d3f
000003a0: 6711 a5bd 98b8 97be 48aa 403e f5a2 9cbe
000003b0: 2e22 67be e5f5 14bf 7856 11be 27a7 7e3f
000003c0: e713 5dbe e2aa f4be 0063 a43e e47e fbbe
000003d0: 60e1 fabe 1da8 66be 36a4 9dbf d195 e73e
000003e0: 0311 1bbf d59c 08c0 62d5 48bf 5986 d0be
000003f0: 4446 e63f d306 86bf ca02 64be d0ce bd3f

lstm.bias_ih_l0 f4 [32]
0.1304687 -0.10933863 -0.061574157 -0.024988033 -0.1787881 0.08450606 0.7616839 1.2502055
0.27249688 -0.14387204 -0.19081375 -0.16733646 -0.16841418 -0.44802424 0.1843654 -0.2977804
0.011861138 -0.19551018 0.09429742 -0.033285458 0.17500304 0.17348684 0.020287832 -0.1434261
0.08207308 0.39841104 0.5624513 0.3390959 0.07386655 0.54752856 0.647422 0.94729733
00000000: 9699 053e efec dfbd 2f35 7cbd b4b3 ccbc
00000010: 3a14 37be 8311 ad3d b7fd 423f bc06 a03f
00000020: b684 8b3e 3153 13be ae64 43be 405a 2bbe
00000030: c474 2cbe 6f63 e5be 49ca 3c3e ac76 98be
00000040: 3855 423c d233 48be 011f c13d 5556 08bd
00000050: ff33 333e 89a6 313e ab32 a63c 4bde 12be
00000060: ee15 a83d 88fc cb3e cffc 0f3f fa9d ad3e
00000070: 5947 973d d52a 0c3f 73bd 253f 1482 723f

lstm.bias_hh_l0 f4 [32]
0.21041119 -0.012524184 0.2872715 -0.027614217 0.32978415 0.3338453 0.25175798 0.760829
0.23146345 -0.22814006 -0.07926725 -0.09281452 -0.14754714 -0.05187593 -0.32010782 -0.44455674
-0.12909944 -0.13063423 -0.29599202 -0.12644215 -0.08232049 -0.10309812 -0.21319532 0.15868926
0.35087416 0.09886591 0.5835903 0.08564021 0.19317007 0.52771556 0.38340187 1.3315344
00000000: 0876 573e 3c32 4dbc 4015 933e 3637 e2bc
00000010: 78d9 a83e c5ed aa3e 6ce6 803e b0c5 423f
00000020: c104 6d3e 8c9d 69be de56 a2bd 8a15 bebd
00000030: 9916 17be db7b 54bd 2ce5 a3be f19c e3be
00000040: a532 04be fbc4 05be 448c 97be 0d7a 01be
00000050: a597 a8bd 1b25 d3bd e04f 5abe 707f 223e
00000060: c7a5 b33e 367a ca3d 2d66 153f 2264 af3d
00000070: 60ce 453e 5e18 073f 404d c43e b86f aa3f

lstm.weight_ih_l1 f4 [32, 8]
0.9458606 -0.8937079 1.0148896 0.9391906 1.0377887 -1.0277395 0.76134497 0.9464847
0.07712779 -0.032747455 0.50971645 0.39705047 -0.23706064 -0.18935356 -0.065078236 0.30107945
1.0753944 -0.85028636 0.785461 1.1004398 1.3288797 -0.74313456 0.485622 0.9048355
0.109797016 0.26482326 0.6006629 0.45871624 -0.39492303 -0.5654027 0.746853 0.24588645
0.34938827 -0.07037057 0.23883255 0.17732272 -0.2105943 -0.09440987 0.2643561 0.18316755
-0.18349564 -1.9894798 -0.4315086 -0.52563256 1.6765152 0.10660274 -0.31526428 1.9167786
-0.3857525 0.28641763 0.29318613 -0.15951607 -0.17738256 0.33373556 -0.55130446 -0.41238523
0.6053159 -0.36920282 0.79817194 0.41829035 0.45672902 -0.8123677 0.33412918 0.60932106
0.6757754 0.109524585 0.35565117 0.09019883 0.54933846 0.17471883 0.36876416 -0.15752585
-0.07603954 0.39330205 0.5026237 0.43795076 -0.22455803 -0.20220774 -0.07193107 -0.3505065
0.72704697 0.22907393 0.6482068 0.28997266 0.1398833 0.09530624 -0.31938508 0.005478509
-0.032981988 0.263023 0.60681474 0.12516645 -0.50335586 -0.6061787 1.0279403 0.19072396
-0.15330155 0.09323346 0.2762475 0.011300311 -0.3409776 0.21541505 -0.19824526 -0.1540958
0.5521695 0.5550719 -0.20039597 0.47827986 -0.44079772 -0.39945623 -0.02975001 -0.56422937
0.24755265 0.21521327 0.14019309 0.21643156 -0.3276024 -0.5001657 0.7544292 0.3609663
0.6840132 0.613866 0.45518485 0.63415736 -0.11297235 -0.17191674 -0.0055604153 -0.32790625
0.22872356 -0.2960364 0.47072852 -0.04216229 -0.39750326 0.018235141 -0.13888045 0.1388482
0.363667 0.19414626 0.37369367 0.45620736 0.15521874 -0.31217384 0.25844344 -0.2514695
-0.26180035 0.28701732 -0.47164404 -0.468456 -0.06721632 0.42153168 0.23421764 -0.07188913
0.09910122 -0.19441898 -0.099741705 -0.15018539 0.3013879 0.023132784 0.11425682 -0.173622
-0.23919512 0.5100701 -0.10604322 0.33991584 -0.15198527 0.01878771 -0.19135469 -0.2968853
0.33770782 -0.71837723 0.68115664 0.5873229 -0.09619237 -0.11212917 0.48382384 0.26926187
0.38919917 0.013853057 0.030947559 0.3766016 0.015714869 -0.16608827 0.48787388 0.13699247
0.03128087 -0.5437591 -0.05306435 0.39944518 0.4381187 -0.15843481 0.20821433 0.45988244
0.49671522 -0.62195295 0.84633625 1.1721597 0.45055816 -0.69694275 0.4182839 1.0137572
0.12550434 0.024363663 0.002494481 0.47336912 0.105845965 -0.042508923 0.28151736 -0.025824329
0.43280545 -0.9653054 0.84535027 0.5799034 0.9275248 -0.6034834 -0.13764851 0.55749905
0.53591424 -0.04012498 0.9349995 0.33439758 -0.5062335 -0.5722738 0.54395586 0.63653624
0.16103762 -0.0065926015 -0.15564431 -0.09281476 -0.35304195 -0.22695106 0.1817001 -0.019949716
-0.24107556 -1.5440919 -0.13554634 0.14403675 1.2651668 0.15236613 0.4273225 2.1884382
-0.34125197 0.12314644 -0.11202328 -0.0803386 -0.43729442 -0.3991937 -0.23839988 -0.18997562
0.5909285 -0.27418345 1.0399647 0.961706 0.953679 -0.6482302 0.560723 0.77060705
00000000: ec23 723f 0aca 64bf e7e7 813f cc6e 703f
00000010: 43d6 843f f88c 83bf 81e7 423f d24c 723f
00000020: 2df5 9d3d 3222 06bd c77c 023f 334a cb3e
00000030: 06c0 72be e6e5 41be bd47 85bd 1627 9a3e
00000040: 86a6 893f 5eac 59bf f913 493f 36db 8c3f
00000050: bb18 aa3f 113e 3ebf 72a3 f83e 4da3 673f
00000060: 42dd e03d ea96 873e 0bc5 193f dbdc ea3e
00000070: 5a33 cabe 3bbe 10bf c231 3f3f a8c9 7b3e
00000080: 05e3 b23e 721e 90bd 8590 743e 1694 353e
00000090: 08a6 57be f659 c1bd af59 873e 4690 3b3e
000000a0: 48e6 3bbe 46a7 febf b2ee dcbe db8f 06bf
000000b0: 0d98 d63f 8a52 da3d 526a a1be 0059 f53f
000000c0: 5a81 c5be 55a5 923e 7e1c 963e 2e58 23be
000000d0: c6a3 35be 63df aa3e 4a22 0dbf 2824 d3be
000000e0: fcf5 1a3f 2708 bdbe ff54 4c3f 272a d63e
000000f0: 63d8 e93e 54f7 4fbf fb12 ab3e 77fc 1b3f
00000100: 9eff 2c3f 6d4e e03d e917 b63e 2aba b83d
00000110: 72a1 0c3f 7ee9 323e a8ce bc3e 754e 21be
00000120: 9eba 9bbd e35e c93e f2ab 003f 153b e03e
00000130: 8af2 65be 8c0f 4fbe 9950 93bd 9775 b3be
00000140: c01f 3a3f 5b92 6a3e e1f0 253f 4c77 943e
00000150: 913d 0f3e eb2f c33d 7186 a3be 1085 b33b
00000160: 1f18 07bd f3aa 863e 3658 1b3f a22b 003e
00000170: eedb 00bf 872e 1bbf 8c93 833f 244d 433e
00000180: 15fb 1cbe 2ff1 be3d 5070 8d3e f124 393c
00000190: 9e94 aebe c395 5c3e ce00 4bbe 4acb 1dbe
000001a0: fb5a 0d3f 3119 0e3f 9a34 4dbe 19e1 f43e
000001b0: 3db0 e1be 8785 ccbe 4bb6 f3bc 5671 10bf
000001c0: 717e 7d3e de60 5c3e c78e 0f3e 3ca0 5d3e
000001d0: 80bb a7be dc0a 00bf 4622 413f 93d0 b83e
000001e0: 7d1b 2f3f 5226 1d3f fd0d e93e 2358 223f
000001f0: 0c5e e7bd f10a 30be 2534 b6bb 54e3 a7be
00000200: 8236 6a3e 1592 97be 5403 f13e 5eb2 2cbd
00000210: 8c85 cbbe dd61 953c ad36 0ebe 392e 0e3e
00000220: 9032 ba3e 47ce 463e c754 bf3e 0394 e93e
00000230: a9f1 1e3e 40d5 9fbe b352 843e 9cc0 80be
00000240: b20a 86be eff3 923e 547b f1be 77d9 efbe
00000250: b6a8 89bd 00d3 d73e c0d6 6f3e 9c3a 93bd
00000260: 95f5 ca3d c515 47be 6145 ccbd 33ca 19be
00000270: 844f 9a3e f780 bd3c 7bff e93d f7c9 31be
00000280: 91ef 74be f493 023f 302d d9bd 7309 ae3e
00000290: 07a2 1bbe afe8 993c 7cf2 43be 5a01 98be
000002a0: 0ae8 ac3e 92e7 37bf 4860 2e3f cb5a 163f
000002b0: 8100 c5bd faa3 e5bd c2b7 f73e b1dc 893e
000002c0: 1d45 c73e eff7 623c bc85 fd3c edd1 c03e
000002d0: 78bc 803c 0b13 2abe 9bca f93e c147 0c3e
000002e0: 5f20 003d cc33 0bbf 015a 59bd 1484 cc3e
000002f0: 1851 e03e bc3c 22be 2336 553e b675 eb3e
00000300: 7551 fe3e 4f38 1fbf 7ea9 583f 5409 963f
00000310: 8faf e63e d76a 32bf 4f29 d63e ccc2 813f
00000320: 3684 003e 4e96 c73c 727a 233b 705d f23e
00000330: c5c5 d83d d61d 2ebd 0b23 903e 8b8d d3bc
00000340: ad98 dd3e 411e 77bf e068 583f 8d74 143f
00000350: 4472 6d3f e37d 1abf bbf3 0cbe 42b8 0e3f
00000360: ad31 093f 175a 24bd 215c 6f3f 2936 ab3e
00000370: 8598 01bf 8980 12bf b140 0b3f 0af4 223f
00000380: 0ce7 243e c006 d8bb 3961 1fbe aa15 bebd
00000390: eac1 b4be dc65 68be 970f 3a3e 966d a3bc
000003a0: 83dc 76be cea4 c5bf a9cc 0abe 5f7e 133e
000003b0: fcf0 a13f de05 1c3e 04ca da3e 5f0f 0c40
000003c0: 94b8 aebe 3334 fc3d 766c e5bd 9088 a4bd
000003d0: 0ee5 dfbe 1e63 ccbe 191f 74be f888 42be
000003e0: 1747 173f c661 8cbe 901d 853f 5d32 763f
000003f0: 4f24 743f 6af2 25bf 8b8b 0f3f 8146 453f

lstm.weight_hh_l1 f4 [32, 8]
0.2769471 -0.34955707 -0.063019045 -0.016793892 -0.046035547 0.3411505 -0.022923617 -0.014248423
0.014830046 -0.28436503 -0.123964995 -0.3391083 -0.027493903 -0.13814501 -0.21890438 0.18258287
0.958529 0.11934332 -0.6985162 -0.5669173 -0.2849567 0.2397845 -0.25090912 0.57782525
-0.106376104 -0.06283393 0.1206908 -0.1728288 -0.5435807 0.8295964 0.073745735 0.24174066
0.29493824 0.097685575 -0.0150524685 0.01912885 -0.34375218 0.6249836 -0.5095991 0.1389999
0.6512545 0.8090786 -0.8769131 -0.08335835 0.6243395 -0.4433801 1.0406553 0.7322841
-0.07857387 0.0704527 -0.009221284 0.045677666 -0.35640863 0.033943463 -0.044421915 0.3536862
0.11522053 0.16562271 -0.090301886 -0.2637344 -0.42267174 0.15944333 -0.1468943 0.48773435
-0.33987495 0.018537713 0.08943954 0.3838748 0.28276178 0.22774197 -0.3953133 -0.058815457
-0.40337262 -0.45392662 -0.08924952 -0.29299918 -0.45415196 0.030880174 -0.10984244 -0.002285034
0.5198593 -0.56005037 -0.3252625 -0.7179064 -0.46788123 0.43846643 0.20782281 -0.047174472
-0.22791076 -0.017516404 0.06923439 0.07925332 -0.5388611 0.5751852 -0.5003334 -0.044792544
-0.1221956 0.03921827 -0.01499624 0.0037655954 -0.41651583 0.2286323 0.0058316835 0.21654312
0.3315904 -0.21739261 -0.4428819 -0.42385778 -0.44872093 0.75035393 -0.104988344 0.41871488
0.21277034 -0.20864296 -0.18512611 0.20220561 -0.03956906 0.5300663 -0.4648777 -0.026932916
0.20432274 0.17241009 -0.3457372 0.00013925757 -0.60652816 0.8296431 -0.5778457 0.37253058
-0.5660764 0.06591634 -0.022730716 -0.4241448 -0.21792778 0.15546687 -0.08505339 -0.21154322
0.065983705 0.07419394 0.19310683 0.21599275 0.10141848 -0.3681721 -0.087404765 0.17227018
0.37218428 0.3161194 0.025551077 0.14356361 -0.17928778 0.4792377 -0.20594688 0.31206682
-0.004558147 -0.4393807 0.23513955 -0.45478278 0.3900678 -0.5091603 -0.28902152 -0.80524856
-0.0337636 -0.10394383 -0.39971364 0.23510797 0.11809853 0.5349689 -0.29478237 0.5221274
-0.5048812 -0.33889535 0.07607435 0.49017256 -0.16054578 -0.3694059 -0.18185423 -0.11099618
-0.10258126 -0.26063675 -0.38562962 -0.033883482 -0.28666198 0.54024565 -0.37612018 0.22693424
-0.5198197 0.27680793 0.56646895 0.08302395 0.35188192 -0.030944241 -0.28786698 -0.10249159
0.26285362 0.021200938 0.036643095 -0.54118156 -0.3173388 0.7196027 0.08846315 0.14139886
-0.08979212 -0.3018625 0.37531158 -0.033607394 0.10803042 -0.1493408 -0.2296383 -0.076873966
0.70865154 -0.19347987 -0.3756918 -0.81510925 -0.116661474 0.04536707 0.3288867 0.42095986
-0.2855965 -0.21077695 0.18783583 0.2118564 -0.58792627 0.93011624 0.2584263 0.15529637
-0.059419982 0.025020417 -0.0969187 -0.23881246 0.047179464 0.40529007 -0.30779552 0.59162927
0.8109872 0.3501409 0.020449473 -0.10291587 0.6747724 -0.13907784 0.22702378 0.650559
0.4771995 0.325864 0.051655322 -0.24903995 -0.41148412 0.54061186 -0.38955748 0.023998003
0.49297747 -0.2492122 -0.254091 -0.6733214 -0.23814973 0.22706698 -0.17903584 0.3438982
00000000: 03cc 8d3e 25f9 b2be 2110 81bd 5893 89bc
00000010: c58f 3cbd 47ab ae3e 4fca bbbc 3872 69bc
00000020: b9f9 723c 4b98 91be 5ce1 fdbd 9a9f adbe
00000030: e53a e1bc e375 0dbe 7828 60be 01f7 3a3e
00000040: 2862 753f 456a f43d f5d1 32bf 7e21 11bf
00000050: d8e5 91be 118a 753e 2977 80be 5bec 133f
00000060: b7db d9bd 13af 80bd bd2c f73d 08fa 30be
00000070: 1b28 0bbf 6e60 543f 0108 973d dd8a 773e
00000080: 2502 973e 600f c83d a19e 76bc 1bb4 9c3c
00000090: 4900 b0be edfe 1f3f 1675 02bf fd55 0e3e
000000a0: 9db8 263f c61f 4f3f 607d 60bf c8b7 aabd
000000b0: b7d4 1f3f b702 e3be 3134 853f f976 3b3f
000000c0: 56eb a0bd 8149 903d de14 17bc 8118 3b3d
000000d0: 317b b6be 4d08 0b3d c1f3 35bd 5c16 b53e
000000e0: bef8 eb3d 0099 293e 32f0 b8bd 3208 87be
000000f0: 6e68 d8be 1d45 233e 766b 16be 51b8 f93e
00000100: 1704 aebe 67dc 973c 142c b73d 3d8b c43e
00000110: 27c6 903e 3135 693e 8166 cabe 7ae8 70bd
00000120: db86 cebe 1269 e8be 74c8 b6bd fd03 96be
00000130: 9b86 e8be 6bf8 fc3c 13f5 e0bd 82c0 15bb
00000140: 8015 053f 765f 0fbf ce88 a6be b7c8 37bf
00000150: 218e efbe ac7e e03e 81cf 543e 053a 41bd
00000160: 7061 69be 907e 8fbc c3ca 8d3d 914f a23d
00000170: cdf2 09bf 563f 133f da15 00bf 6378 37bd
00000180: b041 fabd 56a3 203d cab2 75bc 35c8 763b
00000190: 9041 d5be 961e 6a3e b517 bf3b 7bbd 5d3e
000001a0: 38c6 a93e 2b9c 5ebe 6bc1 e2be e303 d9be
000001b0: c0be e5be 3217 403f 2104 d7bd cc61 d63e
000001c0: 78e0 593e 80a6 55be b391 3dbe fd0e 4f3e
000001d0: 2b13 22bd 6db2 073f 7304 eebe 6ba2 dcbc
000001e0: fb39 513e 458c 303e 7704 b1be ab05 1239
000001f0: 6e45 1bbf 7d63 543f b2ed 13bf 54bc be3e
00000200: 62ea 10bf 25ff 863d c435 babc 8229 d9be
00000210: 7628 5fbe b532 1f3e 7930 aebd c99e 58be
00000220: 7722 873d fef2 973d ccbd 453e 342d 5d3e
00000230: 7eb4 cf3d 0e81 bcbe 4501 b3bd 9867 303e
00000240: f08e be3e 67da a13e 7e50 d13c 5702 133e
00000250: 3797 37be a55e f53e bde3 52be 39c7 9f3e
00000260: 825c 95bb 82f6 e0be 6cc8 703e 4ad9 e8be
00000270: f7b6 c73e 5458 02bf a1fa 93be c524 4ebf
00000280: b34b 0abd 81e0 d4bd 44a7 ccbe 25c0 703e
00000290: a4dd f13d b9f3 083f b7ed 96be 24aa 053f
000002a0: e53f 01bf b183 adbe decc 9b3d e6f7 fa3e
000002b0: 1d66 24be c522 bdbe ff37 3abe f751 e3bd
000002c0: 2016 d2bd 2e72 85be 3f71 c5be 68c9 0abd
000002d0: 5cc5 92be 8a4d 0a3f d392 c0be 7361 683e
000002e0: e712 05bf c5b9 8d3e 1c04 113f 7608 aa3d
000002f0: de29 b43e c77e fdbc 4d63 93be 1ce7 d1bd
00000300: c094 863e 97ad ad3c 1217 163d e08a 0abf
00000310: 3b7a a2be e237 383f 2b2c b53d ddca 103e
00000320: eee4 b7bd b98d 9abe d728 c03e e8a7 09bd
00000330: 0e3f dd3d cbec 18be 4d26 6bbe 1970 9dbd
00000340: 306a 353f 961f 46be ad5a c0be 00ab 50bf
00000350: 36ec eebd d2d2 393d d663 a83e 0d88 d73e
00000360: b439 92be ead5 57be 0958 403e e2f0 583e
00000370: 5682 16bf 191c 6e3f 7450 843e 0306 1f3e
00000380: 5e62 73bd 9ef7 cc3c 507d c6bd 418b 74be
00000390: 413f 413d 2e82 cf3e 6097 9dbe 0475 173f
000003a0: db9c 4f3f ab45 b33e a785 a73c 8ec5 d2bd
000003b0: e2bd 2c3f 6c6a 0ebe ec78 683e 098b 263f
000003c0: 7e53 f43e a5d7 a63e 8894 533d 5404 7fbe
000003d0: 0cae d2be 8a65 0a3f 1474 c7be 7697 c43c
000003e0: 8b67 fc3e 7c31 7fbe 3718 82be cb5e 2cbf
000003f0: 86dd 73be 3f84 683e 2c55 37be 6d13 b03e

lstm.bias_ih_l1 f4 [32]
-0.028442785 -0.5097159 -0.07949888 -0.06032035 -0.3709272 0.56326455 -0.08299129 -0.20526019
-0.13282561 -0.49397454 -0.06963949 -0.4171733 0.06946138 -0.10690916 0.18652797 -0.5778731
0.118105344 0.13772672 0.24981868 0.2734603 0.21529971 -0.23797952 0.32246742 -0.07768594
-0.3482332 -0.5488841 0.18831514 -0.5274142 -0.15684319 0.79207796 0.18270433 0.0022900186
00000000: d800 e9bc be7c 02bf 4fd0 a2bd 7912 77bd
00000010: 2cea bdbe 1b32 103f 56f7 a9bd ba2f 52be
00000020: 7003 08be 3bea fcbe 269f 8ebd bd97 d5be
00000030: c541 8e3d 31f3 dabd 3001 3f3e 7eef 13bf
00000040: 37e1 f13d 3c08 0d3e 78d0 7f3e fd02 8c3e
00000050: 8777 5c3e e7b0 73be 731a a53e ce19 9fbd
00000060: 9f4b b2be ab83 0cbf afd5 403e 9e04 07bf
00000070: 809b 20be 9fc5 4a3f d816 3b3e 2314 163b

lstm.bias_hh_l1 f4 [32]
-0.108133025 -0.05793214 -0.40153673 -0.48834386 0.18398936 0.83635616 -0.29139617 -0.013119554
-0.27289093 -0.26884076 -0.4466463 -0.31643033 0.12059273 -0.4369347 -0.039450273 -0.4346435
-0.041630622 0.16385348 -0.27404955 -0.34567785 0.044059664 0.22077852 0.290872 -0.002432547
0.07930754 -0.5107423 -0.15012832 -0.05744737 0.03859005 0.8736761 -0.0018330185 -0.14381008
00000000: d974 ddbd 404a 6dbd 3996 cdbe 3508 fabe
00000010: b567 3c3e 701b 563f e131 95be 66f3 56bc
00000020: 5cb8 8bbe 7fa5 89be d3ae e4be 2803 a2be
00000030: 52f9 f63d e8b5 dfbe 9c96 21bd 9889 debe
00000040: df84 2abd 35c9 273e 3950 8cbe b0fc b0be
00000050: e877 343d c413 623e 2ded 943e 5e6b 1fbb
00000060: fe6b a23d 02c0 02bf 3dbb 19be ef4d 6bbd
00000070: 9a10 1e3d 3da9 5f3f e541 f0ba f342 13be

fc.weight f4 [1, 8]
-0.115829036 -0.077820554 0.33390507 0.061528858 0.1109062 -0.31771445 0.28858367 -0.1507581
00000000: c637 edbd 6260 9fbd 9bf5 aa3e af05 7c3d
00000010: ca22 e33d 78ab a2be 3dc1 933e 5560 1abe
